divine_comedy.pt (torch, 570703 bytes, 11 tensors)

weight f4 [100, 100]
0	0xbf3eeea1	-0.7458287
1	0x3f13a73a	0.5767704
2	0x3ed07f5d	0.4072217
3	0x3f3deb17	0.74186844
4	0x3ffa4fd1	1.9555608
5	0xbfbec91e	-1.4905126
6	0xbf8e5bc9	-1.1121761
7	0xbed80b1a	-0.4219597
8	0x3ed5671f	0.41680238
9	0x3ee0ac4c	0.43881452
10	0xbe56cd43	-0.20976739
11	0xbef9d32c	-0.48793924
12	0x3ef3a222	0.47584635
13	0x3ff2d745	1.8971945
14	0x3f439664	0.7640135
15	0x3ec41ea5	0.3830463
16	0x3fb148d5	1.3850352
17	0x3faa2008	1.3291025
18	0x40186381	2.3810732
19	0xbecda018	-0.40161204
20	0x404f030c	3.234561
21	0xbf39702c	-0.72436786
22	0x3fde0103	1.7344059
23	0xbe917efd	-0.28417197
24	0x3f87c241	1.0606157
25	0xbf0e81a8	-0.5566659
26	0xbef5c696	-0.48003072
27	0x3fdc7113	1.7222008
28	0x3e00c2fc	0.1257438
29	0xbf245ad3	-0.64201087
30	0xbeb4e54f	-0.353312
31	0xbee224c9	-0.4416869
32	0x3f08053b	0.5313298
33	0xbfbb2105	-1.4619452
34	0xbf9e0d5a	-1.2347825
35	0x3e0426b6	0.12905392
36	0x3e6f75c6	0.23384771
37	0x3e36e2e7	0.17859994
38	0xbfb51548	-1.414712
39	0xbf83efa1	-1.0307504
40	0x3f715446	0.94269216
41	0x3f992a9e	1.1966131
42	0xc020d77f	-2.5131528
43	0x3fc6a160	1.5517998
44	0x3ff2fd12	1.8983481
45	0x3eb1c8c7	0.34723493
46	0xbead4599	-0.3384216
47	0x3dd69944	0.10478452
48	0x3f3a09b0	0.7267103
49	0xbe156ece	-0.1459305
50	0x3ec11e44	0.37718403
51	0x3f78f339	0.9724613
52	0x3f5bcd3e	0.8586005
53	0x3f438f58	0.763906
54	0x3f6ee3ae	0.9331616
55	0x3f3e7fb8	0.74413633
56	0x3fb32099	1.3994323
57	0x3ff33bdd	1.9002644
58	0xbfad9432	-1.3560851
59	0xbee7a6a5	-0.45244327
60	0xbd7e0b19	-0.062022302
61	0x3ef4b3fc	0.47793567
62	0x3fc6e778	1.5539389
63	0x3fa248c4	1.2678456
64	0xc0281ae7	-2.626642
65	0xbfc35e77	-1.5263203
66	0x3d9773c9	0.07395131
67	0xbe8568df	-0.26056573
68	0x3f76e7f4	0.9644768
69	0xbdfe4104	-0.124147445
70	0x3dd1f080	0.1025095
71	0xbf15f6af	-0.58579534
72	0xbe84ee82	-0.25963217
73	0xbfca9c62	-1.5828974
74	0xbf67ea0c	-0.905915
75	0x3f792b05	0.9733127
76	0x401ba3de	2.4318767
77	0x3f92ce7e	1.1469266
78	0x400a9f18	2.1659603
79	0xbea7258f	-0.32645842
80	0x3ff7873a	1.9338143
81	0xbf12b223	-0.57303065
82	0x3f446bc7	0.76726955
83	0xbeaf562a	-0.34245425
84	0x3f799856	0.9749807
85	0xbf42686a	-0.75940573
86	0x3f124b03	0.5714571
87	0x3e5f7af7	0.21824251
88	0xbe6dd4c1	-0.2322569
89	0x3f852a68	1.0403566
90	0x3f06abbf	0.52605814
91	0x3f26fbe2	0.6522809
92	0xbf9678e6	-1.1755645
93	0xbd0d4141	-0.03448606
94	0x3ff128d7	1.8840588
95	0x3ec01e77	0.37523243
96	0x3e804a50	0.25056696
97	0x3fd131bb	1.6343302
98	0xbf4f2719	-0.80919033
99	0xbd134153	-0.03595097
100	0xbf1c1967	-0.6097626
101	0x3f844e3c	1.0336375
102	0xbf3bbf0c	-0.7333839
103	0x3f1c30b6	0.61011827
104	0xbf893562	-1.0719416
105	0xbe77f0b6	-0.24212918
106	0xbfca4ace	-1.5804079
107	0x3df4ab7d	0.11946771
108	0xc037f4c9	-2.8743155
109	0x3fa837c4	1.3142018
110	0x3fa5f663	1.2965816
111	0x4029f048	2.6552906
112	0xbfc815b6	-1.5631626
113	0x3feed3de	1.8658407
114	0x3f6fc7dd	0.9366434
115	0x3f3ad1d0	0.729764
116	0xbea86341	-0.32888225
117	0xbf61875a	-0.88097155
118	0xbff000c9	-1.875024
119	0xbfb33784	-1.4001317
120	0x3fb1fe58	1.3905745
121	0xbf2bbd7d	-0.6708601
122	0x3e856d67	0.2606003
123	0xbf8b6fee	-1.0893533
124	0xbf534ed1	-0.8254214
125	0xbfc85233	-1.5650085
126	0xbf015374	-0.50517964
127	0x3e94f480	0.2909279
128	0xbf1e1da7	-0.61763996
129	0x3ecaff49	0.39647892
130	0x3e5dad4c	0.21648139
131	0x3f638b18	0.88884115
132	0x3f9d6155	1.2295328
133	0x3f9baa87	1.2161416
134	0xbfb7f124	-1.4370465
135	0xbf9b45e2	-1.2130702
136	0xbecd8d21	-0.40146735
137	0x3d38cb18	0.04511556
138	0xbd71c360	-0.059024215
139	0xbf92f070	-1.1479626
140	0x3f8c1ee2	1.0946925
141	0xbfb076a7	-1.378621
142	0x3f44b37e	0.76836383
143	0xbb96e364	-0.004604744
144	0x3fb3acd3	1.4037117
145	0x3f04d3a3	0.5188543
146	0x3f9095a4	1.1295667
147	0x3df8238c	0.12116155
148	0xbf357a7b	-0.70890015
149	0xbeb8a937	-0.360666
150	0xbfce205f	-1.6103629
151	0xbc4602c9	-0.012085625
152	0x4010c010	2.2617226
153	0x3efefdf7	0.49803135
154	0xbccabf40	-0.024749398
155	0x3f95a004	1.1689458
156	0xbeb8d11b	-0.36097035
157	0x4035094d	2.8286927
158	0x3db971f3	0.09054937
159	0x3e184b7d	0.14872546
160	0x3facf7a3	1.3513073
161	0xbe904a8e	-0.2818188
162	0xbf0835fa	-0.5320736
163	0xbfc263b9	-1.5186683
164	0x3fcd7ef8	1.6054373
165	0x3d8cc9f0	0.06874454
166	0x3f8fffda	1.1249955
167	0x3f3e47f3	0.74328536
168	0x3fc36ddf	1.5267905
169	0xbed0f2ad	-0.40810147
170	0xbf85c36a	-1.0450261
171	0xbee7c158	-0.45264697
172	0x3ddddb03	0.10832789
173	0xc017a8ba	-2.3696733
174	0xbff6981d	-1.9265171
175	0x3f2d1204	0.67605615
176	0x4002d529	2.0442603
177	0xbe9d7b32	-0.30758053
178	0x3e298853	0.1655591
179	0xbfad6b9d	-1.3548466
180	0x3fef8bbb	1.8714517
181	0x3ef34a77	0.4751775
182	0xbf224c79	-0.6339794
183	0x3f91066d	1.1330086
184	0x3fd5e001	1.6708986
185	0xbeb907fc	-0.36138904
186	0x3e9497d9	0.290221
187	0xbfef82b7	-1.8711766
188	0xbf870423	-1.0548137
189	0x3fc4a14a	1.5361722
190	0x3f362b41	0.7115975
191	0x3f799a3d	0.97500974
192	0xbf914c11	-1.1351339
193	0xbf899d13	-1.075106
194	0xbf30b60f	-0.690278
195	0x3ee0564e	0.43815845
196	0x3eff3eb1	0.49852517
197	0x3f9a85a3	1.2072033
198	0xbeacecbc	-0.33774364
199	0x3f7d144f	0.98859113
200	0x3f9081ac	1.1289573
201	0x3f31563b	0.692722
202	0x3ed01d73	0.40647468
203	0x401aaa72	2.4166532
204	0xc0140401	-2.3127444
205	0x3d4774ed	0.048695493
206	0x3f825121	1.0181009
207	0xbf202799	-0.6256042
208	0xc02826ab	-2.62736
209	0xbf9c2253	-1.2197975
210	0xbe834d3e	-0.2564487
211	0x3fa73cd1	1.3065435
212	0xbec3e019	-0.3825691
213	0xbf33a418	-0.7017226
214	0xbe4ac8f5	-0.19803222
215	0x3f4544e1	0.77058226
216	0xbf60b147	-0.87770504
217	0x3d03093c	0.03199123
218	0x3faa2db9	1.3295203
219	0x3f2ab9af	0.6668958
220	0x3da09ba7	0.07842188
221	0x402f5740	2.7397003
222	0x3f2eb785	0.6824878
223	0xbf6cf799	-0.92565304
224	0xbf01db0e	-0.50724876
225	0x3dcf3ee4	0.10119417
226	0xbfa2cd31	-1.271887
227	0x3e242cf8	0.16032779
228	0xbf83867a	-1.0275414
229	0xbf0e477b	-0.5557782
230	0x3fe13fde	1.7597616
231	0x3fc02b6a	1.5013249
232	0x3f9ceb1e	1.2259252
233	0x3fdcf260	1.7261467
234	0x3f3518a9	0.70740753
235	0xc04935b5	-3.143903
236	0xbf8c3b6c	-1.0955634
237	0xbf821554	-1.0162759
238	0xbf591856	-0.8480276
239	0x3f03c6fb	0.51475495
240	0x3fa3f96a	1.281049
241	0xbf17ee84	-0.5934832
242	0x3f187a4b	0.59561604
243	0xc00e53a2	-2.2238545
244	0x3f8bb949	1.091592
245	0xbf0ba511	-0.54548746
246	0x3e2d7907	0.169407
247	0x3fd13b11	1.6346151
248	0x3e924759	0.2857006
249	0x3f877dc4	1.0585256
250	0xbfe075a0	-1.7535896
251	0x3d1348de	0.035958163
252	0xbf3e1a77	-0.7425913
253	0x3f38e051	0.7221728
254	0x3f79e243	0.97610873
255	0x3f27eed9	0.6559883

weight_ih_l0 f4 [300, 100]
0	0x3d818a38	0.06325191
1	0x3f41c2c2	0.756878
2	0x3e85d51e	0.26139158
3	0x3e6566b5	0.22402461
4	0xbdd6f03e	-0.10495041
5	0x3f2969e3	0.66177195
6	0xbc8cbc18	-0.017179534
7	0xbe221fb4	-0.15832406
8	0x3c95bff0	0.01828
9	0xbee25be4	-0.44210732
10	0xbc0ffe66	-0.008788681
11	0x3d40941f	0.04701626
12	0x3bb8f1f2	0.0056440765
13	0x3e5395f1	0.20662667
14	0xbdda84a7	-0.10669833
15	0xbeca96b2	-0.39568096
16	0x3edda4c9	0.43289784
17	0xbd9f8823	-0.07789638
18	0xbb1cd06c	-0.002392794
19	0x3f20b13a	0.62770426
20	0xbf171596	-0.5901731
21	0xbf4614cf	-0.773755
22	0xbb7d18ef	-0.0038619598
23	0xbe77ba77	-0.24192224
24	0xbcd86437	-0.026414974
25	0x3f2a5e86	0.6655048
26	0x3df0b6ba	0.11753602
27	0xbe931c98	-0.28732753
28	0x3d416f99	0.04722557
29	0x3e08fa05	0.13376625
30	0xbc7a3286	-0.015270835
31	0xbe08877c	-0.13332933
32	0x3ddd4941	0.10804988
33	0xbf0f696f	-0.56020254
34	0x3e952b95	0.29134813
35	0xbe3a723b	-0.18207638
36	0xbc867f3f	-0.016418098
37	0x3ead70d8	0.33875155
38	0x3d1b9f61	0.037993792
39	0xbef340b4	-0.47510302
40	0xba59310e	-0.0008285203
41	0xbe8ffb59	-0.2812145
42	0xbe29afeb	-0.16571014
43	0x3e176729	0.14785446
44	0x3f25159d	0.64486104
45	0xbe4bbd00	-0.19896317
46	0x3e54527f	0.20734595
47	0x3e9ef11e	0.31043333
48	0xbdbc23b7	-0.091864996
49	0xbb8dce0f	-0.0043275426
50	0xbe4bc4c2	-0.19899276
51	0xbe9f79eb	-0.31147704
52	0xbe254b33	-0.16141967
53	0x3ea3a84e	0.31964344
54	0x3e5162ca	0.20447841
55	0xbe7a0b41	-0.24418356
56	0x3d3f71a9	0.046739254
57	0x3d67bddb	0.056577545
58	0xbf08058b	-0.5313346
59	0xbd8057e1	-0.062667616
60	0xbec60714	-0.38677275
61	0x3ea10e6c	0.31456316
62	0xbf198ac3	-0.5997736
63	0x3e121031	0.14263989
64	0x3e0fb639	0.14034356
65	0x3f0e1d72	0.5551368
66	0xbd1bb82e	-0.038017444
67	0x3cff8903	0.031193262
68	0x3d1f348f	0.038868483
69	0x3d55a560	0.052159667
70	0x3ef0d541	0.470377
71	0x3d9e30c8	0.07724148
72	0xbebfcf69	-0.3746293
73	0x3ca17642	0.01970971
74	0xbe8c6137	-0.2741792
75	0x3db02519	0.08600826
76	0x3eb815dd	0.3595418
77	0xbe051da0	-0.12999582
78	0x3e1373ad	0.14399596
79	0xbd5972a8	-0.05308786
80	0xbed5316a	-0.41639262
81	0x3e6a9234	0.22907335
82	0xbfb66b26	-1.4251449
83	0x3cdfdc92	0.027326856
84	0xbddf3b02	-0.10899927
85	0x3b99d0d8	0.0046940856
86	0x3e04b16b	0.12958305
87	0x3de0aee8	0.10970861
88	0x3e811167	0.2520859
89	0xbd92ef48	-0.071745455
90	0x3d28af3c	0.04118274
91	0x3ca85a56	0.020550888
92	0xbd812c4d	-0.06307278
93	0xbde0ff1a	-0.10986157
94	0x3efbf479	0.49209955
95	0x3dcaf7e6	0.09910564
96	0x3d4abf73	0.049498986
97	0x3e13f83d	0.14450164
98	0x3e75d7c7	0.24008094
99	0x3d9e69f6	0.07735054
100	0xbea71d43	-0.32639512
101	0xbe8c7a2e	-0.27436966
102	0xbeaa8d21	-0.33310798
103	0x3e6e202e	0.23254463
104	0x3f1dd209	0.61648613
105	0x3eef65be	0.4675731
106	0xbedf1e93	-0.43578014
107	0xbd46df26	-0.048552655
108	0x3ef1f484	0.47256863
109	0x3c97526c	0.018471919
110	0xbe0631a7	-0.13104878
111	0x3ec3d490	0.3824811
112	0xbf512cc3	-0.81708926
113	0x3e1b41bb	0.15161793
114	0xbf5143a5	-0.8174384
115	0xbdbf6dd8	-0.09347123
116	0x3e3d0776	0.18459877
117	0xbe403249	-0.18769182
118	0xbe5f13b7	-0.21784864
119	0xbda51495	-0.08060566
120	0x3d3eef20	0.046614766
121	0xbee1dd7e	-0.44114298
122	0xbea4c378	-0.3218038
123	0x3e4c4847	0.19949447
124	0xbd8fc3b5	-0.0701975
125	0xbde262fe	-0.110540375
126	0x3eb126ab	0.34599814
127	0xbda94138	-0.082643926
128	0xbf0894d1	-0.53352076
129	0x3f0b3e42	0.5439187
130	0x3eb4dbe5	0.35324016
131	0x3f111ee3	0.56687754
132	0xbf0bc655	-0.54599506
133	0xbeea9f2b	-0.4582456
134	0x3c5cfeb3	0.013488459
135	0xbd589ffd	-0.05288695
136	0x3e0b8e05	0.13628395
137	0xbf4ee1f3	-0.8081352
138	0xbf0cb54b	-0.5496413
139	0x3f12352b	0.5711238
140	0xbf16f696	-0.5897001
141	0xbe709392	-0.23493794
142	0xbf3996b7	-0.724956
143	0x3e8e253f	0.27762792
144	0x3e9cf77d	0.3065757
145	0x3f090e8a	0.5353781
146	0x3ecf7908	0.40522027
147	0xbf0b044d	-0.5430344
148	0xbee2a263	-0.44264516
149	0xbe30f835	-0.17282183
150	0xbecc172f	-0.39861438
151	0xbe254318	-0.16138875
152	0xbe18ab8a	-0.14909187
153	0xbeb5bb77	-0.35494587
154	0xbe9d4623	-0.30717573
155	0x3f41191b	0.7542893
156	0xbd012c14	-0.031536177
157	0x3ecc48a3	0.39899167
158	0xbe55ec01	-0.2089081
159	0x3dd74356	0.1051089
160	0xbecb69b4	-0.39729083
161	0x3ee93481	0.4554787
162	0x3f36d9c3	0.7142603
163	0x3f4e0491	0.8047572
164	0x3e149362	0.14509347
165	0xbf27c512	-0.6553508
166	0xbf887631	-1.0661069
167	0x3e5cd696	0.21566233
168	0xbf22f575	-0.6365579
169	0xbf2f7b9d	-0.68547994
170	0xbeba9528	-0.36441922
171	0x3e0f098b	0.13968484
172	0x3f44b38a	0.76836455
173	0x3f3f9ef1	0.748519
174	0xbf07b7fa	-0.530151
175	0x3f353290	0.7078028
176	0x3db82d7d	0.08993051
177	0xbc89f6c0	-0.016841292
178	0xbf72a53c	-0.9478338
179	0xbda67050	-0.08126891
180	0xbec99e33	-0.3937851
181	0x3aa5c410	0.0012646932
182	0x3f19a1f8	0.6001277
183	0xbed8d6e3	-0.42351446
184	0xbd0c7ec2	-0.034300573
185	0x3e0818f4	0.13290769
186	0xbf13d702	-0.5774995
187	0xbd8ad3ce	-0.0677868
188	0x3ec64194	0.38721907
189	0x3ee3924e	0.4444756
190	0xbf1f7173	-0.62282485
191	0x3f4fa38b	0.8110892
192	0x3e2d1fea	0.16906705
193	0xbeb556b9	-0.35417727
194	0xbe89e115	-0.26929536
195	0x3eb4d63d	0.353197
196	0x3ed639c2	0.4184094
197	0x3f066484	0.52497125
198	0xbd361f98	-0.044463724
199	0x3f42574b	0.7591445
200	0x3f708592	0.9395381
201	0xbea558ef	-0.32294413
202	0xbdf0e340	-0.117620945
203	0x3e8ba4c8	0.27274156
204	0x3eb1790a	0.34662658
205	0xbebd8533	-0.37015685
206	0x3d21dc2e	0.03951662
207	0x3f7e41d5	0.993192
208	0x3e16dda5	0.14732988
209	0x3db97c4b	0.0905691
210	0x3ead8e1d	0.33897486
211	0x3edcf122	0.4315272
212	0xbed2ec5d	-0.41195956
213	0xbcea8ad5	-0.028630653
214	0x3e601beb	0.2188565
215	0xbebbd75b	-0.3668774
216	0xbe8d4032	-0.2758804
217	0xbe29b184	-0.16571623
218	0xbeb931a0	-0.36170673
219	0x3e5f7e6e	0.21825573
220	0x3f3f00a8	0.74610376
221	0x3e9f2a5a	0.31087
222	0xbed89a60	-0.4230528
223	0x3e53ba57	0.20676552
224	0x3f121119	0.5705734
225	0xbe9b3af1	-0.30318406
226	0x3e7acad5	0.24491437
227	0xbf0394dd	-0.5139902
228	0x3f95ff55	1.1718546
229	0x3e0fb134	0.14032441
230	0xbda2b476	-0.079445764
231	0x3d489e56	0.048979126
232	0xbe7c679c	-0.24648899
233	0xbea21275	-0.31654707
234	0xbde8e885	-0.113724746
235	0x3efef2b7	0.49794552
236	0x3cb02a5b	0.021504572
237	0xbefcffde	-0.4941396
238	0xbe0a4cf5	-0.1350592
239	0x3ef952ff	0.48696133
240	0xbf33f56d	-0.70296365
241	0xbec19d1a	-0.3781517
242	0xbea7ace1	-0.32749084
243	0xbe341a67	-0.17588197
244	0xbe4d93e1	-0.20075943
245	0xbf131540	-0.574543
246	0x3eabc6cf	0.33550116
247	0xbdafa51b	-0.08576413
248	0x3e6ca221	0.23108722
249	0x3e9f5965	0.3112289
250	0xbf0b5523	-0.54426783
251	0xbcd2b7fa	-0.025722492
252	0x3ec3a5b5	0.38212362
253	0xbf0239d3	-0.5086948
254	0xbf397892	-0.724496
255	0x3f7bf47a	0.98419917

weight_hh_l0 f4 [300, 100]
0	0xbeffbc07	-0.4994814
1	0xbcdb1058	-0.026741192
2	0xbda382ce	-0.079839334
3	0x3c0a6586	0.008447057
4	0xbeaf76ab	-0.34270224
5	0x3e8f7969	0.28022316
6	0x3c937a54	0.018002667
7	0xbda2baf5	-0.079458155
8	0xbd3bd828	-0.04586044
9	0xbe8fca3f	-0.2808399
10	0x3ee205dc	0.44145095
11	0x3dc7d25d	0.097569205
12	0xbf0b691a	-0.5445725
13	0x3f89bdbb	1.0761026
14	0xbeebaac7	-0.4602873
15	0xbec365c4	-0.3816358
16	0x3f0dd594	0.5540402
17	0x3e159dd1	0.14610983
18	0xbeb6ac60	-0.35678387
19	0xbf22691a	-0.6344162
20	0x3c25276b	0.010080199
21	0x3d79eb73	0.061015557
22	0x3dbf65b1	0.09345568
23	0x3f03ee73	0.5153572
24	0xbe4e0e3a	-0.20122615
25	0x3f370b3e	0.7150153
26	0x3f857a54	1.0427957
27	0x3eb53d6f	0.35398433
28	0xbf6bf167	-0.92165226
29	0x3e7eee8c	0.24895686
30	0x3ded0ff4	0.115753084
31	0xbe99af18	-0.30016398
32	0x3e01b3c7	0.12666236
33	0xbc645b1d	-0.013937739
34	0x3e2d780a	0.16940323
35	0x3ee826f7	0.45342228
36	0xbe9b53e7	-0.3033745
37	0x3e457cd1	0.19285895
38	0xbdb29d53	-0.087214135
39	0xbf111d35	-0.5668519
40	0xbe753976	-0.23947701
41	0xbf8f3f3a	-1.119117
42	0x3f32a577	0.6978373
43	0xbe0c0507	-0.13673793
44	0xbcb03b1f	-0.021512566
45	0xbdd3414d	-0.103151895
46	0x3f61f16c	0.88259006
47	0x3edfb4ee	0.43692726
48	0x3ebdf71c	0.37102592
49	0xbf625fa3	-0.8842718
50	0xbf600f86	-0.87523687
51	0xbcb8407e	-0.02249169
52	0xbe21dc02	-0.15806583
53	0xbf4e952d	-0.80696374
54	0x3edfe887	0.43732092
55	0x3f7c4cba	0.98554575
56	0x3f13fbb1	0.57805926
57	0x3e627f97	0.22118984
58	0x3e1ede0c	0.15514392
59	0x3f812788	1.0090189
60	0xbd666263	-0.056246173
61	0xbe37b5a9	-0.17940392
62	0x3ddd24aa	0.10798009
63	0xbf4f97cf	-0.81091017
64	0x3e18e465	0.14930876
65	0xbea3eaee	-0.32015175
66	0x3e93995d	0.28827944
67	0xbe27b0d9	-0.16376056
68	0x3e124f42	0.14288047
69	0xbf44e047	-0.7690472
70	0xbe168927	-0.14700757
71	0xbf13c4a2	-0.5772191
72	0xbf85c5e9	-1.0451022
73	0x3ca0b8d0	0.019619375
74	0x3f71c0be	0.94434726
75	0x3e6c405b	0.23071425
76	0xbe53c5ab	-0.20680873
77	0xbc9c9a27	-0.019116474
78	0x3da6799d	0.08128665
79	0x3f905bb9	1.1277992
80	0x3d7a89e6	0.061166666
81	0xbe99b435	-0.300203
82	0xbefd5fb8	-0.4948709
83	0xbda3fe63	-0.08007505
84	0x3e8888ba	0.26666814
85	0x3f2f4ccc	0.6847656
86	0x3dfbffd3	0.12304654
87	0x3e7fae13	0.24968748
88	0xbeb69d77	-0.3566701
89	0x3da41eac	0.08013663
90	0x3f9e703f	1.2378005
91	0x3b9c483c	0.004769353
92	0x3d0b50d0	0.034012616
93	0xbe486a72	-0.19571856
94	0x3f275c33	0.6537506
95	0xbf321c54	-0.69574475
96	0x3fb16aa1	1.3860666
97	0x3de0e416	0.10981004
98	0xbe2ff8c8	-0.17184746
99	0xbe90b051	-0.2825952
100	0x3f7cc6c6	0.98740804
101	0xbe676100	-0.22595596
102	0xbdf9472d	-0.12171779
103	0x3d85df0f	0.06536686
104	0xbcaf2d2e	-0.021383848
105	0x3c54bb33	0.012984085
106	0x3ea99516	0.33121556
107	0xbe881688	-0.2657969
108	0x3f4d879a	0.80285037
109	0xbea50e37	-0.32237408
110	0xbe42e6c7	-0.19033347
111	0x3db91bbf	0.09038495
112	0x3eaca7e4	0.3372184
113	0xbf208167	-0.6269745
114	0xbf2b1886	-0.66834295
115	0x3f8bed3d	1.0931774
116	0xbdc39120	-0.09549165
117	0xbf2b0ed9	-0.6681953
118	0xbea55930	-0.32294607
119	0x3ef5c692	0.4800306
120	0xbd399967	-0.04531231
121	0xbec877d6	-0.39153928
122	0xbe3b3cdd	-0.18284936
123	0xbdc3df8f	-0.09564125
124	0x3f733325	0.94999915
125	0xbf0384cb	-0.513745
126	0x3f3def3c	0.7419317
127	0xbf2f50b3	-0.6848251
128	0xbf69b0de	-0.912855
129	0xbe9e2f26	-0.30895346
130	0xbf41b0d8	-0.7566047
131	0xbe02766a	-0.12740484
132	0x3dffd586	0.12491898
133	0x3df6a36c	0.12042889
134	0x3d4abfa6	0.049499176
135	0x3f2a9ffd	0.6665037
136	0xbde1598e	-0.11003409
137	0x3e41ffe7	0.18945275
138	0xbe88c391	-0.26711705
139	0x3ed9ef33	0.42565307
140	0x3f88cc0d	1.0687271
141	0xbedf9e6d	-0.43675557
142	0x3d627a9d	0.055292714
143	0x3ea4e33b	0.32204613
144	0x3eb4a144	0.35279286
145	0x3e609b02	0.21934131
146	0x3cc0ae92	0.023520742
147	0x3e47fb9f	0.1952958
148	0x3e4bdd1b	0.19908564
149	0x3d040e9f	0.032240506
150	0xbf625fd1	-0.88427454
151	0xbf359e0f	-0.70944303
152	0x3f349db3	0.7055313
153	0xbd590ceb	-0.052990835
154	0x3f7aebc2	0.9801599
155	0xbedee281	-0.43532184
156	0xbf500db5	-0.81270915
157	0xbd225123	-0.03962816
158	0xbf0f2194	-0.5591061
159	0xbf01122c	-0.50418353
160	0x3e636d4c	0.22209662
161	0x3e7afbdd	0.2451014
162	0x3eb4b0b6	0.3529107
163	0x3e87b3bd	0.26504317
164	0x3ee3df30	0.44506216
165	0x3e02f89d	0.12790151
166	0x3d276c1f	0.040874597
167	0xbe2513d1	-0.1612084
168	0x3ef441d7	0.47706482
169	0xbc7fa75f	-0.015603869
170	0xbebbebcc	-0.36703336
171	0xbf3c3166	-0.73512876
172	0x3f198fa5	0.5998481
173	0xbf26f748	-0.6522107
174	0x3e5f986e	0.21835491
175	0x3ea9b46e	0.3314547
176	0x3efcf68b	0.49406847
177	0x3f91cb31	1.1390134
178	0x3f1ced4e	0.612996
179	0x3edfd5e7	0.43717882
180	0xbe06cb83	-0.13163571
181	0x3ef9f31c	0.4881829
182	0xbc8b50cf	-0.017006306
183	0xbe2fa0e8	-0.17151225
184	0xbe2f799e	-0.17136237
185	0xbc38130b	-0.011235009
186	0x3ee9b1d1	0.45643476
187	0x3d591f7e	0.05300855
188	0xbedca3c1	-0.43093684
189	0xbd237639	-0.039907668
190	0xbecdce23	-0.40196332
191	0x3f658847	0.8966107
192	0x3d06781b	0.032829385
193	0xbe81267d	-0.25224677
194	0x3d22d2f1	0.03975195
195	0x3ceb899f	0.028752146
196	0xbe869d94	-0.26292098
197	0x3f23f4f2	0.6404563
198	0xbeef1ad9	-0.4670017
199	0xbf287d9c	-0.65816665
200	0x3d8fbb12	0.07018103
201	0x3f882082	1.0634921
202	0x3e975074	0.29553568
203	0x3d9639d5	0.07335249
204	0x3e43782a	0.19088808
205	0x3e34ad96	0.17644343
206	0xbe5c0585	-0.2148648
207	0xbf306b00	-0.6891327
208	0x3f34265f	0.7037105
209	0x3e968542	0.29398543
210	0x3e7d8ac9	0.24759974
211	0xb9a39e8c	-0.0003120791
212	0x3f558271	0.8340216
213	0x3ec83473	0.39102516
214	0x3f8fc938	1.1233282
215	0x3f01de8e	0.50730217
216	0xbfcffa45	-1.6248251
217	0x3f9f0ec0	1.2426376
218	0xbeb45b60	-0.35225964
219	0x3f94d35c	1.1627002
220	0x3ea6b8f6	0.3256299
221	0x3f4aa1e0	0.7915325
222	0x3f24c4e9	0.6436296
223	0xbee66140	-0.4499607
224	0x3e2b544c	0.16731375
225	0xbcf3edf9	-0.02977656
226	0x3f4ef04f	0.8083543
227	0x3e531af3	0.20615749
228	0x3da41664	0.08012083
229	0x3cbf9e99	0.023391055
230	0x3f4fb5fc	0.8113706
231	0x3ef56499	0.47928312
232	0xbf0e5868	-0.5560365
233	0x3e7bb12b	0.24579303
234	0x3d87d372	0.06632127
235	0xbe96615b	-0.2937115
236	0x3ef6e1cf	0.48219153
237	0x3fa55ad4	1.2918344
238	0x3e6c11bb	0.23053639
239	0x3e7cd3ee	0.2469022
240	0xbee342ad	-0.44386807
241	0xbefb3a0b	-0.4906772
242	0xbe192e75	-0.14959128
243	0xbee36f0a	-0.44420654
244	0xbf799b10	-0.9750223
245	0x3e820724	0.25396073
246	0x3e9e903d	0.3096942
247	0xbd879b9a	-0.066214755
248	0x3f5dd0d7	0.8664679
249	0x3fa98c24	1.3245893
250	0x3ec8e28e	0.39235348
251	0x3eb27ea7	0.34862253
252	0x3eff4ca2	0.49863154
253	0x3e1b7413	0.15180998
254	0x3ea5cddf	0.3238363
255	0xbf1d7647	-0.615086

bias_ih_l0 f4 [300]
0	0x3e4bc75f	0.19900273
1	0xbecddf96	-0.40209645
2	0xbd82ea0b	-0.063922964
3	0x3ea044c5	0.31302467
4	0x3dea4a7c	0.11439988
5	0xbec4be32	-0.38426358
6	0x3c0ac8b5	0.008470704
7	0xbe5cdefb	-0.21569435
8	0x3cee8cc4	0.029119857
9	0xbee5c979	-0.44880274
10	0xbe78787b	-0.2426471
11	0xbdd6c297	-0.10486334
12	0x3e7bd9a3	0.2459474
13	0x3d829579	0.06376166
14	0xbc034d6b	-0.008014063
15	0x3ea06b06	0.31331652
16	0x3d7cbf1c	0.061705694
17	0xbe35d22c	-0.17755955
18	0xbd6ac3c1	-0.05731559
19	0xbe1528b0	-0.14566302
20	0x3eca63e1	0.39529327
21	0x3e8c222c	0.2736982
22	0xbda82f71	-0.08212174
23	0xbe2d6e1e	-0.16936538
24	0xbea44ba9	-0.32088974
25	0xbebe4675	-0.3716313
26	0xbf0887f3	-0.5333244
27	0xbd943df6	-0.072383806
28	0x3c9ce874	0.019153811
29	0xbe3036f3	-0.17208461
30	0xbe7d96fd	-0.24764629
31	0xbe8957ac	-0.268247
32	0xbd029263	-0.031877887
33	0xbe17ae25	-0.14812525
34	0xbd2d7858	-0.042351097
35	0xbdb74f52	-0.08950676
36	0xbe8164b1	-0.25272134
37	0x3df9c64e	0.12196027
38	0x3e0ea8a6	0.13931522
39	0xbe89c52b	-0.2690824
40	0xbdd5eac0	-0.10445166
41	0x3e1ccbdf	0.15312146
42	0xbe4e844d	-0.20167656
43	0xbea0b146	-0.3138525
44	0xbed17246	-0.40907496
45	0x3ec71137	0.3888032
46	0x3c240f72	0.010013448
47	0xbeb9bcaa	-0.36276752
48	0xbe7bfec7	-0.24608909
49	0xbe9d024f	-0.30665824
50	0xbde36266	-0.111027524
51	0xbea3fab9	-0.32027224
52	0xbeb58b81	-0.35457996
53	0xbd84bcdc	-0.064813346
54	0xbea6e53f	-0.32596776
55	0xbe509dc3	-0.20372681
56	0x3beb69c2	0.007184238
57	0xbd722953	-0.05912144
58	0xbc304c61	-0.010760398
59	0xbe2c9c70	-0.16856551
60	0x3c9415e6	0.018076848
61	0xbe5a5123	-0.21320014
62	0x3e33279d	0.1749558
63	0xbc3f19f4	-0.011663903
64	0xbd7c155c	-0.061543807
65	0x3e881ecb	0.26585993
66	0x3e2a4434	0.1662758
67	0xbe618d64	-0.22026592
68	0xbe60f75f	-0.21969365
69	0xbc88009c	-0.016601853
70	0x3dd9b1dd	0.10629628
71	0xbea29a27	-0.31758234
72	0xbd0259f3	-0.031824064
73	0xbec80594	-0.39066756
74	0xbcae6075	-0.021286229
75	0x3e7799ad	0.24179716
76	0xbe2f28a5	-0.17105348
77	0xbe733464	-0.23750454
78	0xbcac78de	-0.021053728
79	0xbdb3213c	-0.08746573
80	0x3e0ee534	0.13954622
81	0x3e51b4af	0.20479082
82	0xbc8371e5	-0.01604552
83	0x3e9efe81	0.31053546
84	0xbd382291	-0.04495484
85	0xbecb7799	-0.39739683
86	0xbcb48d15	-0.02203993
87	0xbe77cc0c	-0.24198931
88	0x3d7c0eb5	0.061537463
89	0x3df2c216	0.11853425
90	0xbee3a95c	-0.44465148
91	0xbeb9c4af	-0.3628287
92	0x3e09c1b1	0.13452794
93	0xbe751c77	-0.2393664
94	0x3e99d0f7	0.3004224
95	0xbef9a1f0	-0.4875636
96	0xbe3a3fdb	-0.18188421
97	0x3d19a4fa	0.03751085
98	0xbe157e45	-0.14598949
99	0xbe052108	-0.13000882
100	0xbef995d2	-0.48747116
101	0xbf398ce6	-0.7248062
102	0xbf058cca	-0.5216795
103	0xbd93ea4e	-0.072224244
104	0xbda71f23	-0.08160236
105	0xbf0a9587	-0.5413441
106	0x3c58f7fe	0.01324272
107	0xbe785b03	-0.24253468
108	0xbe302615	-0.17202027
109	0xbdde417e	-0.108523354
110	0x3de05978	0.10954565
111	0xbeb6fa28	-0.3573773
112	0xbeef381c	-0.46722496
113	0xbf29d5f5	-0.663421
114	0xbeaec89d	-0.3413743
115	0xbe3b3668	-0.18282473
116	0x3e0dd9ce	0.13852617
117	0xbdb04c40	-0.086082935
118	0xbe631077	-0.2217425
119	0xbf113188	-0.56716204
120	0xbf0bfd9d	-0.5468386
121	0xbf0edad9	-0.55802685
122	0xbec69180	-0.38782883
123	0xbf03d7b9	-0.5150104
124	0xbeea0c51	-0.45712522
125	0xbf2892d7	-0.6584906
126	0xbf082407	-0.53179973
127	0xbe79a441	-0.24379064
128	0xbefe8649	-0.49711826
129	0xbe94e412	-0.29080254
130	0xbe57b663	-0.21065669
131	0xbe271b22	-0.16318944
132	0xbd7c85ee	-0.061651163
133	0xbf58c092	-0.8466884
134	0xbf42b472	-0.7605659
135	0x3e114599	0.14186706
136	0xbe1177aa	-0.14205804
137	0xbe091d12	-0.13389996
138	0x3e29dae7	0.16587411
139	0xbf3e869f	-0.74424165
140	0xbe14a10e	-0.14514562
141	0xbe83958c	-0.25700033
142	0xbf16daf3	-0.5892784
143	0xbefe52f6	-0.4967267
144	0xbe98fb6a	-0.29879314
145	0xbf9ebfb6	-1.2402256
146	0xbe47730f	-0.19477485
147	0xbeecb837	-0.46234295
148	0xbe739b0a	-0.23789611
149	0xbf02e1fc	-0.51126075
150	0xbeaffed0	-0.34374094
151	0xbc9a7f93	-0.01885966
152	0xbe2056db	-0.15658133
153	0xbc4fc58d	-0.012681377
154	0xbed82917	-0.4221885
155	0xbf2cf030	-0.67554
156	0xbf12d73e	-0.57359684
157	0xbecfcf23	-0.4058772
158	0xbda1aafb	-0.0789394
159	0xbcb371e0	-0.021904886
160	0xbde42050	-0.111389756
161	0xbe28d6a4	-0.16488129
162	0x3e426fe4	0.18987995
163	0xbde9cb2c	-0.11415705
164	0xbf1ce7c0	-0.6129112
165	0xbe94f003	-0.29089364
166	0xbf2a5a1d	-0.6654375
167	0xbeee651d	-0.46561518
168	0xbd9e5d9c	-0.07732698
169	0xbf46ebd3	-0.7770359
170	0xbf0cadad	-0.5495251
171	0xbf1c3b14	-0.61027646
172	0xbe8c7d96	-0.27439564
173	0xbed705f8	-0.4199674
174	0xbe9d83fe	-0.30764765
175	0xbf2376dc	-0.6385324
176	0xbe8f37db	-0.27972302
177	0xbe9309e6	-0.2871849
178	0xbf117861	-0.5682431
179	0xbf500aaf	-0.812663
180	0xbf956a7d	-1.1673123
181	0xbe429192	-0.19000843
182	0xbef91a50	-0.48652887
183	0xbefdcb7a	-0.49569303
184	0xbefc9103	-0.49329385
185	0xbf13a9e4	-0.5768111
186	0xbdae92fd	-0.085241295
187	0xbdf1ed3a	-0.118128255
188	0xbed2e879	-0.41192988
189	0xbe96898a	-0.2940181
190	0xbe14b564	-0.1452232
191	0xbef3bb17	-0.47603676
192	0x3e4cc29d	0.19996114
193	0xbf28c307	-0.6592259
194	0xbed4487c	-0.4146155
195	0xbec23c35	-0.3793656
196	0xbefdb808	-0.49554467
197	0xbee3a005	-0.44458023
198	0x3dc91395	0.09818188
199	0xbeb7e8be	-0.35919756
200	0xbe68d879	-0.22738828
201	0x3d418977	0.047250237
202	0x3d6f4950	0.058419526
203	0x3d316710	0.04331118
204	0x3e76ba6c	0.24094552
205	0xbce2b1b1	-0.02767262
206	0x3dea336a	0.11435588
207	0xbe4fbf27	-0.20287763
208	0x3be9cd45	0.0071350657
209	0x3e5b4bbc	0.21415609
210	0x3d450de6	0.048108958
211	0xbe47ba88	-0.1950475
212	0xbe081205	-0.13288124
213	0xbe0faa70	-0.1402986
214	0x3ebfe246	0.3747732
215	0x3d3b6bf3	0.045757245
216	0xbe0ed8c2	-0.13949874
217	0xbc18799f	-0.0093063405
218	0xbdae1746	-0.08500533
219	0x3d279d79	0.040921662
220	0x3ddf2167	0.10895043
221	0xbdd4ece4	-0.10396746
222	0xbe572fd5	-0.2101434
223	0x3e3dac94	0.18522865
224	0x3c8a3e15	0.016875306
225	0x3e8e34d9	0.27774695
226	0x3d9f3970	0.07774627
227	0x3d42d56b	0.047566812
228	0xbe964c00	-0.29354858
229	0xbe01a7ad	-0.1266162
230	0x3d6b4f34	0.05744858
231	0xbe3f5fa6	-0.1868883
232	0xbe09f590	-0.13472581
233	0x3ea47f7a	0.32128507
234	0xbebcc740	-0.36870766
235	0xbe295911	-0.16537882
236	0x3bdea086	0.006794038
237	0xbd34be1a	-0.044126607
238	0xbebd5386	-0.36977786
239	0xbe2255f0	-0.15853095
240	0x3e130cff	0.14360426
241	0xbb534f5d	-0.003224335
242	0x3ddb0b3a	0.10695501
243	0x3e6cf725	0.23141153
244	0x3e6f2b9e	0.23356482
245	0xbe9af1bb	-0.3026255
246	0x3e61308b	0.21991174
247	0x3d8da3c4	0.069160014
248	0x3e5e4a58	0.21708047
249	0xbdbfa199	-0.09356994
250	0xbe8cb5bd	-0.27482405
251	0xbebe378a	-0.37151748
252	0x3cf6f64e	0.030146744
253	0xbceeb378	-0.029138312
254	0x3db4da78	0.08830732
255	0x3db01d90	0.085993886

bias_hh_l0 f4 [300]
0	0x3d79452d	0.060856987
1	0xbe8c9c78	-0.27463126
2	0xbcc54184	-0.024079092
3	0x3e6e38a6	0.23263797
4	0x3e462ff8	0.19354236
5	0xbe90fe80	-0.28319168
6	0xbd5aeb41	-0.05344701
7	0xbe5dfff5	-0.21679671
8	0x3c64f0aa	0.013973394
9	0xbebf1b4d	-0.37325516
10	0xbe17538a	-0.14777961
11	0xbe00b821	-0.1257024
12	0x3e86389f	0.26215073
13	0x3d27b263	0.040941607
14	0x3e2a9d50	0.16661572
15	0x3e19fad4	0.1503709
16	0x3db81bb3	0.08989658
17	0xbead6007	-0.33862326
18	0x3d25f453	0.04051621
19	0xbdb347ff	-0.087539665
20	0x3e8c0919	0.2735069
21	0x3e0ea151	0.13928725
22	0xbdc922f9	-0.09821124
23	0xbe772d3e	-0.24138352
24	0xbead419d	-0.3383912
25	0xbecbd965	-0.39814296
26	0xbf14812c	-0.580096
27	0xbdc48e7e	-0.09597491
28	0x3d7ef54e	0.06224566
29	0xbe300253	-0.17188387
30	0xbe1165b5	-0.14198954
31	0xbe9f7b47	-0.3114874
32	0xbe23a584	-0.15981108
33	0xbe21c841	-0.15799047
34	0x3d349d3e	0.04409527
35	0xbde56898	-0.1120159
36	0xbe6178e1	-0.22018768
37	0x3db3060d	0.087413885
38	0x3d8b5df3	0.06805029
39	0xbdd56450	-0.10419524
40	0xbe1925c5	-0.14955814
41	0x3ce0db91	0.027448447
42	0xbde9cc1f	-0.11415886
43	0xbe81216e	-0.25220817
44	0xbebe5656	-0.37175244
45	0x3eb7a055	0.3586451
46	0x3c2bdf1a	0.010490203
47	0xbea65354	-0.3248545
48	0xbec24100	-0.37940216
49	0xbe871d88	-0.26389718
50	0xbe02da32	-0.12778547
51	0xbede1a51	-0.43379453
52	0xbeee06c9	-0.46489552
53	0x3d4123f6	0.047153436
54	0xbea0795b	-0.31342587
55	0xbe451cf3	-0.19249325
56	0x3e435a01	0.19077303
57	0x3cb383a6	0.02191336
58	0x3c0cebc9	0.008601137
59	0xbe990997	-0.2989013
60	0x3dfd41fa	0.123661
61	0xbdfce97e	-0.123492226
62	0x3e8554c0	0.26041222
63	0xbc406cb4	-0.011744667
64	0x3d1ced5d	0.038312305
65	0x3e818c8c	0.2530254
66	0x3e84e7c4	0.25958073
67	0xbe8039c5	-0.25044075
68	0xbe8d485d	-0.2759427
69	0xbc430816	-0.011903783
70	0x3dff99d9	0.12480516
71	0xbe648ae5	-0.22318609
72	0xbd56c8ea	-0.0524377
73	0xbe6a459d	-0.22878118
74	0xbba9ba80	-0.0051797032
75	0x3e4ff7cb	0.2030937
76	0xbe999418	-0.299958
77	0xbe0c057b	-0.13673966
78	0xbe22a2d7	-0.15882431
79	0x3c8b8c44	0.017034657
80	0x3d84afeb	0.06478866
81	0x3e02bb5c	0.12766784
82	0xbe24498d	-0.16043682
83	0x3e8fb809	0.28070095
84	0x3d168479	0.03674743
85	0xbec72151	-0.38892606
86	0xbc90a4f1	-0.017656775
87	0xbe093354	-0.13398486
88	0x3cc0aa89	0.023518817
89	0x3e1ab418	0.15107763
90	0xbe9375fc	-0.28800952
91	0xbee684e7	-0.4502327
92	0x3e80a989	0.25129345
93	0xbe842e79	-0.25816706
94	0x3e996f65	0.299678
95	0xbf0f6c03	-0.5602419
96	0xbde09dd9	-0.10967607
97	0xbccb6976	-0.024830561
98	0xbe25f545	-0.16206844
99	0xbe6eb8b5	-0.23312648
100	0xbf0e5efe	-0.55613697
101	0xbf28644c	-0.6577804
102	0xbf29785f	-0.66199297
103	0xbd8aa5f6	-0.06769936
104	0xbbf491ef	-0.0074636857
105	0xbf0ef16a	-0.5583712
106	0xbcb8c7b8	-0.02255617
107	0xbe8e622d	-0.27809277
108	0xbe4ac0fd	-0.19800182
109	0xbe4f6a45	-0.20255382
110	0x3e863091	0.26208928
111	0xbe65e476	-0.22450432
112	0xbef7e5c0	-0.48417473
113	0xbf0b76d3	-0.54478186
114	0xbe35daee	-0.17759296
115	0x3a42439a	0.0007410586
116	0x3df443e5	0.11927012
117	0xbdf0ffce	-0.11767541
118	0xbea592f2	-0.32338673
119	0xbf11e669	-0.56992203
120	0xbf120b9f	-0.5704898
121	0xbeff4fd4	-0.49865592
122	0xbf0e164c	-0.5550277
123	0xbef55522	-0.47916514
124	0xbecbf9a9	-0.39838913
125	0xbf2ecfbb	-0.6828572
126	0xbf00da36	-0.50332963
127	0xbe963dcd	-0.29344025
128	0xbeb89713	-0.3605276
129	0xbe0aeb8b	-0.13566415
130	0xbe5923bb	-0.21205036
131	0xbe2513fe	-0.16120908
132	0x3dada9e1	0.084796675
133	0xbf798872	-0.97473824
134	0xbf409360	-0.75224876
135	0x3e29e35f	0.16590641
136	0xbe297b64	-0.16550976
137	0xbe49a9e6	-0.19693717
138	0x3dd9c6ce	0.10633622
139	0xbf438b27	-0.76384205
140	0xbdf21b69	-0.11821634
141	0xbe80d89e	-0.25165266
142	0xbf21b631	-0.6316863
143	0xbf26bed9	-0.6513496
144	0xbdfe4b68	-0.12416726
145	0xbf9e58de	-1.237087
146	0xbe88446f	-0.2661471
147	0xbef27519	-0.47354963
148	0xbe1e939a	-0.15485993
149	0xbed92f27	-0.42418787
150	0xbe983149	-0.29725102
151	0xbd82f3b4	-0.06394139
152	0xbe748109	-0.23877348
153	0xbc0c4540	-0.008561432
154	0xbe7fdcef	-0.24986623
155	0xbf2ef1f2	-0.6833793
156	0xbf16c9ee	-0.5890187
157	0xbef9f607	-0.48820516
158	0xbe15b9ac	-0.1462161
159	0xbd181ffc	-0.037139878
160	0xbe826009	-0.25463894
161	0xbeadc014	-0.33935606
162	0x3cb2c0c8	0.02182044
163	0xbda132e4	-0.07871035
164	0xbf187ed8	-0.5956855
165	0xbe4b3465	-0.19844206
166	0xbf1f69a3	-0.62270564
167	0xbeaab6ea	-0.33342677
168	0xbdcbd131	-0.099520095
169	0xbf53ac5d	-0.8268488
170	0xbef5db11	-0.48018697
171	0xbf029668	-0.5101075
172	0xbe26bcd4	-0.1628297
173	0xbef8d156	-0.4859721
174	0xbe92e91a	-0.28693467
175	0xbf21a542	-0.6314279
176	0xbe3fe54f	-0.18739818
177	0xbe9db336	-0.3080079
178	0xbf1ea583	-0.619713
179	0xbf34b1d9	-0.70583874
180	0xbfa7f4b9	-1.3121558
181	0xbe4fceb0	-0.20293689
182	0xbedcb8c4	-0.43109715
183	0xbed0ee9c	-0.40807045
184	0xbf16cc88	-0.5890584
185	0xbf000a80	-0.5001602
186	0xbdcc49a5	-0.09974984
187	0xbdd519ba	-0.104052976
188	0xbea71425	-0.32632557
189	0xbeceb5aa	-0.40372974
190	0x3beac910	0.007165082
191	0xbf0475ea	-0.5174242
192	0x3e309c89	0.17247213
193	0xbf55d5d1	-0.8352938
194	0xbefc22e6	-0.49245375
195	0xbee733bf	-0.45156667
196	0xbf00b3cd	-0.50274354
197	0xbed2ee31	-0.4119735
198	0xbd941fbf	-0.072326176
199	0xbeada364	-0.3391372
200	0xbf152f63	-0.5827543
201	0x3c6d3274	0.014477361
202	0x3f0f25ef	0.5591726
203	0x3efeef48	0.49791932
204	0x3f1054a7	0.5637917
205	0xbe90890a	-0.28229553
206	0x3f298b19	0.6622787
207	0xbe6d869d	-0.23195882
208	0x3e9e95f9	0.30973795
209	0xbe94249f	-0.2893419
210	0xbf522a0e	-0.8209542
211	0xbe488f0d	-0.1958582
212	0xbf1a3eda	-0.60252154
213	0xbea8a385	-0.32937256
214	0xbf1e4e4e	-0.61838233
215	0xbe9c8ce0	-0.3057623
216	0x3edf0a7d	0.4356269
217	0xbed64697	-0.4185073
218	0xbe4a7632	-0.1977165
219	0x3e9bcbbc	0.30428874
220	0x3f0b39a2	0.54384816
221	0x3f2faadc	0.68620086
222	0xbe4e464c	-0.20144004
223	0xbddf0c89	-0.10891063
224	0x3e379325	0.17927225
225	0xbec87064	-0.39148247
226	0x3d88063d	0.06641815
227	0xbbf13636	-0.007361199
228	0xbeeaff5b	-0.45897946
229	0xbde93aed	-0.11388192
230	0x3ed8710b	0.42273745
231	0xbe5764f3	-0.21034603
232	0xbdbfc5de	-0.09363912
233	0x3e895579	0.26823023
234	0xbeabaf96	-0.335324
235	0xbeb457eb	-0.35223326
236	0x3ed56d66	0.41685027
237	0x3991eb92	0.0002783207
238	0xbe962a7b	-0.29329285
239	0xbe56b204	-0.20966345
240	0x3c86e73b	0.016467681
241	0xbee685a5	-0.45023838
242	0x3e875fc8	0.26440263
243	0x3f04d478	0.518867
244	0xbe908480	-0.2822609
245	0xbf1cbbc9	-0.6122404
246	0xbe87c90d	-0.26520577
247	0x3e0b5b04	0.13608938
248	0xbe08769e	-0.13326499
249	0x3dd00b99	0.10158462
250	0x3e056655	0.13027318
251	0xbee2f38f	-0.44326445
252	0xbe53024f	-0.2060635
253	0xbe71590c	-0.23569125
254	0xbdf96c05	-0.12178806
255	0x3d270881	0.040779594

weight_ih_l1 f4 [300, 100]
0	0x3face362	1.3506892
1	0x3f7e1c1c	0.9926164
2	0xbda4f450	-0.080544114
3	0xbf1b962b	-0.60776013
4	0xbf05ea5f	-0.52310747
5	0xbe390823	-0.1806951
6	0xbe91a724	-0.2844783
7	0x3ce51470	0.027963847
8	0x3f02df51	0.51122004
9	0x3eae2329	0.340112
10	0x3f57bcae	0.8427228
11	0x3ed0fbf4	0.40817225
12	0xbf35bdfc	-0.7099302
13	0xbb9a5387	-0.0047096643
14	0x3e1f0a46	0.15531263
15	0xbee4063e	-0.44536012
16	0xbf092d9a	-0.5358521
17	0x3eb3eefd	0.3514327
18	0x3ee38071	0.4443393
19	0x3f27554b	0.6536452
20	0x3ed72001	0.42016605
21	0x3bae3502	0.0053163776
22	0xbef49d5a	-0.477763
23	0xbf1735e3	-0.590666
24	0xbe511248	-0.2041713
25	0x3f239cbd	0.6391104
26	0xbdb13d20	-0.08654237
27	0x3e988610	0.29789782
28	0xbe1e58f7	-0.15463625
29	0xbf02e989	-0.51137596
30	0xbe97e641	-0.29667857
31	0x3d21640e	0.03940206
32	0x3f5c14bf	0.85969156
33	0xbeba1f22	-0.36351877
34	0x3ec11324	0.37709916
35	0x3e2dca84	0.16971785
36	0x3d1de145	0.038544912
37	0xbf23a918	-0.6392989
38	0x3eddfb20	0.43355656
39	0x3e4a8100	0.19775772
40	0xbf152051	-0.58252436
41	0xbe838765	-0.25689235
42	0xbe3e279e	-0.185698
43	0xbd0431f9	-0.03227422
44	0xbf10acc8	-0.56513643
45	0x3ec4f5e0	0.38468838
46	0xbf11d272	-0.5696174
47	0x3ea57bbc	0.32320964
48	0x3e987fea	0.2978509
49	0xbddf8830	-0.109146476
50	0x3ee01481	0.43765643
51	0x3eb1412a	0.3462003
52	0xbe317f86	-0.17333803
53	0x3e3a25dc	0.18178505
54	0xbeb9e4b3	-0.36307296
55	0xbe51c26f	-0.20484327
56	0xbe620e98	-0.2207588
57	0x3db1677b	0.086623155
58	0x3e58a23d	0.21155639
59	0xbebf5dc9	-0.3737624
60	0xbd7ee169	-0.062226687
61	0xbe5bed23	-0.21477179
62	0x3efcc7bf	0.49371144
63	0x3e909be8	0.28243947
64	0x3e3aa258	0.18225992
65	0x3ee964d1	0.4558473
66	0x3e0b7ff3	0.13623028
67	0x3f082097	0.5317473
68	0xbecaa137	-0.39576122
69	0xbf552b57	-0.83269256
70	0x3e8dccae	0.2769522
71	0xbdda3597	-0.10654753
72	0x3e95bef9	0.29247263
73	0x3defa8c8	0.11702114
74	0xbeae20b7	-0.34009334
75	0xbebe8645	-0.37211815
76	0x3eed0755	0.46294656
77	0x3d903edc	0.070432395
78	0xbf57582d	-0.8411892
79	0xbea555b6	-0.32291955
80	0xbd164f79	-0.036696885
81	0x3f141cbb	0.5785634
82	0x3f04fdc4	0.51949716
83	0x3ebfafc0	0.37438774
84	0x3f0eea34	0.55826116
85	0xbe4dc638	-0.20095146
86	0x3f0b561a	0.54428256
87	0xbe48bda7	-0.19603597
88	0x3df683a7	0.120368294
89	0xbf104776	-0.5635904
90	0xbe08b37b	-0.13349716
91	0x3db846bd	0.08997867
92	0xbebe279c	-0.37139595
93	0x3f3db297	0.7410063
94	0xbf02dff9	-0.51123005
95	0x3f001b93	0.50042075
96	0xbe8579de	-0.2606954
97	0x3f3fe11b	0.7495286
98	0xbed388cc	-0.41315305
99	0x3f1135d8	0.56722784
100	0xbeafdb92	-0.34347206
101	0xbe7b0287	-0.24512683
102	0x3f8e5dd7	1.1122388
103	0x3de9294a	0.113848284
104	0x3cf72ad6	0.030171793
105	0x3e0c2a06	0.13687906
106	0xbde58adb	-0.11208125
107	0xbbc18ea0	-0.005906895
108	0x3f32eeb9	0.6989551
109	0x3db0f891	0.0864116
110	0x3b88e5f9	0.0041778055
111	0x3e470941	0.19437124
112	0xbd7b4569	-0.06134549
113	0x3e79e301	0.24403001
114	0xbe3cdc80	-0.18443489
115	0xbfb7f1e0	-1.4370689
116	0xbead6a27	-0.3387005
117	0x3d145074	0.03620954
118	0xbf331406	-0.6995243
119	0x3f25ea73	0.64810866
120	0xbea12661	-0.31474593
121	0xbe53178a	-0.20614448
122	0x3e67d6e3	0.22640567
123	0x3eee715c	0.4657086
124	0xbe5c9f20	-0.21545076
125	0xbe434d94	-0.19072562
126	0xbe8c8517	-0.2744529
127	0xbf384367	-0.7197785
128	0xbeec6379	-0.46169642
129	0xbf3fddf2	-0.74948037
130	0xbf33becc	-0.7021301
131	0xbe963ddd	-0.29344073
132	0xbe8d3e02	-0.2758637
133	0x3f0386fc	0.51377845
134	0x3e1c02a1	0.15235378
135	0xbeca4bc0	-0.39510918
136	0x3eb625fb	0.35575852
137	0x3f40ba01	0.7528382
138	0x3b9ed0f0	0.0048466846
139	0xbea87c85	-0.329075
140	0x3e2824e3	0.16420321
141	0xbe18866a	-0.14895025
142	0x3f4302cb	0.76176137
143	0x3f186777	0.59532875
144	0xbd6ac165	-0.05731334
145	0xbc875802	-0.016521458
146	0x3f004d60	0.50118065
147	0xbe39c284	-0.18140608
148	0x3ef4e36c	0.4782976
149	0xbecd369c	-0.40080726
150	0x3db5e08f	0.08880722
151	0x3d4e4772	0.050361104
152	0xbf2dd976	-0.67909944
153	0x3dbfcfd8	0.09365815
154	0x3de4a411	0.11164106
155	0xbe8a92c2	-0.27065092
156	0x3e10b346	0.14130887
157	0x3f99bb01	1.2010194
158	0xbe3df687	-0.18551074
159	0xbe8fd5f0	-0.2809291
160	0x3e9fcf16	0.31212682
161	0x3e45e45d	0.19325395
162	0xbedbb50d	-0.42911568
163	0xbeebdaa9	-0.46065262
164	0xbdb66554	-0.089060456
165	0xbeb60e7f	-0.35557935
166	0xbda02ea9	-0.078214
167	0x3ea6612a	0.32496005
168	0xbe1d6ceb	-0.1537358
169	0xbf35c8cc	-0.71009517
170	0x3e703b58	0.23460138
171	0x3db05aa5	0.08611039
172	0x3dc26bd2	0.09493221
173	0x3f1a2aeb	0.6022174
174	0xbe34ecaf	-0.17668413
175	0xbdb0d8c6	-0.08635096
176	0x3f3ca9b0	0.7369642
177	0xbdc79682	-0.09745504
178	0x3e88fd20	0.2675562
179	0xbda22ebf	-0.07919072
180	0x3e868ec8	0.26280808
181	0xbf290122	-0.66017354
182	0xbf29459b	-0.66121835
183	0x3cb450ee	0.022011247
184	0x3f1f35b8	0.62191343
185	0xbe2bd428	-0.1678015
186	0x3ece7f32	0.40331417
187	0x3ec6ab84	0.3880273
188	0xbe9e0aed	-0.3086771
189	0xbec2ef26	-0.3807308
190	0xbee8f647	-0.45500395
191	0x3bd1b15b	0.0063993162
192	0x3e3068ea	0.17227522
193	0xbe51d492	-0.20491245
194	0xbe5ce686	-0.21572313
195	0xbf221d1c	-0.6332567
196	0xbe885370	-0.26626158
197	0x3f0a0fd2	0.5393039
198	0x3ea211c2	0.31654173
199	0x3e689d63	0.22716288
200	0xbfa07799	-1.2536498
201	0xbeb33bd6	-0.3500659
202	0xbe981fa3	-0.29711637
203	0x3ee4e036	0.4470231
204	0x3e5589d5	0.2085336
205	0xbf01b784	-0.5067065
206	0x3d305b7f	0.043056007
207	0xbd811c79	-0.06304259
208	0x3e9dc95a	0.30817682
209	0x3ecd4d20	0.40097904
210	0xbe3e73f8	-0.18598926
211	0x3f2c9e7b	0.6742932
212	0x3e937456	0.28799695
213	0x3ec83176	0.39100236
214	0x3c01ca8c	0.007921826
215	0xbe888343	-0.26662645
216	0xbf88d462	-1.0689814
217	0xbea4293e	-0.32062715
218	0xbf2ca381	-0.6743699
219	0xbf0c6c48	-0.54852724
220	0xbf2bd329	-0.6711908
221	0x3e3b966c	0.183191
222	0x3e438760	0.1909461
223	0xbe8bbf2e	-0.27294296
224	0xbf5c04ef	-0.8594503
225	0x3eaf1101	0.3419266
226	0x3f0e9054	0.5568898
227	0x3d169224	0.036760464
228	0xbf79b624	-0.9754355
229	0xbd8077bc	-0.062728375
230	0xbf40f31b	-0.7537095
231	0xbf2d72f5	-0.67753536
232	0xbb5632ac	-0.0032684011
233	0xbd3f20e1	-0.046662215
234	0xbe513573	-0.20430546
235	0xbd92d48b	-0.071694456
236	0x3e212f9c	0.15740818
237	0x3c7cff08	0.015441664
238	0xbf08cade	-0.5343455
239	0xbe947d8f	-0.29002044
240	0xbdc9f898	-0.098618686
241	0xbe2ecc1f	-0.17070054
242	0x3ab2996c	0.0013626046
243	0xbeb41a6f	-0.35176417
244	0xbbd6f1cf	-0.0065595875
245	0xbe9c1a40	-0.30488777
246	0x3f34993a	0.70546305
247	0xbc3c5165	-0.011494015
248	0xbda94158	-0.082644165
249	0x3f0c65a1	0.54842573
250	0xbf3a6439	-0.7280918
251	0xbeaae10e	-0.33374828
252	0xbfc3027a	-1.5235131
253	0xbeb99d01	-0.36252597
254	0xbe828ced	-0.25498143
255	0x3db33317	0.08749979

weight_hh_l1 f4 [300, 100]
0	0xbf292da6	-0.6608528
1	0x3e0982e4	0.13428837
2	0x3da20ce6	0.079126164
3	0x3ee8e2f8	0.45485663
4	0x3f15b7e0	0.58483696
5	0x3ef540c2	0.4790097
6	0x3ec28d59	0.37998465
7	0xbd35d385	-0.044391174
8	0xbf09df19	-0.53856045
9	0x3e83158d	0.2560238
10	0xbecafc1f	-0.39645478
11	0xbf15e1bc	-0.5854757
12	0x3e5f3fa5	0.21801622
13	0x3d9ee9db	0.07759448
14	0x3e99fcda	0.30075723
15	0xba2e4bce	-0.0006648869
16	0xbf941249	-1.156808
17	0x3e3fb611	0.18721797
18	0xbf72e430	-0.94879436
19	0x3c4f9475	0.012669672
20	0x3e1435ff	0.14473723
21	0x3f326859	0.6969047
22	0xbe65ce69	-0.2244202
23	0xbd9ee769	-0.07758982
24	0xbe1bc12f	-0.15210412
25	0x3f9fb90d	1.2478348
26	0x3cb19e93	0.02168206
27	0x3ed24f69	0.4107621
28	0x3f00c0c0	0.50294113
29	0xbf1a517a	-0.60280573
30	0x3dbd4cb4	0.092431456
31	0x3f2afb2b	0.667895
32	0xbe24cd35	-0.16093905
33	0x3ed2da4d	0.41182175
34	0xbe50f66c	-0.20406502
35	0xbe789c45	-0.24278362
36	0x3f956186	1.1670387
37	0x3f9162c6	1.1358268
38	0x3fa702db	1.3047746
39	0x3f139014	0.5764172
40	0x3ea24cf6	0.31699342
41	0xbe71924d	-0.23590966
42	0x3df94ab2	0.1217245
43	0x3e39746b	0.18110816
44	0xbe4912f2	-0.19636133
45	0xbf0e8f0f	-0.5568704
46	0x3e9122f9	0.28346995
47	0x3da83b88	0.0821448
48	0xbdea78f1	-0.11448849
49	0x3e75ee22	0.24016622
50	0xbf3d7587	-0.7400746
51	0x3ccb4522	0.024813239
52	0xbd9118c4	-0.07084802
53	0x3ed40b22	0.41414744
54	0x3f879169	1.0591251
55	0x3dc69101	0.09695626
56	0x3ea50623	0.32231244
57	0xbf38b7e5	-0.721556
58	0xbec9c5e4	-0.3940879
59	0x3dbeee24	0.093227655
60	0x3e280526	0.16408214
61	0xbf196c7d	-0.59931165
62	0x3e1da4ba	0.1539487
63	0xbf157ee5	-0.5839675
64	0x3e09f479	0.13472165
65	0x3dcd02a0	0.10010266
66	0x3dccfb39	0.100088544
67	0xbd2eb686	-0.042654537
68	0x3d86a35e	0.065741286
69	0x3ed9010a	0.42383605
70	0xbe1202ca	-0.14258876
71	0xbf2a508f	-0.6652917
72	0x3e1310f2	0.14361933
73	0x3e97a2c4	0.29616368
74	0x3f6c7fc8	0.9238248
75	0xbe64acd0	-0.22331548
76	0x3ebe19a0	0.37128925
77	0xbf43a46f	-0.7642278
78	0xbde4d005	-0.11172489
79	0x3e5bb87b	0.21457092
80	0xbde56079	-0.11200041
81	0x3e7a61a6	0.24451312
82	0x3f04ce23	0.5187704
83	0x3f126be8	0.571959
84	0xbea7d894	-0.32782423
85	0xbf832c79	-1.0247947
86	0x3e92751e	0.28604978
87	0x3edb0010	0.42773485
88	0xbeb277f6	-0.34857148
89	0x3e8be105	0.27320114
90	0x3ea84c80	0.32870865
91	0x3f0bcce7	0.5460953
92	0xbf87c096	-1.0605648
93	0x3e83c4bc	0.25736034
94	0x3ed486a1	0.41508964
95	0x3ed79a14	0.4210974
96	0x3ed96f7b	0.42467865
97	0x3de9e2e6	0.114202306
98	0xbecf9ce6	-0.40549392
99	0xbdd35c7a	-0.10320373
100	0x3ecdb7d9	0.40179327
101	0xbe0811e6	-0.13288078
102	0x3cecd8ae	0.028911915
103	0x3caa9e5b	0.020827463
104	0x3f04a11b	0.5180833
105	0x3ccdddb0	0.025130123
106	0x3c35ffd9	0.011108362
107	0xbec9b324	-0.39394486
108	0x3f014817	0.50500625
109	0xbee537f1	-0.44769242
110	0x3e95ba07	0.2924349
111	0xbf03f470	-0.5154486
112	0xbd2517df	-0.04030597
113	0xbcd95727	-0.026530815
114	0x3efecf16	0.4976737
115	0x3e456211	0.1927569
116	0xbdda6212	-0.10663237
117	0x3ebcaa62	0.36848742
118	0xbd891e9e	-0.06695293
119	0x3bae0910	0.005311139
120	0x3f50dd0e	0.815873
121	0x3e1247bd	0.14285178
122	0x3d58773a	0.05284808
123	0xbdc672bb	-0.09689852
124	0x3df3ef17	0.11910837
125	0xbe79fc22	-0.24412587
126	0x3ec49539	0.38395098
127	0xbe4aaaab	-0.19791667
128	0x3d001c62	0.031277068
129	0x3ef2160f	0.47282454
130	0xbf433caa	-0.7626444
131	0x3e5c53c5	0.2151633
132	0xbc26c147	-0.010177917
133	0xbbdefb89	-0.0068048877
134	0x3dc7b065	0.097504415
135	0x3dd6016a	0.104494885
136	0xbdf024bb	-0.11725756
137	0x3e4c30ad	0.19940443
138	0xbe2e58f0	-0.17026114
139	0x3ee59c79	0.44845942
140	0xbce2657b	-0.02763628
141	0x3ead3fb8	0.33837676
142	0xbeb93e28	-0.36180234
143	0xbdda2abc	-0.10652682
144	0x3f08ea73	0.5348274
145	0x3eb33087	0.3499796
146	0x3f0a4b42	0.54021084
147	0x3dcf927c	0.101353616
148	0xbd3c2e51	-0.04594261
149	0x3dbcba69	0.092152424
150	0x3ed3b388	0.4134791
151	0x3cab1154	0.020882286
152	0x3e2f10b9	0.17096223
153	0x3ed88bc2	0.42294127
154	0xbd20dfa3	-0.039275777
155	0x3ef26da6	0.4734928
156	0x3da5eef8	0.0810222
157	0x3c8cea97	0.017201705
158	0xbb5bc236	-0.0033532507
159	0x3d9f4472	0.07776727
160	0xbe2b1a7c	-0.16709322
161	0xbeaeeeef	-0.34166667
162	0x3f982bdf	1.1888388
163	0x3b7e12ce	0.0038768533
164	0x3e01c5be	0.12673089
165	0x3db3ae5c	0.08773491
166	0x3f00f087	0.50367016
167	0x3ae316d6	0.0017325531
168	0x3c4c34e7	0.012463785
169	0xbf141cb4	-0.578563
170	0x3e4047a0	0.18777323
171	0x3f09ed89	0.53878075
172	0xbec31762	-0.38103777
173	0x3f4a32fe	0.7898406
174	0xbd0e6141	-0.034760717
175	0xbdc9e9c7	-0.098590426
176	0xbc39ec60	-0.01134786
177	0x3e0191d8	0.12653291
178	0x3eaccdd0	0.33750772
179	0x3d91d1b7	0.07120078
180	0x3e76f9a1	0.24118663
181	0x3e384112	0.17993572
182	0x3e0645b0	0.13112521
183	0x3f097fa8	0.5371041
184	0x3ee6a739	0.45049456
185	0xbd710bfc	-0.05884932
186	0xbd9ace77	-0.07558911
187	0x3cd7a9d5	0.0263261
188	0x3e149fec	0.1451413
189	0xbd9425b2	-0.07233752
190	0xbf38314b	-0.71950215
191	0xbd1ed02a	-0.03877274
192	0xbe2c0dd6	-0.16802153
193	0xbf77fe38	-0.9687228
194	0x3e80618f	0.2507443
195	0x3da909c5	0.082538165
196	0x3e59c404	0.2126618
197	0x3e1daa7e	0.15397069
198	0xbe025326	-0.12727031
199	0x3e3a1bd8	0.18174684
200	0x3ddcca9c	0.10780832
201	0x3da45a2a	0.0802501
202	0xbe677aa5	-0.22605379
203	0x3f007c2a	0.5018946
204	0x3eb4409a	0.35205537
205	0x3f13975e	0.57652843
206	0xbe603527	-0.21895276
207	0x3e9d5342	0.30727583
208	0x3ec72277	0.38893482
209	0x3f816324	1.010838
210	0x3f1a902d	0.60376245
211	0xbf024238	-0.5088229
212	0xbe25fb85	-0.16209228
213	0x3b9e5612	0.0048320377
214	0xbf1aa74d	-0.6041153
215	0xbe5ceba0	-0.21574259
216	0x3e1efbba	0.15525714
217	0xbf3fc175	-0.74904567
218	0xbea327ef	-0.31866404
219	0x3e5d73e0	0.21626234
220	0xbf5155f9	-0.8177181
221	0x3f8c1cbd	1.094627
222	0x3e5bfb09	0.21482481
223	0xbe09b7dd	-0.13449045
224	0x3f3cd4ec	0.73762393
225	0x3d22735e	0.039660804
226	0xc00287c9	-2.0395377
227	0xbdaad136	-0.08340685
228	0xbeabca86	-0.3355295
229	0x3f18387d	0.59461194
230	0x3c2cf69c	0.010556843
231	0xbf372ebc	-0.71555686
232	0xbeecde75	-0.4626347
233	0xbc7f6d74	-0.0155900605
234	0x3f132298	0.5747466
235	0xbe1a2034	-0.15051347
236	0xbe6b3141	-0.22968008
237	0x3f6355da	0.88802874
238	0xbe8ef1c7	-0.27918836
239	0x3e75e075	0.24011405
240	0xbfb03850	-1.3767185
241	0xbdd71985	-0.10502914
242	0xbfa89ff8	-1.3173819
243	0x3ec6a4d4	0.3879763
244	0x3d0e38ac	0.034722015
245	0x3e8de35f	0.27712533
246	0xbe80587d	-0.2506751
247	0x3d31854c	0.043340012
248	0x3e67d279	0.22638883
249	0xbe609d2d	-0.21934958
250	0xbe32fbf7	-0.1747893
251	0xbda85550	-0.08219397
252	0x3e2042d6	0.15650496
253	0x3f053fb4	0.5205033
254	0xbd4cf9f3	-0.050043058
255	0xbe704890	-0.2346518
