iliad.pt (torch, 570199 bytes, 11 tensors)

weight f4 [100, 100]
00000000: 4ee9 5abf c209 31bf abe5 2e3c 2cc8 3b3f
00000010: 9d6d f7bf 6392 703e 6e1b 54bf 94dd 683e
00000020: fac4 9dbf dd5c d13c 915d 093f a121 15c0
00000030: 8b81 24bf ed63 eabf 0388 cd3f 6ddd 6fbf
00000040: 70e3 37bf b8b8 a8bf 57b5 6c3e 54ca 33bf
00000050: 083b 77bf ef09 7a3f de94 82be 65ef c03e
00000060: 8737 803f 63c2 453e 2ab2 3abf 4daa edbe
00000070: 56ce 933f 19ea 873f 8049 bcbe 5b9e 4b3f
00000080: ef9c a33f 9d38 873e 9ce9 09bf 5bae f6be
00000090: 33f5 60bf a217 d53e bdf6 ccbf 4531 74bc
000000a0: 4d8f bdbf cd47 e83e a6b7 33c0 6791 593f
000000b0: 8980 663f aa0e aa3f b713 0040 1cef 783f
000000c0: 17d7 19bf 260c 513f 8286 35bf d0fc 1ebf
000000d0: 0679 f43d 69ca ef3e f253 09be f683 04bf
000000e0: 103c 9cbf ed1c 09c0 0bfc c83f de47 c2be
000000f0: 7690 38bf 13fc a73f d229 b1bf 91ef 883e
00000100: bc72 963e ddfc 1fbf a7f0 49be f0e5 473e
00000110: 7d26 8f3e 765b 2bbf 8a6f 983f fce8 763f
00000120: 9efd fb3f 6cec d03f e564 cf3c 3612 cf3e
00000130: d02f 06c0 1884 2c3e d280 063f cc38 44bf
00000140: 8b1d 9a3f 0b15 b63f 99da fc3c b217 943d
00000150: 1991 b13f 9402 8b3e 35be a7bf 157d dfbd
00000160: 7ef9 c83f 813b 813f 8a50 663d a65a c53e
00000170: 9025 34bf fe26 d73f 59a9 e33f a58d e23f
00000180: bb0c 93bf 8f24 e03f 47ab a3bf ece6 06c0
00000190: 916c e53e 909d d73d 98b1 b43f 158a 2bbf
000001a0: d1e2 da3e 8b1a 093f 9099 d83f aa33 fe3e
000001b0: 80a9 0ebf e38d 91bf f0c9 2840 7ff2 84be
000001c0: 096a 053d b738 9bbf 8f3a b4bf 0533 213f
000001d0: 8ee6 623e 5b58 cabe cc5d debd 5c34 893c
000001e0: b12d 733e 1a8f 8dbe f982 ccbe c414 8ebf
000001f0: 58c3 0840 f545 d83f 8e57 f6bf 695b 293f
00000200: c43d 6fbe 2c0b 4fbf 035c e5bf e546 0bbf
00000210: ab45 dd3c 9d2a a3be 7229 19ba 4111 d83e
00000220: 067b 2e3f 4875 40bf 2cec 063f 0b59 46bf
00000230: 4af2 80bf f3e3 ba3f b026 a53f df1b 543f
00000240: d09c cf3f 0503 7dbf 5b8e febe a40d acbf
00000250: e5d5 e2be 85dc 05bf 6087 9b3e d758 88bf
00000260: 7b1e 3abf 5701 fabe ce79 9cbd c05e b7be
00000270: b97a 42c0 6a23 cd3e b2f8 f03f 5b64 e5bf
00000280: 9aab 1bbf 3d10 323f a7f5 cdbf aad6 1d3f
00000290: d317 f0be 8729 0fbf 8961 8bbf 3679 ccbf
000002a0: 3579 fa3f 4181 683f 556a c23f dcd4 283f
000002b0: 022e 53be 959c a63d d989 54bf 60ed 163b
000002c0: 673f 09bf 86aa 993f 12ad 98bf 7706 063f
000002d0: 0af0 00be f9eb f03f dea3 cfbe 6775 d8be
000002e0: dcdd 0dbf 212e 4dbd b0e4 2a3f 3a73 c13d
000002f0: 1ab0 813f 2625 7cbd 8e64 3740 be0a e83e
00000300: 70df b3bf c71a dd3f 4a9a c93f 35a5 b13f
00000310: 2dbe 433f a2f6 a2bf ba74 d9be 1806 c53d
00000320: ecb3 833f 45f3 e33f b04d f93e 3b53 ecbf
00000330: bec1 abbf 953a 383e b5f2 48bd 0504 e73f
00000340: 98c9 143e eb44 9d3e eedb e53f 801c cabe
00000350: 8431 c0bf 25f8 cbbf b90c 323f 3cfb b93f
00000360: b901 0840 b430 27bf 589e 663f 925b 89be
00000370: 5d3c 47bf 4c76 a03f 29b7 56bf 18e5 b73e
00000380: 299d 6d3f 22b1 c63f d43a 01c0 9bb1 a73f
00000390: f7d4 b1be 79ca acbe 668b bc3f d80c debf
000003a0: 3415 bb3f abeb 98be 63fd 34bd 6f87 e13e
000003b0: ed6b a33f 6915 623c 9cdd ee3f f0e5 bebf
000003c0: cacf 68bd 7a0e 1340 f3b5 55bf 999e 693f
000003d0: 6c42 b93f 7e16 5e3f 63fb 90bf 878e 2bbf
000003e0: ff15 f6bf 563c fb3c 420a 9c3f e9c8 40bf
000003f0: 2106 46bf 3283 b2bd 0d46 813f af48 57be
-0.85512245 -0.69155514 0.010674874 0.73352313 -1.9330326 0.23493342 -0.82854354 0.22740775
-1.2325737 0.025556976 0.53658396 -2.3301775 -0.64260167 -1.8311745 1.6057132 -0.93697244
-0.7183142 -1.3181372 0.2311605 -0.70230603 -0.9657445 0.9767141 -0.25504202 0.37682644
1.0016946 0.19312434 -0.72928107 -0.46418992 1.1547344 1.0618316 -0.36774826 0.79538506
1.2782267 0.2641038 -0.53872085 -0.48179898 -0.87874144 0.41619593 -1.6012799 -0.014904325
-1.4809357 0.4536728 -2.808084 0.8498749 0.9003988 1.3285725 2.0012033 0.9723985
-0.60093826 0.8165916 -0.7090837 -0.6210451 0.11937146 0.46834114 -0.13410929 -0.51763856
-1.220583 -2.1423905 1.5701917 -0.37945455 -0.7209543 1.3123802 -1.3840888 0.26745275
0.2938441 -0.62495214 -0.19720708 0.19521308 0.27959052 -0.66936433 1.1909039 0.96449256
1.9686773 1.632215 0.025316665 0.4044358 -2.0966682 0.16847265 0.52540314 -0.76649165
1.2040266 1.4225172 0.030865954 0.07231082 1.3872405 0.27150404 -1.3104922 -0.109125294
1.5701139 1.0096284 0.05622915 0.38545722 -0.70369816 1.6808774 1.7786056 1.7699476
-1.148826 1.7511157 -1.2786645 -2.1078444 0.44809392 0.105280995 1.4116697 -0.6700757
0.42751172 0.53556126 1.6921864 0.49648792 -0.55727386 -1.1371425 2.6373253 -0.2596626
0.032571826 -1.2126683 -1.4080371 0.62968475 0.22158262 -0.39520535 -0.10857734 0.0167486
0.23747899 -0.2764824 -0.39943674 -1.1100087 2.1369228 1.6896349 -1.924547 0.66155106
-0.23363405 -0.8087642 -1.7918705 -0.5440505 0.02701076 -0.3186845 -0.00058426626 0.42200664
0.6815647 -0.75178957 0.5270412 -0.7747962 -1.0073941 1.4600815 1.2902431 0.8285503
1.621973 -0.9883273 -0.49717984 -1.3441663 -0.44303814 -0.5228961 0.3037672 -1.0652112
-0.7270276 -0.48829147 -0.0764042 -0.35814476 -3.0387404 0.4006608 1.8825896 -1.7921251
-0.6080872 0.6955603 -1.6090592 0.61655676 -0.46893176 -0.5592274 -1.088914 -1.5974491
1.956824 0.90822226 1.51887 0.659498 -0.2062302 0.081353344 -0.8302284 0.002302967
-0.5361237 1.2005165 -1.1927817 0.52353615 -0.12591568 1.8822013 -0.40554708 -0.4227707
-0.55416656 -0.05009282 0.667552 0.09445806 1.0131867 -0.061558865 2.8655124 0.45320696
-1.4052563 1.7273797 1.575021 1.3878542 0.7646206 -1.2731516 -0.42471868 0.09620303
1.0289283 1.7808615 0.48692083 -1.84629 -1.34185 0.17991097 -0.04905959 1.8048102
0.14530027 0.30716643 1.7957742 -0.3947487 -1.5015111 -1.5935103 0.69550663 1.4529796
2.1251051 -0.6530869 0.90085363 -0.26827675 -0.7782648 1.2536101 -0.8387323 0.35916972
0.9281793 1.5522807 -2.0192156 1.3101076 -0.34732792 -0.33748224 1.4730041 -1.734767
1.4615846 -0.298673 -0.04418696 0.4404864 1.2767311 0.01379905 1.866138 -1.4913921
-0.056838788 2.2977586 -0.8348076 0.91257626 1.4473395 0.8675307 -1.1326717 -0.67014354
-1.9225463 0.030668419 1.219063 -0.75306565 -0.773531 -0.0871643 1.0099503 -0.2102382

weight_ih_l0 f4 [300, 100]
00000000: d578 583d ea22 ffbe 7422 c63c b1e3 53be
00000010: 7a90 193f ff21 ffbc 2547 9cbe 81b9 b63e
00000020: bff4 8ebe c4fc dabe 3321 babe fa92 303e
00000030: 8554 c8be f738 013f f3cf 8e3c 0d80 33be
00000040: 2a75 1fbd 12cb 0c3f 9a40 3c3f 7c69 383f
00000050: c924 1dbe 6371 053f 6a28 923d 06e7 9d3e
00000060: c72d 21bf b98a 50be 9481 db3e e539 a33e
00000070: 7807 b539 edd8 2abe 6ba1 25bf f84d 60bd
00000080: fe5c 6ebe 64ad 22be 6fb3 65bd 2233 323f
00000090: 320e 303e 9dfd 183f cc27 023f 893b 733e
000000a0: fd82 cb3e a7db a23d 379c 5bbc 1af7 f33d
000000b0: 5c2f d6be 4c0b b8be 3aec b83e 1843 40bd
000000c0: 37f5 d83d 0842 cc3e 357b 203f 2b85 743d
000000d0: 48ff 99bc f9ae df3d d714 51be 1a55 d63e
000000e0: d038 bfbd dce5 1a3f 9fa4 e5be 3c75 463e
000000f0: e010 153f 0e88 413d f3d0 4c3f 7ac4 e5be
00000100: b00a 0b3f d7e3 f9be 9e51 c4be 1cba aabe
00000110: 6291 afbc baa2 d9be 01f0 23be 054c 9dbe
00000120: 2680 8fbe b2bd ea3c 6b6f 203f 9915 d2be
00000130: 7dee 5e3f 598c 42be 2a7d d3bd 858d 213e
00000140: f843 543d f148 263f 479e 3abf aaad 28be
00000150: 0a19 49be 2510 1cbd 7c8d 37bf 095f 7dbf
00000160: 47b1 a6be c36c 3f3f 8d99 38bf 3c78 cdbe
00000170: 8430 493f ad39 223f 3f07 94be c4fa 7b3e
00000180: 1fd5 63be bc0c 1c3c d25a e23e 0a87 df3e
00000190: 5f58 f33e aec7 793d 4866 92bc 6d40 093f
000001a0: 9c12 6c3f 5d13 33bd b879 003e 6395 7fbf
000001b0: 3a9a bdbe b863 263e 98ee c63e 347e 3abf
000001c0: 0795 693e f5d5 a03d 68a8 04be 4118 393f
000001d0: e55a 83be b3a5 f83e 8c66 4ebc 84f6 2a3d
000001e0: a304 29be 2d70 7f3f 4f36 bbbe 0f06 663d
000001f0: 2c27 9d3e c201 b6bd f8ad e8bd 903c 9cbc
00000200: e727 5ebe 6d7e 0bbe d5df 8cbe bce1 d6be
00000210: 78ce 1cbc 1aee 1c3f b14e 7c3e a9ad 6fbf
00000220: e5bb 89be c95e c9be 37c1 803e 6c23 ef3d
00000230: 420f 33be d559 16be a151 903f c284 e6be
00000240: 5ce8 383f c077 f8bd 1def ca3e 3a92 3fbf
00000250: 6ac1 d9be 2c45 77bf 259b 893f 6920 3fbd
00000260: 13c0 3fbf b20c 3e3e 83bc 56bf f6a3 8abe
00000270: 1597 96be 4205 4a3e 528c 02bf 0a17 b43e
00000280: 9bd6 4cbe 7fb1 d5be b8ed d23e 1d26 963e
00000290: 88c4 9a3d cdfe da3d 6220 38bf 9352 21be
000002a0: 473d 233d e80b 2fbe b834 153f 0107 2fbf
000002b0: 18b3 bdbd 0be1 453e ce33 613f 74d2 86be
000002c0: 9d99 9c3d e650 4d3f 46ae 18bf 6304 f8be
000002d0: a2bb 79bc 90cf 323d e0a8 3dbf 5994 bcbe
000002e0: 2b5c 943d 5d49 aa3e 0ead dabc 245e e13e
000002f0: c17d e43b bff0 923e 8dd9 063f 1b25 1cbf
00000300: d38b 3dbf e65c 67bd 7eab 85be b7fe 44bc
00000310: 3078 153f 9438 fabe 2286 3b3d 6624 79be
00000320: a736 b53d 8b0d 2cbf 4839 543e 2fb0 433e
00000330: b19d 55be 2584 c13d 91d1 b03d 109a 4f3d
00000340: af05 5b3e 9521 ef3c 88a9 343d 3825 b93c
00000350: 7d4e 303e 0041 96bd a237 603e 3294 32bb
00000360: 7364 69bf a274 9bbe 1600 23be 4e7c 993e
00000370: dcd4 c2bd 7f87 313f e34f ef3e 8a2a a03f
00000380: 8a3a db3e b9c7 003e 3489 be3d f30e 86bd
00000390: 314b 3ebe 8116 1b3e 16f5 513e b329 99be
000003a0: 8051 27bd 64cb f6bd eacc 0cbc bfca 0b3e
000003b0: 660d 913d 9a48 613e 0226 393d bf67 8b3d
000003c0: 5736 a83e 80b6 75be 594f 34be 7f28 f2bc
000003d0: af94 41bd 5593 c9bd 51d4 043f 37e7 413e
000003e0: c3b5 8f3d faf1 73bd a4dc 5e3e 8f2b 82be
000003f0: b369 1f3c 3e31 bb3e e9fa efbe 2762 89bd
0.05284961 -0.49831325 0.02418635 -0.20692326 0.5998608 -0.03114414 -0.3052303 0.35688403
-0.279211 -0.4277097 -0.36353454 0.17243567 -0.39126983 0.50477546 0.017433142 -0.17529316
-0.038930096 0.5499736 0.73536074 0.72035956 -0.15346064 0.5212614 0.071366146 0.3084032
-0.62960476 -0.20365418 0.42872298 0.31880108 0.00034528575 -0.16684313 -0.6469943 -0.054761857
-0.23277661 -0.15886456 -0.056079324 0.6960927 0.17192915 0.59761983 0.50841975 0.2375318
0.39748374 0.079520516 -0.013403944 0.11912365 -0.41833007 -0.3594612 0.36117727 -0.046938986
0.10593646 0.39894128 0.62688 0.05969731 -0.018798485 0.10922045 -0.20418106 0.41861802
-0.09337008 0.6050699 -0.44852158 0.19380659 0.58228874 0.047248892 0.8000633 -0.44876462
0.5431318 -0.4880664 -0.3834352 -0.33345115 -0.021431629 -0.42506963 -0.16009523 -0.3072206
-0.28027457 0.028654907 0.6267001 -0.41032103 0.87082654 -0.18998851 -0.103266075 0.15776642
0.051822633 0.6495505 -0.7289776 -0.16472498 -0.19638458 -0.038101334 -0.71700263 -0.9897314
-0.32557127 0.7477533 -0.721093 -0.40130794 0.78589654 0.63369256 -0.28911778 0.24607378
-0.22249268 0.0095245205 0.44209915 0.43657714 0.4752836 0.060981445 -0.017871037 0.5361393
0.92215896 -0.04371964 0.12546432 -0.9983732 -0.37031728 0.16248977 0.38853908 -0.7284882
0.22810756 0.07853309 -0.12954867 0.72302634 -0.25655285 0.48563918 -0.012597691 0.041739002
-0.16505675 0.9978054 -0.36564872 0.05615812 0.30693948 -0.08887054 -0.11361307 -0.019071847
-0.21694909 -0.13622446 -0.2751452 -0.41969097 -0.00957071 0.61300814 0.24639393 -0.9362436
-0.26901165 -0.39330128 0.2514741 0.11676678 -0.17486289 -0.14682706 1.1274911 -0.4502316
0.7222955 -0.121322155 0.39635554 -0.748325 -0.42530376 -0.9658992 1.0750471 -0.046661768
-0.74902457 0.1855953 -0.83881396 -0.27078217 -0.2941214 0.19728568 -0.5099536 0.35173827
-0.2000374 -0.4173698 0.4119699 0.29325953 0.075570166 0.10693131 -0.7192441 -0.15754156
0.03985336 -0.17094386 0.5828357 -0.6837006 -0.09262675 0.19324128 0.8796967 -0.26332438
0.07646487 0.80201566 -0.5964092 -0.48440847 -0.015242489 0.04365498 -0.7408581 -0.3683193
0.07244142 0.33259097 -0.026693847 0.44017136 0.006972999 0.286993 0.52675706 -0.6099412
-0.7404148 -0.05648508 -0.261074 -0.012023619 0.58386517 -0.4887129 0.045782216 -0.24330291
0.08848315 -0.67208165 0.20724976 0.19110177 -0.20860936 0.09449033 0.086337216 0.050684035
0.21388887 0.029190818 0.04410699 0.022600755 0.17217441 -0.073366165 0.21896222 -0.0027248976
-0.911689 -0.3036242 -0.15918002 0.2997765 -0.09513256 0.69347376 0.46740636 1.2512982
0.428181 0.12576188 0.09303513 -0.0654582 -0.18583371 0.15145303 0.20503649 -0.29914626
-0.04084921 -0.120505124 -0.008593777 0.1365156 0.07082634 0.22000352 0.045202263 0.06806897
0.32853958 -0.239954 -0.17608394 -0.029560326 -0.047260936 -0.098425545 0.5188647 0.18935858
0.0701709 -0.05955694 0.21763855 -0.25423858 0.0097297905 0.36561006 -0.46871117 -0.06708174

weight_hh_l0 f4 [300, 100]
00000000: a2af e23e 83b4 1a3e 9415 93bf 727d 353f
00000010: 4b48 213f be79 2f3c 2890 debd 9df3 a8bf
00000020: 81e1 92be 4ac7 19bf 82d9 98be 32e1 053f
00000030: 430d 9e3e a7d6 1b3f 6b3e 823f 97f6 e0be
00000040: 7a62 afbe f751 233e e04d 883f 9575 163e
00000050: 3bd7 2fbf 9251 ffbd 5dbd c03e 5365 053f
00000060: 0108 363f b995 2bbf 8265 1f3f 6990 29bd
00000070: 6d64 713e be71 c63d 9e11 fe3e d127 33be
00000080: 3794 523c 2d3f 49bf 3e72 74be ebb7 8abe
00000090: f020 e3be 5ac8 b53e d59c 963d f4e2 823e
000000a0: fe37 8bbf 4825 a23d f37f 3ebe 7ec5 d5be
000000b0: 1b69 3b3d 2754 563f 0198 a6be e818 093e
000000c0: 00f5 43be 48b4 09bf c953 a03e 62ba b9bd
000000d0: b811 32ba b50f 67be ed1f 683d a55d e53d
000000e0: faa2 d8be 2612 5bbe fbb3 1fbe c1c9 0ebf
000000f0: 9de2 fd3e 0bda 093f d2ed 66bf ed7a 923e
00000100: 6d64 c13e a8f8 553f d60e 1c3f ac9e 563f
00000110: 8e46 143f b19c 06be cf40 ae3e a708 0c3e
00000120: a0a0 b0be b78f 6cbf ae33 163f 4183 6c3c
00000130: 242b 063f 6c50 073e 4f19 bd3d 7874 8ebe
00000140: d6b7 50bf fdd1 8bbf 44ed 19be daab 9cbf
00000150: 9c57 0d3f d159 15bd 3b3f 92be 4d76 823d
00000160: 3abb 42bf 98d2 1abf a543 373e a106 8abe
00000170: 7a74 af3d a584 c7bd 3367 bb3e 269a b8be
00000180: 7e81 c4bf 3168 51bf 13d1 c1be 12fa 71bf
00000190: c8df a23d 46da db3e 6d9d 513e 1033 193f
000001a0: dfdb 6fbd 7be3 8b3f 1705 bc3e 1aa0 47be
000001b0: 438d 21bf caa1 e1bf 4853 9cbf e9ca 1cbf
000001c0: 6a74 4d3f 0675 083f 7a37 c9be 88cc 253f
000001d0: ebb2 373f c373 0a3e 2f5f 1cbf 8ae9 773e
000001e0: d6a1 81be 2f48 863e 8fef c93d 4a3a 9f3c
000001f0: 8adc 8dbe a51b 613f 99a1 203f ac5b 88bf
00000200: 3f91 93be f061 e53e 3b9d 8bbf 0be0 d2bd
00000210: 27b3 923f 4f76 62bf 91b7 92bd ffb9 02bd
00000220: 7e92 a83d 684f 483e afca 8abd 5631 3ebe
00000230: a54a c2be 2044 81bf 49f2 8f3e 98bc 57bf
00000240: 051d 23be d80a 10bf 7dd8 55be bc56 14bf
00000250: b7e4 413f e4d5 3c3e 8aa9 c43d b7a3 343e
00000260: e5c2 4e3d e4f5 013e 7dbd 273f 5c9b 8a3f
00000270: a3a6 0f3e 2105 0c3d 34b2 b9be 2de9 ecbe
00000280: a965 a33d 41c4 9fbe cbda 3e3f f8b8 833e
00000290: d04b 1f3d 8dc4 083f b4d5 9bbf 5e8f 0a3e
000002a0: 443e 9fbe 0e2d a83f 5086 f63e ca30 87be
000002b0: 4dd5 8e3e 0089 00be 144d fe3d 6063 fd3e
000002c0: fc23 563d d265 4dbe d0fc 0b3a a342 d6be
000002d0: a545 613e 3969 613e e863 6fbf 389c 273e
000002e0: 8ad5 a73e 1744 00bf 3313 45bf c79a 65bf
000002f0: 2716 6abc 2f9d 423f cc4f 29bc a0ca 143d
00000300: e621 a5bd e154 163e 700b 8bbe 6653 5abf
00000310: 3871 ce3d 9122 1b3f e473 23be 90f4 6abd
00000320: a89a ebbe da09 083e 7401 33be 976d 70bd
00000330: c94c b9be 0697 8cbe 3bc0 8abe 7329 dfbe
00000340: 8821 00be 24f5 8dbf 7db5 6e3e d160 06bf
00000350: 5018 82be c143 1c3f 99ee 163e 9333 68be
00000360: fa9f 4fbe f853 24bf 36f0 3f3f d6b2 ccbe
00000370: 7eeb 06bf 1cd8 98be ebd6 8f3c c202 993e
00000380: fef8 aabe 7531 ff3d aa98 e93e c14e c7be
00000390: e81b 113e 7f7b f23e f75f aabc 8f9e 9abe
000003a0: 1935 043f cf7b b13e d3f9 243e 66bc cb3e
000003b0: 4040 36b8 f94e e0be 84af b33e aaed c93d
000003c0: 4a55 38bf 626a 0f3f 0688 26bf 56c5 8c3d
000003d0: 9858 023e ed9e 2fbe 648e 2a3e ea9f 393f
000003e0: 3e00 ac3e 299d bebe e232 02be 4ecb 46be
000003f0: 2dd8 483f a05e 1b3f 1f44 633e 1a16 813f
0.44274622 0.15107922 -1.149096 0.7089454 0.63000935 0.010710178 -0.108673394 -1.3199345
-0.2868767 -0.60069716 -0.29853445 0.52296746 0.30869493 0.6087441 1.0175298 -0.43938133
-0.3425482 0.15949236 1.0648766 0.14693291 -0.6868779 -0.1246673 0.37644473 0.52107733
0.71105963 -0.67025334 0.62264264 -0.041397486 0.23573466 0.09689663 0.49622816 -0.17495658
0.01285272 -0.78612024 -0.23871705 -0.27093443 -0.44361067 0.3550442 0.07354132 0.25563776
-1.0876462 0.07917267 -0.18603496 -0.41752237 0.045754533 0.83722156 -0.32537845 0.13388407
-0.19136429 -0.5379071 0.31313923 -0.09068753 -0.00067928014 -0.22564586 0.05667107 0.11199502
-0.4231184 -0.21393642 -0.15596001 -0.557766 0.49586955 0.5384833 -0.90206635 0.2860941
0.3777193 0.83582544 0.6096014 0.83835864 0.5792016 -0.1314571 0.3403382 0.13675176
-0.34497547 -0.9240679 0.58672607 0.01443559 0.5240958 0.13214272 0.09233343 -0.27823234
-0.8153051 -1.0923458 -0.15031916 -1.2239945 0.55211806 -0.03646261 -0.28563866 0.0637022
-0.76066935 -0.6047759 0.17896898 -0.26958182 0.08567138 -0.09742097 0.36602172 -0.36055106
-1.5352018 -0.8179961 -0.37854823 -0.945222 0.07952839 0.42939967 0.2047021 0.5984354
-0.058559295 1.0928797 0.36722633 -0.19494668 -0.63106173 -1.7627499 -1.2212915 -0.61247116
0.8025576 0.53303564 -0.39300138 0.64765215 0.7175738 0.13520722 -0.6108274 0.24210182
-0.25318784 0.26226947 0.09860145 0.019436974 -0.2770732 0.8793281 0.6274658 -1.0652976
-0.2882175 0.44801283 -1.0907358 -0.10296639 1.1460923 -0.88461775 -0.07163919 -0.03191566
0.08231066 0.19561541 -0.0677694 -0.18573508 -0.37947574 -1.0098915 0.28114536 -0.84272146
-0.15929039 -0.56266546 -0.20883365 -0.57944846 0.75739616 0.18440968 0.096026495 0.17640577
0.050478835 0.12691456 0.6552351 1.0828662 0.1402841 0.03418458 -0.3626877 -0.4627165
0.079783745 -0.31204417 0.745526 0.25727057 0.03889066 0.5342491 -1.2174592 0.13531253
-0.31102192 1.313875 0.48149347 -0.2640441 0.2789711 -0.12552261 0.12417045 0.4948988
0.05228041 -0.20058373 0.0005340101 -0.41847715 0.21999224 0.22012796 -0.9351182 0.16368186
0.32780105 -0.50103897 -0.7698242 -0.89689296 -0.014287508 0.76021093 -0.010333966 0.03632605
-0.08063106 0.14680816 -0.27157164 -0.85283506 0.100801885 0.6059962 -0.15962178 -0.05736214
-0.4601643 0.13285008 -0.17481023 -0.058698263 -0.36191395 -0.27458972 -0.27099785 -0.4358631
-0.12512791 -1.1090436 0.2331142 -0.5249148 -0.25409174 0.61040884 0.14739455 -0.22675924
-0.2027587 -0.64190626 0.7497591 -0.3998019 -0.5270308 -0.29852378 0.017558536 0.29884917
-0.3339309 0.12460605 0.45624286 -0.38927272 0.14170802 0.47359845 -0.020797713 -0.30199096
0.5164352 0.3466477 0.16110925 0.39792174 -4.345202e-05 -0.4381025 0.35094845 0.09859784
-0.7200514 0.560217 -0.65051305 0.06873576 0.12729108 -0.17150469 0.1665588 0.72509634
0.33593935 -0.3722928 -0.12714723 -0.19413492 0.7845486 0.6069126 0.22193955 1.008487

bias_ih_l0 f4 [300]
00000000: ef89 06be 255c 03be fb62 89be 9e30 873d
00000010: 72d6 90be 6bad 16be 2896 d43d 5194 b3be
00000020: 9068 d7bd 3b91 34bb 1b0d 40be 76f3 06bf
00000030: 51b5 9dbe 62b4 58bd b653 18bf e3d1 99be
00000040: a532 92be 5081 18be 0d10 883d 6f62 74be
00000050: c2b1 59be 2487 933e 98f6 30be 49be d3be
00000060: 64eb 17be 3b65 013e a328 c1be 9b93 223e
00000070: 7a15 21be 1b4a 05bf 59df 1bbd f53b b0bd
00000080: 1c20 363e bade 3cbe b347 d6bd 61fd 09be
00000090: d006 5fbd 2df8 4cbd b2e7 23bf c4b4 e1be
000000a0: 5d15 cdbe 53fc 30be 4ec6 743d e42b 3d3d
000000b0: 5c70 2c3e 4b6a babd ff12 c9be 882c a4be
000000c0: af13 65be 9694 1a3d 58fa 10bf 9aa4 babd
000000d0: 4d35 77be 7958 bdbd 48e3 3f3d 17df 7dbe
000000e0: 8034 6e3e 568f 7c3c 7781 10bd a505 423d
000000f0: 4f21 2ebe 477d e2bd 1972 8ebe 86aa c03e
00000100: 86fa 2cbe 97b9 94bd 5dba ddbd 90df 5fbe
00000110: 659b ee3b 168b b7be 134d a2bd e30d c83d
00000120: 16dd 11be 8632 22bf b2ea 793d 5c95 e8be
00000130: 79cc 45be 28d0 5a3c d052 223d c223 a9be
00000140: 541d 59bd 3ab2 1e3d 3da8 503d fa5c c9be
00000150: 66bc a33e f4bc 14bf 8c16 39be 26a5 303e
00000160: bee3 a3be 6620 86be d9ec d23e 1f0d debe
00000170: df46 893d 6650 be3a fd2d 9ebd 8d3b ccbe
00000180: 2dc4 1fbf 115c 9fbe 4716 10be 08b7 06bf
00000190: 1f16 9dbe 9833 b2be eb9b dabe 2aea 46bf
000001a0: f284 c4be bf00 00bf d342 4cbf e4be 19bf
000001b0: 19f7 76be c82a 81be 48af 49bf ef16 53bf
000001c0: b8f8 10bf 266f d3be ca4c 00bf 329f 8cbe
000001d0: 0f7c c0be 39dd 08bf 9c51 5bbf 4bb5 07bf
000001e0: 3707 06bf c394 3cbf 0256 76be 47eb 36bf
000001f0: 97b7 47bf 46b4 4ebf be8a a5be 9354 14bf
00000200: dd00 14be 9fa9 4fbf 5af1 00bd 87bd 21bf
00000210: 65ee 86be fe45 a7bd 5d1d 38bf 8162 dcbe
00000220: b3db 68be f6c8 14be 3bbe 41bf 7842 6ebf
00000230: 9942 febe 976a 43bf 1bd5 e4bd 6d0a 2dba
00000240: 4c52 12bf 3309 36bf 9441 ffbe bbd0 16bf
00000250: 87a0 01bf e6e3 22bf b5c6 40bf f5e1 19bf
00000260: 4490 21bf 20bc d1be 72cc edbe 8792 47be
00000270: dddd 17be 54e4 4bbf 8ec6 01bf c636 15bf
00000280: 062b febe 89fd a4be db30 483d 8bf7 813e
00000290: ecdd 88be bfe1 21bf 10a0 bfbe 2de0 74bf
000002a0: e49b c7be 9399 44bd 4f2b e8be fc1e 91be
000002b0: 734f 14bf 7a76 01bf ffc8 aabe 6b84 94be
000002c0: 74a5 043e e810 bdbe 390b f4be e5ac 15bf
000002d0: dcf5 04bf a8f8 e2be 1d16 97bf 9265 d13d
000002e0: b111 803d ef72 a1bf 2e2e 87be f1d4 a6be
000002f0: 1458 8bbe 794c d33c 0dcc aa3e 0caf bfbe
00000300: 32ad 67bf 8e9b 24bf 7f34 febe 3336 68bf
00000310: 4cd0 a9be d0fc e4be 3dae 32bf 5ff9 3cbf
00000320: 67e7 033e ade5 b73c 55a3 47be 29b4 cc3c
00000330: fb00 993d 049b 863d ba58 a23e 0bd9 d63d
00000340: 4f75 28bd 2833 783e a1a4 1d3e 1ec0 5fbd
00000350: 2c75 1b3e 13fd 4ebe 54ad 87bd 11eb 0abe
00000360: c8fe 483e e6d4 d03c 81f9 853e fc72 21bd
00000370: 07a3 a63e 8564 d03e d2f9 313e d6b0 b9bd
00000380: 7d50 acbc 9b4b 92be 14be 7bbd 67aa 053e
00000390: c9b8 82bc bf12 0abe 5902 8abd 3a56 16be
000003a0: e73f 0abe c573 f7bc 8d95 313e 11b6 2cbd
000003b0: 48be 113d e941 5d3d 2cda a93d 1d80 6a3e
000003c0: a160 9f3d 45c9 c03c b542 383d a1f1 833c
000003d0: 283d 2ebe 3e1b 703d 3e0b 14be b271 9d3e
000003e0: 96b7 04be 93f4 8e3e 6ec8 99be 795b 86be
000003f0: f824 1abe 7823 03bd 2bff a4be 6554 53be
-0.13138555 -0.12828119 -0.2683333 0.0660107 -0.2828861 -0.14714591 0.103802025 -0.35074094
-0.105179906 -0.0027552384 -0.18755 -0.5271524 -0.30802396 -0.0529064 -0.5950273 -0.30042943
-0.28554264 -0.14893079 0.066436864 -0.23865674 -0.21259215 0.28814042 -0.17281568 -0.41356114
-0.14835888 0.12636273 -0.37726316 0.1587662 -0.15730849 -0.520662 -0.038054798 -0.08605186
0.17785686 -0.18444338 -0.10462894 -0.13475563 -0.054449856 -0.050041366 -0.64025414 -0.44083226
-0.4005536 -0.17283754 0.05975943 0.046184435 0.16839737 -0.09102305 -0.39272305 -0.32065225
-0.2237079 0.03773936 -0.56631994 -0.091134265 -0.24141426 -0.092453904 0.04684761 -0.24792133
0.23262215 0.015415033 -0.035279717 0.047368664 -0.17004894 -0.11059051 -0.27821425 0.376301
-0.16892442 -0.07261961 -0.108265616 -0.21862626 0.007281708 -0.35848302 -0.07924857 0.09768274
-0.14244494 -0.6335834 0.06101484 -0.45426452 -0.19316281 0.013355292 0.039629757 -0.33035094
-0.053006485 0.03874419 0.050941695 -0.39328748 0.31979674 -0.5810082 -0.18075007 0.17250499
-0.3200969 -0.26196593 0.41196325 -0.43369386 0.06702971 0.001451981 -0.07723615 -0.39889184
-0.62408715 -0.3112493 -0.14070998 -0.52623034 -0.3068094 -0.34804988 -0.4269708 -0.77701056
-0.3838268 -0.5000114 -0.79789466 -0.600569 -0.24117698 -0.25227952 -0.7878308 -0.8245687
-0.56629515 -0.41295737 -0.5011717 -0.27465206 -0.3759465 -0.5346256 -0.856714 -0.53011006
-0.5235476 -0.7366449 -0.24056247 -0.71452755 -0.7801451 -0.80743825 -0.32332414 -0.5794155
-0.14453454 -0.81118196 -0.03148017 -0.6317982 -0.26353756 -0.08167647 -0.71919805 -0.43043903
-0.22740059 -0.14529786 -0.75680894 -0.93070173 -0.49660185 -0.7633452 -0.11173459 -0.000660098
-0.57156825 -0.71107787 -0.4985472 -0.5891225 -0.5063557 -0.63628995 -0.753032 -0.6011041
-0.63110757 -0.4096384 -0.46445042 -0.1948949 -0.14830728 -0.79645276 -0.50693595 -0.582867
-0.496422 -0.32224682 0.048874717 0.25384173 -0.26731813 -0.63235086 -0.37426805 -0.95654565
-0.38986123 -0.047998022 -0.45345542 -0.28343952 -0.5793373 -0.50571406 -0.33356473 -0.29007277
0.1295374 -0.3692696 -0.47664812 -0.5846694 -0.5193765 -0.44330335 -1.1803623 0.10224451
0.06253374 -1.26132 -0.2640242 -0.32584336 -0.27215636 0.025793301 0.33358803 -0.37438238
-0.9049865 -0.6429986 -0.49649426 -0.907077 -0.3316673 -0.4472413 -0.69797117 -0.7381801
0.12881242 0.022448385 -0.194959 0.02498825 0.0747089 0.06572536 0.31708318 0.104906164
-0.0411275 0.24238265 0.15394832 -0.054626577 0.15181416 -0.20213728 -0.066248566 -0.13566233
0.19628441 0.025492143 0.2616692 -0.0394163 0.32546255 0.4070169 0.17380455 -0.09066932
-0.021034474 -0.28573307 -0.06146057 0.13053285 -0.015957253 -0.13483714 -0.06738729 -0.1468133
-0.1350094 -0.03020657 0.17342205 -0.04216582 0.035581857 0.054017935 0.08293566 0.22900434
0.077821024 0.023533473 0.04498549 0.016106429 -0.17015517 0.05861973 -0.14457414 0.30750805
-0.12960657 0.2792097 -0.30035728 -0.26241663 -0.15053165 -0.032016248 -0.32225928 -0.20637663

bias_hh_l0 f4 [300]
00000000: 6c0c 8fbe b14f 34bc d346 99be 7fba 3f3d
00000010: debb a5be 9dd0 91be 5e3b 5c3d bb0f b8be
00000020: b7fc 67be 57fe a03d 3727 4bbe 0f9a 07bf
00000030: 5403 93be 13c8 0fbe 6a13 e6be 3131 a5be
00000040: d226 1abe 3cf6 75bd 31eb ed3d 70fd c1be
00000050: ea14 6cbe 5883 a43e dff1 ffbc 8fa7 d6be
00000060: c07e 81be b953 ef3d 3219 74be ad1d 5d3e
00000070: e744 5cbe 418f d8be 8dfd 1dbd 6611 3bbe
00000080: 6abd 473c 567e 8abe 487b b03a 113d 41be
00000090: c3f5 0fbd 6173 1cbc d36e 0dbf 34f2 c1be
000000a0: c336 debe 55f4 f0bc f43c bd3c e39d 203d
000000b0: 7274 903e 5a25 8f3c e92e c0be a5e3 82be
000000c0: e54b 1dbe fd40 333e abc1 1dbf 31cb 8d3c
000000d0: 3ca3 92be b416 543c b7b7 d13d 81b5 adbe
000000e0: 79bf 7a3e 3f65 cabb 6895 07be c860 8e3b
000000f0: 4b32 2dbe 79b7 08be ef6e 8abe 605c b83e
00000100: a23a 31be 5051 8ebd 04f4 eabd 53fb 9ebe
00000110: d22d b2bc 2dd3 02bf e2e9 6fbe bfba 6dbd
00000120: 12d1 1dbe 6043 29bf 1928 8e3d ce81 0abf
00000130: af9b 62be debe 98bd c703 eb3d 5974 62be
00000140: 15d3 0dbe c4f0 1b3e 1c54 683d db7a fcbe
00000150: fceb be3e 78d1 15bf b9cd 27be ccfb 443e
00000160: f8d5 a2be e158 b0be a760 a73e 857c 93be
00000170: 8b30 03bd ccb6 12bd 5111 dabd 897b 80be
00000180: c8ec fcbe 9350 aabe e93e 4cbe f448 0bbf
00000190: 1a00 adbe 4a30 dfbe 55f6 0ebf 8040 1dbf
000001a0: b670 99be 6c78 05bf 8f54 50bf 40e2 22bf
000001b0: 4833 fabd b43c 80be 464d 2cbf e7d1 50bf
000001c0: fc3a 27bf 026e d9be 814a 11bf 43dd 9ebe
000001d0: 7fef a7be 8301 0fbf 860a 4cbf 21d5 33bf
000001e0: b638 15bf 0b21 5abf 5070 b5be ab71 38bf
000001f0: 79da 39bf b27a 77bf b479 d0be 28fa 17bf
00000200: 8bcb 4dbe 23ca 2abf 3c22 d83d 2d27 23bf
00000210: 1675 01be 6efa 06be af93 42bf 2f31 aebe
00000220: c3a9 a4be 88c9 28be db6f 49bf c874 58bf
00000230: f2e5 c1be 4af5 61bf eea7 ffbd 7a29 17be
00000240: b5d7 eebe 976e 1fbf 038f fbbe 2129 19bf
00000250: fa6a 09bf 70e9 11bf 25db 2cbf a0ef febe
00000260: d136 07bf 1604 e8be 98da d1be 2bc3 54be
00000270: 05d5 85bd 7e20 68bf 2067 0bbf 8f13 32bf
00000280: dc14 06bf e7bd b8be aa4e 1c3e 74e0 9d3e
00000290: 2736 52be 9082 e2be 2933 97be f933 67bf
000002a0: c268 0abf 2f36 a1bd aad7 08bf 870a 77be
000002b0: b74a 08bf 8cec b6be 5530 e9be 57a5 a4be
000002c0: bcf5 843d e227 c7be fca4 febe 3915 1cbf
000002d0: ae93 03bf 783f e9be b989 91bf 602e 483d
000002e0: 8227 3a3e 0608 a1bf 2d7d 7bbe e6f5 7dbe
000002f0: de2b 1cbe 8d45 25bd 1f70 af3e 3089 f6be
00000300: 1eaa 4bbf 8221 1abf a970 00bf fdfa 6dbf
00000310: 6850 aabe ead7 cebe 31b3 35bf b902 52bf
00000320: df3e 88bf 95bc 5f3d 92ea 5e3e 83ad 3b3e
00000330: 4b36 943e 74e4 043f 52ab ae3e 15b0 7dbd
00000340: 342d eabb cea2 513e 9a0c d23e 99ce 70bd
00000350: 17aa 21be 5d15 04be d298 97bd 2fcf 883e
00000360: 79d8 033f c455 cebd 6e93 90be 0e46 22bf
00000370: c217 983e a3f6 393f 6adf 893e 521a 09be
00000380: 5f5c b93e 36f4 07bf 879c 66be 8b1f fa3e
00000390: 2e4b 393d 9d8f 4d3e 40ed 133e 627b c6be
000003a0: 06f2 363f fe06 433d 9fe6 953e 5ead 02be
000003b0: 91aa f53e 213e aa3d e399 afbe 1f2f cf3e
000003c0: 899f 8f3e 7745 d83e 3489 193e 7643 1d3f
000003d0: c7c2 e9be 46a3 de3e b37e 0d3e 10e5 8fbe
000003e0: fcf6 c7be 1e5b 883f 34b7 68be 7524 10bf
000003f0: 5a61 ccbd d844 753d ebf7 c5be 84dc ebbd
-0.27939165 -0.011005328 -0.29936847 0.046808716 -0.32369894 -0.28479472 0.053767554 -0.359495
-0.22654997 0.078610115 -0.19839178 -0.5296945 -0.28713477 -0.14041166 -0.44936687 -0.32264093
-0.15053871 -0.06004928 0.11617125 -0.3788867 -0.23054853 0.32131457 -0.031243263 -0.41924712
-0.25292015 0.11685891 -0.23837736 0.21593352 -0.21510659 -0.42296794 -0.038571883 -0.18268356
0.012191156 -0.27049512 0.0013464475 -0.18870951 -0.035146486 -0.009548993 -0.5524723 -0.378801
-0.43401155 -0.029413382 0.023100354 0.039213073 0.2821384 0.017473865 -0.3753579 -0.25564304
-0.15360983 0.1750526 -0.6162364 0.017308803 -0.28640163 0.012944866 0.10240119 -0.3392754
0.24487104 -0.0061766203 -0.13240588 0.0043450333 -0.16913716 -0.1335124 -0.2703776 0.36007977
-0.17307523 -0.06949103 -0.114723235 -0.3105112 -0.021750364 -0.5110348 -0.23429063 -0.058039423
-0.15411785 -0.6611843 0.06941242 -0.54104316 -0.22129701 -0.0745828 0.1147533 -0.22114696
-0.13850053 0.15228564 0.056720838 -0.4931248 0.37289417 -0.5852275 -0.1638707 0.19236678
-0.3180387 -0.3444281 0.32690927 -0.28805938 -0.032028716 -0.03581886 -0.10647834 -0.2509425
-0.493994 -0.33264598 -0.19945873 -0.5440819 -0.3378914 -0.4359153 -0.5584462 -0.61426544
-0.29968804 -0.52136874 -0.81379026 -0.6362648 -0.12216812 -0.25046313 -0.6730541 -0.81570286
-0.6532438 -0.42466742 -0.5675431 -0.31028184 -0.3279991 -0.5586168 -0.7970356 -0.70247084
-0.5828966 -0.8520667 -0.3543725 -0.72048444 -0.7259899 -0.96671593 -0.40717852 -0.59366083
-0.20097177 -0.66714686 0.10553405 -0.6373165 -0.12642321 -0.13181469 -0.760066 -0.340219
-0.32160768 -0.16483128 -0.786863 -0.84553194 -0.37870747 -0.88264906 -0.12483202 -0.14761916
-0.46648946 -0.6227812 -0.49132547 -0.5982838 -0.5367886 -0.5699682 -0.6752189 -0.49792194
-0.5281802 -0.45315617 -0.40987086 -0.20777576 -0.06534771 -0.9067458 -0.5445423 -0.69561094
-0.5237558 -0.36082384 0.15264383 0.30835307 -0.2052847 -0.44240236 -0.2953122 -0.9031368
-0.540661 -0.07871663 -0.5345408 -0.2412511 -0.53239006 -0.35727346 -0.45544687 -0.32157394
0.064921826 -0.38897616 -0.49735248 -0.60969883 -0.51397216 -0.45556235 -1.1370155 0.04887235
0.18179134 -1.2580574 -0.2455947 -0.24800834 -0.15251109 -0.040349532 0.3426523 -0.4815154
-0.79556453 -0.6020738 -0.50171906 -0.929611 -0.3326447 -0.40399104 -0.7097655 -0.82035404
-1.0644187 0.054623205 0.21769169 0.18327908 0.28947672 0.5191109 0.34115082 -0.061935503
-0.007146502 0.20472261 0.4102524 -0.058790777 -0.1578754 -0.12898774 -0.07402195 0.2672057
0.51502186 -0.10074952 -0.2823748 -0.63388145 0.29705626 0.7264196 0.26928264 -0.13388947
0.36203286 -0.5310701 -0.22520648 0.4885219 0.045237713 0.20074315 0.14445972 -0.3876601
0.7146305 0.04761409 0.29277512 -0.12761447 0.47981694 0.083126314 -0.34297094 0.40465638
0.28051403 0.42240497 0.14993745 0.6143106 -0.45656416 0.43483943 0.13817863 -0.28104448
-0.39055622 1.0652807 -0.22726136 -0.5630563 -0.09979506 0.059880108 -0.3866571 -0.115166694

weight_ih_l1 f4 [300, 100]
00000000: 85f7 31be 9366 923e 78cb 22be a9ba 40bd
00000010: 0e44 973c a13c b1be 7490 f8bd 715a f73d
00000020: 09d6 733e 2401 8c3e 4bcd 62bd 8d50 f53d
00000030: 31ef 20be 452b 76bc d75d 20be e6a3 e0bd
00000040: 3923 363f e05a ac3d 11b7 af3d 6a7b 813e
00000050: 0d1b f13e 030d fb3c b051 863c 2353 e1be
00000060: 2f3b 5a3d 0563 97bd 5449 52be dde6 1c3f
00000070: 7094 9cbd 1c6d dabd 4749 3dbe b1f5 babe
00000080: 7a72 14be cdf8 3d3e c1f0 713d 9b2c 87be
00000090: b8a6 a2bd 0f38 a8be 96b7 8cbe 2ec7 873e
000000a0: c399 78be 826f 8d3e 9f35 7b3e f2b8 0a3f
000000b0: 6436 71be 304b 37bc cdca e43e 6b5c 0dbe
000000c0: 20e7 a5be 572d e7bc c643 853e 92b9 0ebf
000000d0: 8e35 b6bd d14a 693e 951b 66be b493 ca3d
000000e0: 5671 b63d 58d8 7ebe ec41 c7bd b488 e63e
000000f0: 398e 24bd efca 703a f72a 223e 4667 5c3e
00000100: 3dbe 8c3d fd23 62be 1884 c53e 61e7 753e
00000110: 1057 5dbe 8f2f 36bb 7562 43be 0b24 393e
00000120: 2c48 dfbe 82e0 2b3e c1f7 95be 86ef a43e
00000130: 6af9 1fbe de18 c0bc 389c 4dbf 984a c9bd
00000140: 7368 b03e e2a4 f03e de15 cf3d 4f08 09be
00000150: 8eab 95be d90d 05bf 24ee 203d dfe3 ffbb
00000160: 8677 913e ec4b d1bd 9d46 33be 75f7 0abf
00000170: 2957 28be 85f9 0a3e 24f9 cebe 4fd0 43be
00000180: 3fbe 2a3d d662 ba3d dc63 413e c68a 943e
00000190: c1dc 413e 802a 16bf 642f 093f a6fc 1abf
000001a0: 370e 693e 8412 d8bd 045c 8f3e 5766 afbe
000001b0: b753 323f 5d6a adbe da78 793f 7592 45bd
000001c0: d3cb 533e 34a3 4e3e c7e3 903e 5261 a53e
000001d0: c7ca 05be 80ed 62bf e477 87be fc89 bcbd
000001e0: 88d8 7b3d 8649 4b3f b1b0 4fbe 7980 0f3f
000001f0: 2575 f3be 8ebe c33e 4a8e 38bd 67da 97be
00000200: aa9d 9b3e d004 073f c70d c5be 7b94 33bf
00000210: a1be 843f 6cee 89be 3df5 703e fec0 ac3f
00000220: 4070 34bd 3b40 ef3d 1f5b 913f 4cef 733d
00000230: 6fb7 95bd cf54 6abe 6b36 78bf 7526 653e
00000240: 97d0 46be 94e4 74bd 02a1 29be 5e4d 513e
00000250: da49 0e3d 4b12 ff3d c166 48bf 7193 3ebe
00000260: 5231 2bbf 285d 5e3e 0503 3ebe dd91 cf3d
00000270: 9933 66be 2060 903d e246 153e 3eba ed3e
00000280: 609f 80be 7840 9e3f e61c 34bf bfd1 5cbf
00000290: c64d b63e 4998 a43f f564 1a3f 570a e43e
000002a0: d3a2 b6be a26c 613d f156 69be c504 083e
000002b0: 9f8c f4be 69cb dcbe af35 8fbe 0c36 593d
000002c0: 6933 a3bd d7e5 24bf 2f3f 38bf a57c 533e
000002d0: 1c61 8e3b fa8e 953e 9aa0 f8bd dca6 813e
000002e0: ce9d 7dbe 572b 0dbf 883c 893f 2064 3c3f
000002f0: 5413 86bd 1ed6 82bf 231a 933e 4fd0 30bf
00000300: e6bd c7bd 4707 9abe fae7 b1bd 91d2 023f
00000310: 9234 70bf 1ca4 343f c6e3 a3be 76cc 6dbf
00000320: 9cd2 273e 099f b9be 6430 b7bc 93b3 b2bd
00000330: d3df bd3d 8c99 2e3e bd8c ad3e 7263 f63d
00000340: 6786 1abc ed33 c83d bc83 39be 7716 91be
00000350: 9f81 a13d 3478 b0bc d2b5 c1bd cfcd 253e
00000360: 8225 d03c 5ff7 02bf 2039 b23e 20de 4ebe
00000370: 622d 5c3e b15f a43e 6054 e7bd 4891 e43d
00000380: d41f 72be 031f 25be 4661 9dbc de66 e1bd
00000390: 9ad9 153e c903 973e a074 b9be 4a1e 5ebd
000003a0: 5475 cf3d 9f5b 0fbe b173 733e 639a 803d
000003b0: 87e6 cf3d 5cad 473e 3285 723e 3df1 00bd
000003c0: 6b68 7b3e 7477 ac3d fb2c c13d 7ea3 573d
000003d0: e88c 9bbe 9c31 8f3e cf54 d2be 8198 a3be
000003e0: e380 853d 823c 503e 6453 58be 20ab 193d
000003f0: fdff 9dbc 86e0 963e a3af 44be baa8 063e
-0.17379577 0.28593883 -0.1589793 -0.047053013 0.018465068 -0.3461657 -0.12136927 0.12077797
0.23812117 0.2734462 -0.055371564 0.119782545 -0.15716244 -0.015024965 -0.15660797 -0.10968761
0.71147496 0.084157705 0.08579839 0.2528947 0.4709095 0.030645853 0.016396374 -0.4400874
0.053279098 -0.07391933 -0.20535785 0.6128977 -0.076455 -0.10665342 -0.18484984 -0.36515573
-0.14496794 0.18551941 0.05906749 -0.2640122 -0.07941955 -0.3285527 -0.27483815 0.2651915
-0.24277405 0.27624136 0.24532174 0.54188454 -0.23555905 -0.01118736 0.44685975 -0.13804786
-0.32402897 -0.028219862 0.2602827 -0.5575191 -0.088969335 0.22782446 -0.22471459 0.098914534
0.08908336 -0.24887216 -0.097293705 0.4502617 -0.040174697 0.0009185513 0.15836702 0.2152377
0.068722226 -0.22084041 0.38577342 0.24014045 -0.21615243 -0.0027799343 -0.19080527 0.18080156
-0.4360975 0.16784862 -0.29290584 0.32213992 -0.15622488 -0.023449358 -0.80316496 -0.09828681
0.34454688 0.47000796 0.10111593 -0.13382076 -0.29232448 -0.51974255 0.03928961 -0.007809147
0.28411502 -0.10219559 -0.17507406 -0.5428384 -0.16439499 0.13571747 -0.40424454 -0.19122432
0.04168534 0.09100883 0.1888575 0.29012126 0.18931867 -0.586586 0.5358794 -0.6054176
0.22759329 -0.105504066 0.2799989 -0.34257767 0.6965899 -0.3387021 0.9745003 -0.048235375
0.20683222 0.20179445 0.2829878 0.32300812 -0.13065635 -0.88643646 -0.26458657 -0.09206006
0.061485797 0.7940906 -0.20282246 0.5605541 -0.47550312 0.3823132 -0.045057572 -0.29658815
0.30393726 0.5274172 -0.38487074 -0.7014844 1.0370675 -0.26939714 0.23531051 1.3496397
-0.044052362 0.11682173 1.1355933 0.059554383 -0.07310378 -0.22883914 -0.96958035 0.22377951
-0.19415508 -0.0597883 -0.16565326 0.2043967 0.0347384 0.12454661 -0.7828179 -0.18610932
-0.6687213 0.21715224 -0.1855584 0.10135243 -0.2248062 0.070495844 0.14577821 0.46431154
-0.25121593 1.2363424 -0.70356596 -0.8625755 0.3560621 1.2858974 0.603103 0.4453914
-0.356711 0.05503524 -0.22787072 0.1328307 -0.47763535 -0.4312394 -0.27970645 0.05303006
-0.0796879 -0.6441321 -0.7197141 0.20653017 0.0043450724 0.29210645 -0.12140007 0.25322616
-0.24767229 -0.55144256 1.0721598 0.7359028 -0.06546655 -1.0221593 0.28730878 -0.69067854
-0.09753017 -0.30083677 -0.08686824 0.5110255 -0.93830216 0.7056291 -0.32009715 -0.9289011
0.16388935 -0.36254147 -0.022361942 -0.08725657 0.09271207 0.17050761 0.33896437 0.120306864
-0.009431458 0.09775529 -0.18116659 -0.28337452 0.078860514 -0.021541692 -0.094585076 0.16191791
0.02540851 -0.5115871 0.34809208 -0.20201921 0.21501687 0.32104257 -0.1129539 0.11160523
-0.23644954 -0.16125111 -0.019211423 -0.110059485 0.1463379 0.29495075 -0.3622179 -0.054228105
0.101298004 -0.13999794 0.23774602 0.06279447 0.101513915 0.19499725 0.23683622 -0.031480063
0.24551551 0.084212214 0.094324075 0.052646153 -0.3038094 0.27967536 -0.4108033 -0.3195229
0.06518724 0.20335582 -0.21125561 0.037516713 -0.019287104 0.29468173 -0.19207625 0.13150302

weight_hh_l1 f4 [300, 100]
00000000: a7c9 37bd 682b 1ebe 2ace 1d3e 0ce7 583d
00000010: edc9 063e 406f 9bbe ae1e 86bd 1691 143e
00000020: ba77 13bf 544d 8ebe 370e 913e 583c a7bc
00000030: 6c20 d53e 07c9 8c3e b9e2 073d 3f77 e03c
00000040: 3b40 bb3e 3b9e 083e db46 6f3e 7152 c6bb
00000050: 8ae9 eb3d 74f2 a3be 4277 9e3c ed5a 8a3d
00000060: f74d 3fbf 2041 4bbe 4159 be3d 9a21 7f3b
00000070: 52e1 aa3c 894d b13c bffb 58bb 2682 563e
00000080: e3ea f33e a3e9 803e b951 713e 9693 e13e
00000090: cabf adbe 89c9 b2be 4757 ba3e 2892 9e3d
000000a0: e8bc febe 6567 16bf 3a5c 80be 4dba 69bd
000000b0: 8acb b43f edd7 eb3e 07b5 8ebe d02e 84bf
000000c0: 56b9 babe c39a bcbe 226b 10bf 1613 d73d
000000d0: 5256 0fbd 3fcf 6dbe 19d0 1c3e 8714 32be
000000e0: 2598 f13d 7f7a bebe 12bd 8dbe cfec 85be
000000f0: 5ef7 e0be d3a1 3bbf e674 1d3e 12ce 46be
00000100: d5f1 373b 2979 c43e 164b 71bf d30a 10be
00000110: bfd6 f3bd fd9c 05bf e4b2 8fbe de0c 313d
00000120: 18a8 6c3e 2d71 5f3f 4013 c23d 27f4 5abd
00000130: b5d5 a13e d623 163d 1163 5dbd 2aaa 033e
00000140: e0f7 b73e 29ea 33be b4c4 df3c cb4b b23e
00000150: 4954 3a3e b160 aabe 52b5 89bd 2fcc a0bd
00000160: 1dc2 cbbd 9438 a5bd 7edd 9e3e 5559 71be
00000170: 09f1 6abd c743 533f 5990 26bc 5957 a9be
00000180: d33a e53c 9c92 803e e1fb 743e fc57 34be
00000190: 88aa 4abe 79d6 d5be 8055 3a3e df98 2a3e
000001a0: 5a07 95bd b935 913e d6a5 c53e 86d5 60be
000001b0: 1457 cdbe db4a c23e 7ba1 b83c 80f0 3d3a
000001c0: 0e7e 293f ae00 0cbf d96d 803e 8fe0 533f
000001d0: 7739 3dbf f8fc 8abe e146 853e 5bf9 fbbd
000001e0: 429f adbf b985 97be 40da eb3d b374 efbe
000001f0: 439e e53c ea55 55be d593 593e 56f8 8d3f
00000200: 7d9e c83e bc17 9fbc f789 9cbe ff4a 263d
00000210: a6e1 b2be 8082 d33d add6 a53e 71ec a73e
00000220: 6ae3 c6be 2c3f e8be 22fd 8abe 449d 833f
00000230: 73d2 47be 2588 89bf d547 d1bf f37d 2bbf
00000240: 71c2 223e bb3d 5f3d 88a4 843c b734 633e
00000250: b0a3 9ebe 6a1c 80be 9d29 89be 03f8 64bf
00000260: c997 e2bd 1f61 f13d 0c15 373e 07df 5d3f
00000270: 4e5f ec3e 491b ca3d 269e 00bf 78f8 adbf
00000280: 57e9 5abe 2df0 edbd 2489 61be ea61 80be
00000290: 7049 24be d3bf 0c3e 89f5 4ebf 8d29 d03e
000002a0: ea98 73be 024b 643f 22d2 7b3e db28 ff3c
000002b0: ccde 503d 51ee 023f 3525 b73d f442 99bd
000002c0: e5e8 ae3f c1cf 2f3e 2169 86bf 7dad aa3c
000002d0: 210d b0be 49fe 83bf f094 f23d 68b2 6c3e
000002e0: 69cc 0340 41f3 ed3d e4f4 08be ba8a b9bc
000002f0: 8f00 25be d5fc 71bd 4594 ec3d 8700 3abf
00000300: 2a46 2bbf e68d 8dbf 9a10 e3bd 4aad dabe
00000310: 4a21 e73d 9caa 553f adf4 453e 1453 4ebd
00000320: 0d74 46bd e503 c4bd 0f45 853e 9f3d 283e
00000330: 9e6b fabe 2b9f 203e 2cff 64be b5a3 55be
00000340: 743a cf3d f96e 773d 02f0 54bd 043d 983e
00000350: 5ae5 0f3e 40a8 a9bc 007a a63e 6c5c 30bd
00000360: 15bb a13d 4047 a3bd c6ff 39be 9723 6ebb
00000370: aeaa 67be 4f7d e03d 5a2d 8dbd a4aa d5bd
00000380: 2953 8c3e ff47 28bd a33e 423e 38c3 093e
00000390: c9c5 0b3d 140e e5bc 3a31 44be dd2b bbbd
000003a0: f23b fdbd ec0a 1a3e 5d8f d43d 18f8 ac3e
000003b0: c67b b0bc aa3b 74bd cc2e 843e 0c7e ed3d
000003c0: f700 c13d c149 413e c738 15bf c8c4 95bd
000003d0: 350a a23d ca4c 0a3d 4b71 9d3d 1630 4fbd
000003e0: eaed fabd ff79 633c f251 e03d c660 39be
000003f0: cb19 453e a082 153e 88b9 473e b028 593e
-0.044870045 -0.15446246 0.15410677 0.05295472 0.13162966 -0.30358315 -0.065488204 0.14508471
-0.57604563 -0.27793372 0.28331158 -0.020414516 0.41626298 0.27497122 0.033175204 0.027400611
0.3657244 0.1334161 0.23366873 -0.0060523083 0.115191534 -0.32020915 0.019343976 0.06755624
-0.7472834 -0.19849062 0.092943676 0.003892994 0.020859394 0.021643417 -0.0033109037 0.20948085
0.47640142 0.2517825 0.23566331 0.44057912 -0.33935386 -0.34919384 0.36394712 0.07742721
-0.497535 -0.5875152 -0.25070363 -0.057062436 1.4124615 0.46063176 -0.27872488 -1.0326786
-0.36469525 -0.36836824 -0.5641347 0.10501687 -0.03499443 -0.2322359 0.15313758 -0.17390643
0.117965974 -0.37202832 -0.27683312 -0.26157233 -0.43938726 -0.732938 0.15376624 -0.19414547
0.0028067727 0.38373688 -0.942552 -0.14066629 -0.11906194 -0.5219267 -0.2806617 0.04322516
0.23110998 0.8728207 0.09476328 -0.053455498 0.31608358 0.03665527 -0.054049555 0.12857881
0.359313 -0.17569794 0.027315475 0.3482345 0.18196215 -0.33276895 -0.06724037 -0.07851445
-0.099491335 -0.08067432 0.3102836 -0.23569234 -0.057358775 0.82525295 -0.010166251 -0.33074453
0.027982151 0.25111854 0.23924209 -0.17611688 -0.19791615 -0.41765192 0.18196678 0.16659878
-0.07276793 0.283613 0.38603085 -0.21956453 -0.40105498 0.37947735 0.022537937 0.0007245615
0.6620797 -0.5468854 0.25083807 0.82764524 -0.7391581 -0.27146125 0.2603064 -0.1230342
-1.3564227 -0.2959421 0.11516237 -0.46768722 0.028029567 -0.20833555 0.212478 1.1091411
0.39183417 -0.019420497 -0.3057401 0.040598866 -0.3493778 0.10327625 0.32390347 0.32797578
-0.38845378 -0.45360696 -0.2714625 1.0282369 -0.19513874 -1.0744673 -1.6350046 -0.6698906
0.15894486 0.05450223 0.016191736 0.22188078 -0.3098426 -0.25021678 -0.2678956 -0.89440936
-0.11064107 0.117861025 0.17879122 0.8666844 0.46166462 0.098684855 -0.50241315 -1.3591452
-0.21378075 -0.116180755 -0.22024971 -0.25074703 -0.16043639 0.1374505 -0.80843407 0.406567
-0.23788801 0.8917695 0.24591878 0.031147411 0.050993726 0.5114489 0.089426436 -0.074834734
1.3664824 0.17169096 -1.0500833 0.020834679 -0.34385017 -1.0311977 0.11844814 0.23114932
2.0593512 0.116186626 -0.13374668 -0.022649158 -0.16113494 -0.05907901 0.11551718 -0.72657055
-0.66903937 -1.1058929 -0.11087151 -0.42710334 0.11285646 0.83463454 0.19331618 -0.0503722
-0.04845052 -0.09571055 0.2602925 0.16429757 -0.4891023 0.15685718 -0.22362965 -0.2086323
0.10118571 0.060408566 -0.0519867 0.2973405 0.14052334 -0.02071011 0.32514954 -0.04305689
0.07897011 -0.07972574 -0.18163976 -0.0036337131 -0.22623703 0.10961401 -0.06893416 -0.10432938
0.27407196 -0.041084286 0.18969207 0.13453376 0.03412417 -0.027960815 -0.19159403 -0.09139226
-0.12364949 0.15043229 0.10378907 0.3378303 -0.021543395 -0.059627213 0.25816953 0.11596307
0.09424012 0.18875791 -0.5828976 -0.07312924 0.07912103 0.033764638 0.076876245 -0.050582968
-0.1225241 0.013884067 0.1095313 -0.18103322 0.1924812 0.1460061 0.19504368 0.21206927

bias_ih_l1 f4 [300]
00000000: 4c51 f03d 53e3 c93e aa48 f73e 0ea9 193e
00000010: 1b55 9dbd 5d97 0c3d 1ba0 493e 9bae 40bd
00000020: c3eb 01be e720 d8bd 9d57 823b 7998 443e
00000030: 3d0d 173d 20da 9dbd 5a43 de3e 9153 c23a
00000040: 5f1d 7dbd 918a 1b3f ecc7 71be a63a 88be
00000050: d3b7 06be 88a1 713e 8aac ddbd 086a c23d
00000060: 782f dbbd 240a 073e 3e09 f83c 8721 74be
00000070: 3dd4 0d3d b835 2e3e 7254 a73d 07cf c73d
00000080: d813 09be b601 ecbb 4e8e 76bd 5cf4 b93d
00000090: 499c 183e 9fd0 8abe c569 203e 6bef 13bc
000000a0: 5abf 8b3d 82cf babe 9af0 e73d 0e1e c53d
000000b0: e986 053c 26d2 673d a9ef d73d f008 8abe
000000c0: c103 21be 8c59 0a3d 387c dcbd 7e26 9a3c
000000d0: 65b4 07bd b09f f9bc 4440 083e 4eda 6cbc
000000e0: f32e 9f3d fa5f 793d 3fe6 dabd 3efb 17bd
000000f0: dbc0 efbc 1f20 883e b705 62be 2c34 353d
00000100: c882 77bc c0c2 063e f515 9c3d a34f 053e
00000110: 79dc 823e 904d ca3b 3dac ec3c d654 adbd
00000120: c663 73bd 3403 763e de55 a33d c5fc 203e
00000130: eee3 2abe 4dbd 533e dcb4 c1bd 15bf ec3d
00000140: c996 873c d7d0 c7bd 4c5c b8bd 5a8f 46bd
00000150: 8bf7 8abd 7e61 d53d 8bda 703e c63f fd3d
00000160: a3e0 35be 309a 54bd d550 c03d 4614 c6bc
00000170: 1002 7bbe 82b1 0bbc 3680 d73e 593c 2abe
00000180: 234e 723e 08ec 233d 46a8 44be d8fb 063e
00000190: 41b2 49be b363 1cbf 9db6 2bbf c306 b4be
000001a0: 63d6 03bf 653a 45be cb4b 91be b5e7 48be
000001b0: 5792 87bc cb7c f2be 5b86 92bd 52eb 8dbf
000001c0: 011f 053e 4bc0 4dbe 054e bcbe 2b96 2d3c
000001d0: b1c3 eebe b82d 0abf edb3 1fbf 529a 2ebf
000001e0: 4020 14be 676b e3be 195e a8be 7aba bcbd
000001f0: da47 423d 29bd 3fbf 9e0a dfbe 0d0f 92be
00000200: 5a9b 793e db1b 6fbd 62c6 99be f2b2 bdbe
00000210: d76b b7bd 4a28 85be 1ed6 5cbd c2e1 1abf
00000220: 7d67 473e 3e7f f13d d3b5 533f 3068 ba3d
00000230: a0a2 7abe 5d74 00be 5ee5 303d e6b2 023e
00000240: 40db c2be ecc1 013e 92b9 e43e 0db2 d6bd
00000250: cdd2 b53e fe19 0ebe 0466 14be ebba 1ebf
00000260: f6fa f2be f9d1 4d3e 226f e2be 01a0 ebbc
00000270: daa1 d6be 57c4 743d 80e0 b73d c780 d7be
00000280: 01e2 343e 2037 133f 2345 a5be e308 a9be
00000290: 1abf 1f3e b5cc 66be 4176 bcbe 4e11 f4bd
000002a0: b83a 52bf 37ae a5be 18a8 cbbd 875c 22be
000002b0: 3b2a bcba 1ed9 17bd 2736 32bf b864 36bf
000002c0: 1b3f acbd a2fc ffbe 7f6f 98be c07e 47bf
000002d0: c6ff a8be 1ba6 96be e511 893e f16a a1be
000002e0: f7d8 bdbe 6d3b a33e 68dd edbc 0ec0 f6be
000002f0: 312d dabe ef98 f2be a39a 1a3e b03b 17bf
00000300: 1007 41be 3215 92bd 232c ccbc e1a5 993e
00000310: a734 3a3e 6c14 47bc 5620 e23c 2714 04bc
00000320: c079 7fbe 58e2 81be ddd6 973e b940 583e
00000330: 4f76 96be dbfd fc3d d574 65bd 739f a73e
00000340: 1625 82bc 2a9e 243e 0068 c2bd 52e3 833e
00000350: 77a8 b13e a8b4 173d cff0 a23e ed2e 2fbe
00000360: 3df9 193d a318 57be 325e e9bc d59c cd3c
00000370: eb41 cf3c 3b7a d33e ebdb ddbd d529 dd3d
00000380: 4c24 39bd aa18 8fbe 2e53 263e 3e28 733e
00000390: 0e8b 83bd 580a 053e 43e3 e2bd b13f 87be
000003a0: b800 943d 23af 463e d073 f03c be7d 213e
000003b0: e0c7 afbe 1dd4 58bd c4da 6e3e d0b8 a8be
000003c0: 71b3 63be d89b 873d 48e7 c9bc 1e35 aabc
000003d0: cd11 563e 3b6f c93e 700f 6abe 2da0 873d
000003e0: a429 b7bd 2cc8 48be 5d2f 77bd 3a27 77be
000003f0: 7634 713d 1f7e e53c 64e2 5b3e e291 bcbd
0.11734256 0.39431247 0.48297626 0.15005895 -0.07682248 0.03432404 0.19689982 -0.047041517
-0.12687592 -0.105531506 0.0039777295 0.19198789 0.03687786 -0.0770762 0.4341076 0.001482593
-0.06179559 0.6075831 -0.2361142 -0.26607245 -0.13156061 0.23596776 -0.10823925 0.0949288
-0.10702413 0.13187462 0.030277845 -0.23840915 0.034626234 0.1701268 0.081704035 0.09756284
-0.13386476 -0.0072023524 -0.060194306 0.09079811 0.14903368 -0.2711229 0.15665348 -0.00902925
0.06823607 -0.3648644 0.11325188 0.09624873 0.008149841 0.056596898 0.105437584 -0.26959944
-0.15724088 0.033776805 -0.1076588 0.018817183 -0.033131022 -0.030471653 0.13305765 -0.014456345
0.07772627 0.060882546 -0.10688447 -0.037104838 -0.029266765 0.26587006 -0.22072493 0.044239208
-0.015106864 0.13160229 0.076213755 0.1301866 0.25558832 0.006173797 0.028890723 -0.08463447
-0.059421323 0.2402466 0.07975362 0.15721424 -0.16688511 0.20677681 -0.09458324 0.115598835
0.016551392 -0.0975663 -0.09001979 -0.048476554 -0.06785496 0.10418986 0.23520868 0.123656794
-0.17761473 -0.051904857 0.093904175 -0.024179589 -0.24512506 -0.008526208 0.42090005 -0.16624583
0.2366262 0.04002002 -0.19204816 0.13182008 -0.19696905 -0.6108963 -0.6707552 -0.3516141
-0.51499003 -0.19260557 -0.28378138 -0.19619639 -0.016549272 -0.47360834 -0.071545325 -1.1087439
0.13000108 -0.20092885 -0.36778274 0.010594885 -0.46633676 -0.5397601 -0.6238392 -0.68204224
-0.14465427 -0.4441788 -0.3288429 -0.09215255 0.047431804 -0.7489801 -0.43562788 -0.28527108
0.24375668 -0.058376174 -0.30034167 -0.37050587 -0.08956116 -0.260073 -0.053915136 -0.6050073
0.19473071 0.11791848 0.82699317 0.091019034 -0.24476099 -0.12544389 0.04318749 0.12763557
-0.380579 0.12671632 0.4467283 -0.10483179 0.3551239 -0.13877103 -0.14492041 -0.62003964
-0.47457093 0.2009963 -0.44225413 -0.02876282 -0.41920358 0.059757557 0.08978367 -0.42090437
0.17664339 0.5750599 -0.3227931 -0.33014593 0.15600243 -0.22539027 -0.3680897 -0.11917363
-0.8212085 -0.32359478 -0.09944171 -0.15855609 -0.0014355847 -0.037072293 -0.6961388 -0.71247435
-0.08410474 -0.4999743 -0.29772565 -0.7792778 -0.3300764 -0.29423603 0.26771465 -0.31526902
-0.37079594 0.31881276 -0.029036239 -0.481934 -0.42612603 -0.47382304 0.15098052 -0.5907545
-0.1885035 -0.07132949 -0.02492339 0.30009368 0.18184148 -0.012150865 0.02760331 -0.008061445
-0.24948788 -0.25368 0.29656115 0.2111844 -0.29387137 0.123531066 -0.056019623 0.32738838
-0.015886825 0.1607596 -0.09492493 0.2575937 0.3469884 0.03703752 0.31824347 -0.17107745
0.037591208 -0.21005492 -0.028487299 0.025099197 0.025299987 0.41304192 -0.10832962 0.107989945
-0.04520063 -0.27948505 0.16242668 0.2374582 -0.06423007 0.12992227 -0.11078503 -0.2641578
0.072266996 0.19402747 0.029352099 0.15770623 -0.3433218 -0.052936662 0.2332564 -0.329535
-0.2223642 0.06621522 -0.024646416 -0.020777281 0.20905228 0.39342675 -0.22857451 0.06622348
-0.08943489 -0.1960761 -0.060347904 -0.24136057 0.05888792 0.02801424 0.2147308 -0.092075124
