paradise_lost.pt (torch, 570703 bytes, 11 tensors)

weight f4 [100, 100]
1.7524985 -0.64506006 -0.79188627 -1.1295027 2.5283403 -1.2995666 1.3296385 0.27635393
-0.9941798 -0.6669757 -1.1550387 -0.8678778 -0.8448687 -0.41824582 3.2039025 -0.4691096
-0.19443855 -0.97061 1.7804922 1.7189916 -0.24560784 -1.2545246 1.5684834 1.2709516
0.3635122 0.51865214 -0.94237053 -0.589242 1.7563233 0.25960147 -1.9929432 -0.3541221
0.13229501 -0.58923024 -0.44863093 -1.1405482 1.2969629 -1.5518887 0.4967725 -0.037407376
-0.5400944 -0.74738854 -0.73822325 -0.5042501 -2.381327 -2.406026 -0.5376572 1.9475493
-0.9305059 -0.86214095 0.055783615 0.30702937 0.22350705 0.34041747 1.480709 -1.1103418
-0.6102075 -2.9523094 -0.2838219 -0.32255986 0.7020014 -0.4275874 0.76683056 0.058964472
-1.0928422 1.8142419 -1.330503 2.207579 1.568996 2.0294788 1.4018615 -0.7188864
1.0177205 -1.1231867 -0.82664025 0.6505487 -0.78582466 1.6908876 1.9551826 0.6653515
-0.39979452 0.0011891264 0.42601767 0.5234849 0.8208683 1.2162219 0.20976518 1.1549215
0.7217203 0.47281724 -1.258676 -0.37986633 1.3518836 -0.17020015 -1.0198867 -1.7519053
-1.2025526 -0.104023576 1.3168671 -0.0076205516 1.1591576 -1.1965965 -0.34507367 -0.13561909
0.6898548 1.2831774 1.3857459 -0.39391434 -0.7589572 -1.3517705 -2.6868305 1.6245533
-0.5594194 1.0104659 -0.40256986 -0.86023414 -0.32680255 2.1655853 -0.91888344 1.01486
0.8764437 0.23382157 0.35716423 0.51167554 -0.40720284 1.1930209 -0.5507867 -0.082662694
0.5966898 -0.8157484 2.26844 0.5198822 -0.09362559 -1.1297003 -0.27439454 0.5373911
-1.0125276 -0.7237777 0.14978114 -0.51429534 -0.93366 1.9487944 0.3882181 2.1555486
0.16561338 2.2514331 0.06958953 0.10010506 -0.0010935124 1.4250684 -1.7593993 -0.5165257
-0.2180409 -0.8878464 2.1208723 -1.1415577 0.43776035 0.56319386 1.7697388 -0.554974
-0.54881316 0.38054863 0.21084093 0.54251343 1.6254535 2.124673 -0.90594727 1.875667
1.1251519 -0.9295456 1.506355 0.60918736 0.6151177 -0.35384822 0.94635683 2.426841
0.8140088 -0.39709666 2.2306294 0.49411124 0.07804489 0.3491647 -0.22224419 0.1555733
-0.72678334 -0.4014707 -0.13549542 2.765865 0.9609567 -0.49457982 -1.6381621 -0.89527184
-0.98400384 -0.32076654 -0.33382633 -0.40426323 -1.0405506 -0.361158 3.1207352 1.4787484
-0.3886971 2.0134687 -0.55231404 1.1819192 0.73350793 0.8821643 0.8308095 -1.6554264
0.12958111 -1.1079799 -1.489123 1.4799727 -1.2603523 0.43515995 0.3885296 0.61807626
-2.008311 -0.3310443 -2.2132957 1.2091795 0.3761967 0.032446068 -1.546249 -0.695644
-1.6564292 0.7602504 -0.7563107 0.1294867 0.15630342 -0.5238066 0.71306103 -0.20879307
-0.1262548 1.4658056 -0.91690814 -1.3899703 -1.8879629 -0.5847603 0.9305382 0.18820313
-0.49329445 1.5663208 0.049621884 -0.7902277 0.49961248 0.3313193 -0.28644693 -1.2034558
-0.9286553 0.24814975 0.7453116 0.9817703 0.9603638 -0.8593862 -1.1769922 -0.9112304
00000000: df51 e03f a822 25bf 0fb9 4abf 8b93 90bf
00000010: 54d0 2140 3358 a6bf 9831 aa3f 437e 8d3e
00000020: 9182 7ebf ebbe 2abf 4fd8 93bf 3d2d 5ebf
00000030: 5149 58bf 5124 d6be bd0c 4d40 222f f0be
00000040: e61a 47be e679 78bf 2be7 e33f eb07 dc3f
00000050: 9f80 7bbe 4394 a0bf 10c4 c83f 8bae a23f
00000060: 451e ba3e 63c6 043f 323f 71bf 90d8 16bf
00000070: 34cf e03f 7cea 843e c318 ffbf 7e4f b5be
00000080: 5878 073e cbd7 16bf f4b2 e5be 7cfd 91bf
00000090: e102 a63f 4aa4 c6bf f758 fe3e 7a38 19bd
000000a0: a043 0abf db54 3fbf 33fc 3cbf 8916 01bf
000000b0: a967 18c0 54fc 19c0 e7a3 09bf 4c49 f93f
000000c0: a235 6ebf 45b5 5cbf 5c7d 643d f432 9d3e
000000d0: 08df 643e 334b ae3e df87 bd3f ae1f 8ebf
000000e0: 8f36 1cbf a3f2 3cc0 1b51 91be 9126 a5be
000000f0: 5db6 333f bcec dabe 024f 443f bb84 713d
00000100: 41e2 8bbf 1439 e83f ec4d aabf f948 0d40
00000110: dcd4 c83f fbe2 0140 3370 b33f f008 38bf
00000120: aa44 823f 95c4 8fbf b29e 53bf 5c8a 263f
00000130: ce2b 49bf 016f d83f 6c43 fa3f 7a54 2a3f
00000140: deb1 ccbe 76dc 9b3a fd1e da3e 1b03 063f
00000150: 6d24 523f 29ad 9b3f afcc 563e 78d4 933f
00000160: a9c2 383f 1a15 f23e 4c1c a1bf d77d c2be
00000170: 860a ad3f f348 2ebe a68b 82bf 6f3e e0bf
00000180: 3eed 99bf 500a d5bd 1a8f a83f d2b5 f9bb
00000190: 475f 943f 132a 99bf 7fad b0be bbdf 0abe
000001a0: 539a 303f 283f a43f 1f60 b13f 24af c9be
000001b0: 054b 42bf d106 adbf 08f5 2bc0 5df1 cf3f
000001c0: 1c36 0fbf f256 813f a31d cebe 4e38 5cbf
000001d0: aa52 a7be f398 0a40 f23b 6bbf efe6 813f
000001e0: 9d5e 603f ec6e 6f3e 3bde b63e 2bfd 023f
000001f0: e47c d0be e9b4 983f 5b00 0dbf 0f4b a9bd
00000200: aac0 183f e3d4 50bf 1f2e 1140 0017 053f
00000210: c6be bfbd 059a 90bf 717d 8cbe 7792 093f
00000220: 819a 81bf 7f49 39bf 3a60 193e dca8 03bf
00000230: 5704 6fbf 1872 f93f 86c4 c63e 82f4 0940
00000240: 8e96 293e 7b17 1040 f584 8e3d e203 cd3d
00000250: 3054 8fba a468 b63f ff33 e1bf 073b 04bf
00000260: 1d46 5fbe e749 63bf 5fbc 0740 901e 92bf
00000270: 2022 e03e 792d 103f cd86 e23f c712 0ebf
00000280: 057f 0cbf 45d7 c23e afe6 573e 29e2 0a3f
00000290: dc0e d03f a4fa 0740 29ec 67bf db15 f03f
000002a0: fa04 903f b3f6 6dbf 3ed0 c03f b4f3 1b3f
000002b0: 5b78 1d3f 982b b5be 7144 723f 5d51 1b40
000002c0: e162 503f 4150 cbbe a2c2 0e40 26fc fc3e
000002d0: 00d6 9f3d b7c5 b23e fb93 63be 9b4e 1f3e
000002e0: 790e 3abf 918d cdbe 50bf 0abe ef03 3140
000002f0: 4201 763f 9139 fdbe 4caf d1bf 8930 65bf
00000300: ade7 7bbf 833b a4be 49eb aabe 97fb cebe
00000310: c330 85bf b4e9 b8be 20ba 4740 a147 bd3f
00000320: 4e03 c7be acdc 0040 7464 0dbf 2149 973f
00000330: 2dc7 3b3f 85d5 613f eeaf 543f 03e5 d3bf
00000340: e9b0 043e 49d2 8dbf 959b bebf bf6f bd3f
00000350: 3953 a1bf 49cd de3e 5aed c63e 3f3a 1e3f
00000360: 2b88 00c0 a37e a9be a3a6 0dc0 65c6 9a3f
00000370: db9c c03e 2be6 043d 7deb c5bf ba15 32bf
00000380: df05 d4bf c59f 423f 949d 41bf 2998 043e
00000390: 010e 203e 3018 06bf 2b8b 363f dacd 55be
000003a0: f048 01be 859f bb3f 7eba 6abf 8cea b1bf
000003b0: c5a8 f1bf dab2 15bf c037 6e3f 52b8 403e
000003c0: 1791 fcbe 337d c83f 5140 4b3d 5d4c 4abf
000003d0: 35cd ff3e afa2 a93e 2ca9 92be d70a 9abf
000003e0: 5bbc 6dbf f81a 7e3e becc 3e3f 4c55 7b3f
000003f0: 67da 753f bc00 5cbf aea7 96bf 6546 69bf

weight_ih_l0 f4 [300, 100]
0.1002449 0.023577731 -0.29757637 -0.1781662 0.16669613 0.5518279 -0.3513181 -0.44267702
-0.06661271 0.0035186661 0.2132136 -0.14959976 0.138782 -0.01939052 0.20223403 -0.004989837
-0.50438106 0.54139453 -0.009589279 -0.957923 0.25754598 -0.7460391 -0.09054243 0.56120956
0.91506636 -0.5058098 -0.1417441 -0.0049040136 -0.09122124 -0.3069279 0.12755743 0.0899607
-0.76457936 0.47784296 0.98491776 -0.69719905 0.7592282 0.09977352 1.0393142 0.04404405
-0.00887758 0.18455264 0.8503773 0.50859636 0.53583366 0.36575863 -0.23851138 -0.37569702
-0.5548369 -0.4185858 -0.11389678 -0.9433867 -0.67690617 -0.0032231028 0.9401657 0.37755394
0.33488137 0.39568624 0.541002 0.18141569 0.5381735 1.0458657 -0.37721053 -0.065523215
0.005601684 0.08194175 0.18996301 -0.018070482 -0.51704067 0.5316362 0.053979535 -0.23061626
-0.27621755 -0.4360266 -0.34042612 -0.15314677 0.4319438 -0.021458609 -0.10355767 0.067909025
0.5748213 -0.64301497 -0.32653156 -1.2155439 -0.36992177 0.49950004 1.009513 -0.27582598
-0.2863342 -0.29098076 0.51602674 0.27837595 -0.2395658 -0.066580124 0.1755349 0.5123087
-0.10872352 -0.10513005 -0.5406123 -0.7249116 0.17991288 0.1492857 -0.09996812 -0.5575202
0.5931341 0.07678693 -1.1665244 0.37625957 0.020880198 0.57379216 0.02490895 0.7864689
0.4077752 0.96252275 -0.26159912 0.4799649 0.18165533 0.64330834 -0.04761119 -0.29774967
0.35237324 -0.43226317 0.36717156 -0.29436594 -0.18156138 0.37004215 0.35741776 -0.3758848
-0.8183284 0.25205952 0.3691678 0.5466728 -0.31549147 0.36989483 0.4059029 -0.30101457
0.59745574 -0.033506595 0.4530614 0.33025002 -0.30393356 0.064768516 -0.4773048 0.3617568
-0.2571016 -0.24747437 0.60586506 -0.095110446 1.1007587 0.8195695 0.037877843 0.21788748
-0.2537329 -0.06498504 -0.20071203 0.090564646 0.33765253 -0.113572925 0.36534485 0.4104373
0.14629899 -0.11955831 0.8339551 0.71308964 -0.3784712 -1.3068917 -0.06300563 -0.041351732
0.9211934 -0.23580532 0.59536004 -0.07307921 0.818262 -0.04629708 -0.0288117 0.32912847
0.81956375 -0.30070722 0.07404325 0.11430232 -0.4716155 -0.0907973 0.45229965 0.26818871
-0.13681985 -0.10391698 1.0081584 0.39202932 0.18713717 -0.683019 0.10474586 -0.3456302
0.11365255 0.11131765 -0.38838083 0.4531714 -0.6078742 0.62068933 -0.03503741 0.21177979
-0.34088373 0.0478933 -0.08180974 0.09708898 0.56997603 0.4931925 -0.48284683 -0.44480222
-0.36406943 0.38319772 -0.08954929 -0.07104925 0.5180443 0.4880083 -0.38152507 -0.27017304
0.69513726 0.0498272 -0.550483 0.19092277 0.52902585 -0.6605384 -0.07546361 0.044536293
-0.38683477 0.31222427 0.31878337 0.77983505 -0.14128414 0.09179809 -0.20953752 0.008521119
-1.0479776 0.46135235 0.37706882 -0.54551727 0.04394524 0.04443095 -0.30070934 0.3076152
-0.5440435 -0.38078403 -0.46711433 0.26837653 -0.18616934 0.77931327 0.9501748 -0.11101269
0.47060588 0.98388016 -0.6127294 0.035262536 0.09584032 -0.3178292 -0.048858125 0.31576613
00000000: 334d cd3d 1626 c13c ee5b 98be 3371 36be
00000010: 64b2 2a3e 9844 0d3f f7df b3be 90a6 e2be
00000020: 3f6c 88bd 6c99 663b aa54 5a3e ae30 19be
00000030: de1c 0e3e ded8 9ebc 7016 4f3e c981 a3bb
00000040: 1e1f 01bf d598 0a3f 5a1c 1dbc 713a 75bf
00000050: 11dd 833e 6bfc 3ebf 4f6e b9bd 6eab 0f3f
00000060: ca41 6a3f c07c 01bf 5e25 11be d9b1 a0bb
00000070: 34d2 babd a725 9dbe 6a9e 023e 513d b83d
00000080: 79bb 43bf d5a7 f43e 9223 7c3f a37b 32bf
00000090: c85c 423f 0f56 cc3d 3f08 853f 8967 343d
000000a0: 4573 11bc 5efb 3c3e 54b2 593f 5f33 023f
000000b0: 652c 093f b744 bb3e 543c 74be 5c5b c0be
000000c0: cb09 0ebf e150 d6be b742 e9bd ca81 71bf
000000d0: b949 2dbf b13a 53bb b3ae 703f c04e c13e
000000e0: 9275 ab3e 6397 ca3e 1b7f 0a3f 09c5 393e
000000f0: bdc5 093f edde 853f bd21 c1be 0931 86bd
00000100: 558e b73b 14d1 a73d aa85 423e 8c08 94bc
00000110: c75c 04bf 4f19 083f a519 5d3d ab26 6cbe
00000120: 636c 8dbe e13e dfbe 554c aebe 82d2 1cbe
00000130: bd27 dd3e f7c9 afbc 0b16 d4bd e313 8b3d
00000140: 7d27 133f a19c 24bf 252f a7be f196 9bbf
00000150: 6366 bdbe 78be ff3e b937 813f 1039 8dbe
00000160: 659a 92be 6efb 94be 541a 043f 4b87 8e3e
00000170: bd50 75be 295b 88bd 6cbf 333e aa26 033f
00000180: 70aa debd 6c4e d7bd 9165 0abf ce93 39bf
00000190: 153b 383e 5ade 183e 16bc ccbd a5b9 0ebf
000001a0: a3d7 173f 7742 9d3d ac50 95bf 18a5 c03e
000001b0: f30c ab3c 0be4 123f db0d cc3c 0756 493f
000001c0: e9c7 d03e e467 763f 52f0 85be f6bd f53e
000001d0: db03 3a3e dbaf 243f f303 43bd a572 98be
000001e0: 446a b43e 9951 ddbe e9fd bb3e 22b7 96be
000001f0: 3aeb 39be 2a76 bd3e 76ff b63e f973 c0be
00000200: f87d 51bf f20d 813e 9003 bd3e c0f2 0b3f
00000210: 1988 a1be db62 bd3e 81d2 cf3e 951e 9abe
00000220: dcf2 183f 363e 09bd aaf7 e73e 8816 a93e
00000230: 2e9d 9bbe 5ba5 843d 4b61 f4be 3038 b93e
00000240: d2a2 83be ec69 7dbe f919 1b3f 44c9 c2bd
00000250: a9e5 8c3f 4fcf 513f cc25 1b3d e51d 5f3e
00000260: 47e9 81be e016 85bd 7487 4dbe f579 b93d
00000270: cbe0 ac3e ec98 e8bd 7b0e bb3e d624 d23e
00000280: 67cf 153e fdda f4bd 157e 553f 0b8d 363f
00000290: fac6 c1be 3a48 a7bf 1909 81bd 6f60 29bd
000002a0: 55d3 6b3f f376 71be 8469 183f 8eaa 95bd
000002b0: 9e79 513f 02a2 3dbd 8406 ecbc 8783 a83e
000002c0: eece 513f 4cf6 99be fda3 973d 5617 ea3d
000002d0: 9677 f1be eff3 b9bd d293 e73e 0850 893e
000002e0: 811a 0cbe 6dd2 d4bd 560b 813f 11b8 c83e
000002f0: e3a0 3f3e 55da 2ebf ff84 d63d 71f6 b0be
00000300: abc2 e83d 82fa e33d dad9 c6be 1506 e83e
00000310: a59d 1bbf 7fe5 1e3f 6383 0fbd cddc 583e
00000320: 5088 aebe c42b 443d dd8b a7bd 96d6 c63d
00000330: f3e9 113f ba83 fc3e b337 f7be 1ebd e3be
00000340: 4f67 babe 7e32 c43e 9e65 b7bd 4582 91bd
00000350: 8d9e 043f 39dc f93e 4157 c3be 1f54 8abe
00000360: 84f4 313f 9b17 4c3d 74ec 0cbf 4281 433e
00000370: 3d6e 073f 0b19 29bf aa8c 9abd b06b 363d
00000380: 350f c6be dcdb 9f3e 9337 a33e 45a3 473f
00000390: caac 10be a300 bc3d 0191 56be 2a9c 0b3c
000003a0: 2124 86bf 6036 ec3e 2a0f c13e 05a7 0bbf
000003b0: edff 333d 3afd 353d 93f6 99be bd7f 9d3e
000003c0: 6f46 0bbf 20f6 c2be 9c29 efbe a668 893e
000003d0: 2da3 3ebe 1381 473f a83e 733f 9f5a e3bd
000003e0: 41f3 f03e 92df 7b3f d5db 1cbf 736f 103d
000003f0: ee47 c43d 82ba a2be 751f 48bd 19ac a13e

weight_hh_l0 f4 [300, 100]
-0.30614582 -0.8994312 1.4132261 -0.10216848 0.4702615 0.8544672 -0.43685842 -0.25930148
0.07482992 0.23086487 -0.12439695 -0.19205412 -0.6494863 0.6770567 0.2700583 0.4287936
-1.4594587 -0.2441597 -0.4314205 -0.16482086 0.30662516 1.1540473 0.8783435 -0.78306204
0.17399155 -0.36771318 -0.6265869 -0.061595097 0.40101615 0.2777431 -1.1864594 0.19984762
-0.14383957 0.79546654 0.009145853 -1.0617133 -0.4225557 -0.1238373 0.08354911 0.45329162
0.08188851 0.3709489 -0.19980186 -0.5894109 0.04470412 -0.41959724 0.12108364 -1.1513822
-0.29755658 0.11573444 -0.31861463 0.22923279 0.3618428 0.6726319 1.0771629 -0.8817185
0.36892 0.10991054 0.34225038 0.4702639 0.26001734 1.0922687 -0.79086983 0.52347255
-1.638963 1.4173846 -1.0924324 -0.5624072 -0.0399247 0.08317512 0.35111827 0.5835403
0.5319308 0.033133697 0.63048035 0.6055047 0.80391586 -0.15494986 0.75154275 -0.6240046
-0.87991977 -0.44540828 0.72884345 0.0645807 -1.4725789 -0.58357126 -0.060122147 0.59999585
0.04442605 0.6037259 0.2876653 -0.10589175 0.3672798 -0.3903645 -0.45440027 0.6581977
-0.40233856 0.29077107 -0.37432894 0.72390705 0.66626644 -1.0906502 -0.124051675 -0.40717265
1.433233 0.075425565 -0.2251493 -0.20280688 -0.7115544 0.31735837 0.38738728 -0.54080176
0.4533125 -0.25766435 -1.0769601 0.13839012 0.25065196 0.12626548 -0.010259673 0.5751915
0.38981342 0.35912704 0.2925519 0.8143324 0.578723 0.49626815 -0.38563508 0.039435048
-0.43459404 0.40468973 0.13390769 -0.1932682 -0.7049538 0.5502012 -0.39091042 0.12087561
-0.42485398 -0.4878132 -0.08584428 -0.06440582 0.3976528 1.2441913 -0.46735904 1.0038145
-0.6940196 -0.4461766 -0.56846046 -0.30749595 -1.0446991 0.401326 0.2545055 1.488347
0.90409654 0.24818623 0.24347362 -0.31977564 0.14981157 -0.6710289 -0.5291747 0.32428432
0.22938156 0.40861306 -0.12517203 -0.03155126 -0.3544707 0.3566942 -0.0631478 0.12308172
0.38437325 -0.45034957 -0.12431793 -0.080017015 -0.8012206 -0.461657 0.36414605 -0.68877417
0.36927918 0.9449775 0.5078979 -1.115956 0.063122 -1.6151551 0.3901198 0.22560108
-0.91438043 -0.53130746 -0.7028487 -0.66022277 -0.19658156 -1.157124 -0.28350067 0.3289871
-0.25364763 -0.6032628 0.32101285 -0.8145274 0.7050583 0.14314778 0.39498168 -0.7818343
0.17704321 -0.42311743 0.03337469 1.2831278 1.1697109 -0.7581822 -0.65458524 -1.3914037
0.043800015 -1.4581763 -1.5707728 0.10448121 0.52946895 0.8027077 -0.8656408 0.012780463
0.22222741 0.5668131 -0.24945788 0.41857108 -1.4239477 0.30845436 0.1384492 0.44835627
0.047727663 1.00969 1.0472845 -0.12863939 -0.18756978 0.1106433 -0.20213547 -0.36281216
-1.0470632 -0.2003837 -0.29818052 -0.30585462 0.5124921 -0.051522948 -0.12712565 -0.039634954
-0.45512104 -0.11146075 0.09642224 0.14933452 0.25798786 -0.5728432 -1.0494912 0.12109509
0.24821803 0.4301554 0.39616916 0.28510952 0.3953831 -0.19489451 0.684711 -0.9455265
00000000: 25bf 9cbe 2041 66bf 98e4 b43f b53d d1bd
00000010: 1ec6 f03e 5dbe 5a3f e8ab dfbe 2ac3 84be
00000020: 6e40 993d d767 6c3e d4c3 febd d6a9 44be
00000030: bc44 26bf 9753 2d3f 1545 8a3e d68a db3e
00000040: 8bcf babf 0005 7abe 26e3 dcbe cdc6 28be
00000050: f9fd 9c3e d2b7 933f 1fdb 603f c176 48bf
00000060: d72a 323e e744 bcbe 0068 20bf 244b 7cbd
00000070: fd51 cd3e 5834 8e3e e7dd 97bf dba4 4c3e
00000080: ae4a 13be b2a3 4b3f 7dd8 153c 39e6 87bf
00000090: 3959 d8be 699e fdbd cc1b ab3d d715 e83e
000000a0: 2ab5 a73d 04ed bd3e dc98 4cbe a2e3 16bf
000000b0: ab1b 373d 73d5 d6be b3fa f73d 7e60 93bf
000000c0: 5659 98be 2e06 ed3d 7521 a3be 00bc 6a3e
000000d0: 7643 b93e 9b31 2c3f 79e0 893f 4eb8 61bf
000000e0: 15e3 bc3e c718 e13d 713b af3e 6ec6 f03e
000000f0: fe20 853e 76cf 8b3f 7276 4abf 4c02 063f
00000100: 8ac9 d1bf dc6c b53f d3d4 8bbf ebf9 0fbf
00000110: 1588 23bd b857 aa3d c6c5 b33e e662 153f
00000120: 9e2c 083f 33b7 073d 2967 213f 5b02 1b3f
00000130: 6ecd 4d3f 2dab 1ebe 1b65 403f c4be 1fbf
00000140: 6c42 61bf 8e0c e4be 7c95 3a3f e342 843d
00000150: 777d bcbf ed64 15bf a442 76bd 5499 193f
00000160: 17f8 353d c88d 1a3f de48 933e c6dd d8bd
00000170: 190c bc3e dbdd c7be 27a7 e8be a57f 283f
00000180: 52ff cdbe f2df 943e 0ba8 bfbe f951 393f
00000190: 7090 2a3f 6d9a 8bbf ce0e febd ef78 d0be
000001a0: 2e74 b73f b878 9a3d 8a8d 66be 9bac 4fbe
000001b0: 6e28 36bf cc7c a23e a057 c63e fc71 0abf
000001c0: 9318 e83e 95ec 83be d4d9 89bf 24b6 0d3e
000001d0: 7455 803e bd4b 013e 3018 28bc c03f 133f
000001e0: a095 c73e 80df b73e 5dc9 953e 1778 503f
000001f0: 3127 143f dc16 fe3e f671 c5be a586 213d
00000200: 1c83 debe 7e33 cf3e 191f 093e 19e8 45be
00000210: da77 34bf fcd9 0c3f 6925 c8be a28d f73d
00000220: 7686 d9be a7c2 f9be 20cf afbd 33e7 83bd
00000230: 2699 cb3e a941 9f3f af49 efbe fe7c 803f
00000240: 45ab 31bf 4271 e4be a086 11bf 1c70 9dbe
00000250: b3b8 85bf 9a7a cd3e 8b4e 823e 2882 be3f
00000260: df72 673f 8824 7e3e 2651 793e a2b9 a3be
00000270: 3468 193e 8dc8 2bbf fe77 07bf 9808 a63e
00000280: 00e3 6a3e bb35 d13e 192d 00be e53b 01bd
00000290: 2f7d b5be 9fa0 b63e a253 81bd 4512 fc3d
000002a0: 92cc c43e 3894 e6be 669a febd f6df a3bd
000002b0: cb1c 4dbf 4e5e ecbe 5a71 ba3e 8153 30bf
000002c0: 2912 bd3e 0cea 713f 9905 023f a5d7 8ebf
000002d0: 1b46 813d 67bd cebf c8bd c73e f803 673e
000002e0: d614 6abf c403 08bf e4ed 33bf 5c04 29bf
000002f0: ad4c 49be a41c 94bf 0027 91be ff70 a83e
00000300: 1ade 81be 6e6f 1abf cc5b a43e de84 50bf
00000310: b37e 343f 5595 123e 0a3b ca3e 4b26 48bf
00000320: d14a 353e d9a2 d8be e6b3 083d 883d a43f
00000330: 16b9 953f 3b18 42bf e692 27bf 8419 b2bf
00000340: a567 333d 85a5 babf 150f c9bf 3ffa d53d
00000350: 478b 073f 407e 4d3f a39a 5dbf 2665 513c
00000360: 958f 633e aa1a 113f e371 7fbe f34e d63e
00000370: eb43 b6bf bbed 9d3e a1c5 0d3e f48e e53e
00000380: 157e 433d 863d 813f 6b0d 863f 0bba 03be
00000390: 4b12 40be f498 e23d 9afc 4ebe 84c2 b9be
000003a0: 2b06 86bf 6231 4dbe 1eab 98be fa98 9cbe
000003b0: af32 033f ba09 53bd 3a2d 02be 4358 22bd
000003c0: a005 e9be 8945 e4bd 0679 c53d 26eb 183e
000003d0: fc16 843e daa5 12bf ba55 86bf b400 f83d
000003e0: de2c 7e3e 543d dc3e afd6 ca3e e0f9 913e
000003f0: a76f ca3e 6d92 47be 3849 2f3f 060e 72bf

bias_ih_l0 f4 [300]
-0.13906232 -0.47543558 0.13326362 -0.23664184 -0.55795366 -0.55301857 -0.09752024 -0.5221785
-0.19045217 -0.16373935 -0.2528228 0.14564112 0.035431363 0.34041587 -0.06444569 0.11399691
0.03539314 0.018330013 -0.24129792 -0.36240792 -0.26699772 -0.28925204 0.1615168 -0.053694405
-0.2169671 -0.23616901 -0.30230102 -0.4329826 -0.25432363 -0.21631785 -0.5969418 0.0491582
-0.16278869 0.29989797 -0.27887803 0.05484035 -0.17165641 -0.21961883 -0.36873558 -0.17052326
-0.15382493 -0.26947471 0.05426979 -0.2054698 -0.14456676 0.03882454 -0.019464588 0.08818378
-0.08758882 -0.42077258 0.045666695 -0.08313447 -0.21622942 -0.4425583 -0.046170067 0.18520802
-0.12977241 -0.07910349 -0.35858572 -0.16449553 0.055901956 0.068222746 -0.4950811 -0.578931
-0.07598563 -0.09877889 -0.40523055 -0.44953662 -0.45795456 -0.39933193 -0.338738 -0.182065
-0.17197707 -0.12028896 0.48331216 0.31975263 -0.1731792 0.06025226 -0.19680615 0.13809592
0.16059805 0.095720984 -0.17888811 0.102999225 -0.2664132 0.08588387 -0.015019076 -0.27270278
-0.20923069 -0.51857 0.023744365 -0.52957904 -0.16536938 0.03710259 0.2139142 -0.29289526
-0.18876332 -0.20317626 -0.2675512 0.08220046 -0.2910958 -0.365366 -0.22686416 -0.23661165
-0.12802082 -0.87447476 -0.21981028 -0.40947694 -0.5105949 -0.5506836 -0.26089177 -0.58991426
-0.48741534 -0.56029314 -0.40707964 -0.38233268 -0.16290867 -0.4362744 -0.45656356 -0.6548206
-0.53903383 -0.36259755 -0.4056682 -0.56665635 -0.72529167 -0.46701697 -0.6443588 -0.106537476
-0.44424376 -0.58924216 -0.7549244 -0.6432998 -0.5675497 -0.4627218 -0.5042314 -0.2982508
-0.3390848 -0.2530018 -0.22285497 -0.6414438 -0.4255967 -0.26677588 -0.45562604 -0.21572834
-0.0011063875 -0.10025324 -0.46836138 -0.059827793 -0.08029698 -0.2717464 -0.012276719 -0.411774
-0.18203852 -0.28726298 -0.47163674 -0.32546517 -0.8784482 -0.38569993 -0.5770453 -0.49594286
-0.61421144 -0.6774206 -0.4339193 -0.4250109 -0.50989324 -0.69892216 -0.30569175 0.054281466
-0.51716965 -0.6472566 -0.4164327 -0.49752977 -0.4155907 -0.5388335 -0.59122795 -0.12711297
-0.4394596 -0.43294412 -0.42966312 -0.46044496 -0.13708131 -0.2117071 -0.49760392 -0.47010157
-0.32505083 -0.492369 -0.062167455 -0.40473232 -0.33828866 -0.8996047 -0.34652117 -0.285363
-0.545537 -0.31281823 -0.40072894 -0.8769682 -0.25423002 -0.6544364 -0.8456434 -1.1540748
-0.10287439 0.17767961 0.016042918 -0.38245514 -0.059410486 -0.18446712 0.091581985 0.30939585
-0.29571763 0.3741646 0.04420173 0.24836434 0.0028042528 -0.19122009 0.05593433 -0.14083591
-0.002547923 -0.10492883 0.04160832 -0.082389764 0.33841598 0.06414686 0.049101934 0.02224685
-0.09822338 -0.045672815 0.020443216 -0.05250604 0.20159587 -0.08575588 -0.09081845 -0.15856501
0.13551983 0.09760701 0.3233547 0.23863603 -0.27638257 0.13522983 -0.017204886 -0.0975136
-0.18060295 -0.13172205 0.023811094 -0.26714325 -0.23933795 0.13692403 0.17569117 0.17246084
0.07468762 0.3881084 -0.16538854 -0.078356415 -0.24797912 -0.08376579 0.11070103 -0.012044381
00000000: 5a66 0ebe 4b6c f3be 4276 083e 3d52 72be
00000010: 0dd6 0ebf a092 0dbf b1b8 c7bd 7dad 05bf
00000020: e505 43be 4aab 27be fd71 81be f222 153e
00000030: 7a20 113d fd4a ae3e 1afc 83bd 3677 e93d
00000040: 66f8 103d d328 963c cd16 77be 888d b9be
00000050: edb3 88be d818 94be a964 253e aaee 5bbd
00000060: a02c 5ebe 4ad6 71be 33c7 9abe e5af ddbe
00000070: b536 82be 6d82 5dbe 2ed1 18bf 1c5a 493d
00000080: 14b2 26be 3a8c 993e 1ac9 8ebe 46a0 603d
00000090: b3c6 2fbe c2e3 60be e9ca bcbe a69d 2ebe
000000a0: 4884 1dbe 97f8 89be 004a 5e3d ad66 52be
000000b0: 4f09 14be 7b06 1f3d 3374 9fbc b399 b43d
000000c0: c461 b3bd 816f d7be 000d 3b3d 6842 aabd
000000d0: 3f6b 5dbe 0097 e2be d31c 3dbd 2ca7 3d3e
000000e0: 0fe3 04be 0301 a2bd 8c98 b7be 8471 28be
000000f0: 73f9 643d 5eb8 8b3d 457b fdbe d234 14bf
00000100: 5b9e 9bbd 964c cabd 617a cfbe aa29 e6be
00000110: 0579 eabe 3c75 ccbe 116f adbe 3f6f 3abe
00000120: c21a 30be 0f5a f6bd b174 f73e 9eb6 a33e
00000130: e355 31be 13cb 763d 8d87 49be 0469 0d3e
00000140: d173 243e 5d09 c43d 722e 37be 42f1 d23d
00000150: 5067 88be e2e3 af3d 9212 76bc b39f 8bbe
00000160: 9240 56be 01c1 04bf 8b83 c23c 7e92 07bf
00000170: 9756 29be e3f8 173d 530c 5b3e 5ef6 95be
00000180: 2c4b 41be 700d 50be 79fc 88be b758 a83d
00000190: 820a 95be 4111 bbbe 144f 68be 534a 72be
000001a0: e417 03be 94dd 5fbf f215 61be f6a6 d1be
000001b0: 59b6 02bf 9af9 0cbf 9b93 85be 9f04 17bf
000001c0: 818e f9be 5f6f 0fbf be6c d0be 1cc1 c3be
000001d0: 88d1 26be 5c5f dfbe b3c2 e9be 53a2 27bf
000001e0: 1ffe 09bf 63a6 b9be beb3 cfbe 6410 11bf
000001f0: b7ac 39bf d91c efbe b3f4 24bf 5230 dabd
00000200: eb73 e3be 93d8 16bf ba42 41bf 4caf 24bf
00000210: f04a 11bf dfe9 ecbe 4f15 01bf 54b4 98be
00000220: 869c adbe 7489 81be 1834 64be a935 24bf
00000230: d0e7 d9be d996 88be d147 e9be e4e7 5cbe
00000240: 3404 91ba 9251 cdbd 10cd efbe fd0d 75bd
00000250: be72 a4bd 5822 8bbe 4b24 49bc 0bd4 d2be
00000260: 4e68 3abe 2214 93be 5f7a f1be 5fa3 a6be
00000270: fbe1 60bf 767a c5be 3eb9 13bf 39ec fdbe
00000280: f63c 1dbf 706b 2dbf ac2a debe 079b d9be
00000290: 5d88 02bf 90ec 32bf a183 9cbe 3e56 5e3d
000002a0: 3b65 04bf 9cb2 25bf ab36 d5be 39bc febe
000002b0: 4ec8 d4be fef0 09bf b75a 17bf e729 02be
000002c0: d900 e1be daaa ddbe cefc dbbe 71bf ebbe
000002d0: 0b5f 0cbe bfc9 58be f1c5 febe 27b1 f0be
000002e0: 106d a6be ca17 fcbe 4da3 7ebd 1339 cfbe
000002f0: 2c34 adbe 7e4c 66bf 396b b1be 191b 92be
00000300: 50a8 0bbf b629 a0be 582c cdbe fd80 60bf
00000310: 702a 82be 2589 27bf 167c 58bf b9b8 93bf
00000320: cfaf d2bd a5f1 353e 706c 833c 29d1 c3be
00000330: 6958 73bd f3e4 3cbe 568f bb3d 2269 9e3e
00000340: 4d68 97be 8192 bf3e e00c 353d 3953 7e3e
00000350: 8ec7 373b 33cf 43be 651b 653d 4a37 10be
00000360: 0efb 26bb ede4 d6bd 7c6d 2a3d f7bb a8bd
00000370: dc44 ad3e 6e5f 833d 1c1f 493d 073f b63c
00000380: 5729 c9bd 6b13 3bbd 8878 a73c 9310 57bd
00000390: 266f 4e3e c7a0 afbd 06ff b9bd de5e 22be
000003a0: b6c5 0a3e 2fe6 c73d bf8e a53e 015d 743e
000003b0: 0482 8dbe b079 0a3e 43f1 8cbc 36b5 c7bd
000003c0: fbef 38be 25e2 06be 7c0f c33c 00c7 88be
000003d0: 0215 75be d035 0c3e 63e8 333e 9399 303e
000003e0: d3f5 983d 25b6 c63e 9d5b 29be 5479 a0bd
000003f0: 3dee 7dbe 668d abbd 39b7 e23d cc55 45bc

bias_hh_l0 f4 [300]
-0.0444862 -0.4602707 0.12126204 -0.1979122 -0.5369302 -0.5218191 -0.02142424 -0.52481323
-0.20505469 -0.09862438 -0.2956317 0.22116601 0.06457348 0.30430374 -0.009727378 0.19776389
-0.039103985 -0.034878477 -0.32070422 -0.36632764 -0.18351887 -0.35741693 0.10338669 0.057086166
-0.25695834 -0.18353751 -0.29576495 -0.5780882 -0.1569548 -0.1386075 -0.62144274 0.038171053
-0.15344094 0.29611868 -0.20661002 -0.008588714 -0.14199667 -0.13311817 -0.17433472 -0.30581108
-0.08766714 -0.18600158 -0.046807032 -0.3509604 -0.16827814 -0.0064568142 -0.06280227 0.005156883
-0.14407289 -0.36129066 0.16344851 -0.069506764 -0.19815601 -0.32182097 -0.0629953 0.2612154
-0.14046456 -0.084784664 -0.3057233 -0.13397455 0.0373029 -0.057315275 -0.44295728 -0.6588889
-0.050020326 0.0067860805 -0.4906088 -0.36182737 -0.33573958 -0.27634054 -0.2667442 -0.07346776
-0.10563207 -0.16271354 0.4822218 0.3978445 -0.1952142 0.05912939 -0.15350728 0.06021451
0.15455432 0.013211703 -0.33671787 0.14054203 -0.13928077 -0.045251682 0.08539163 -0.17301126
-0.18369275 -0.40541637 -0.05905177 -0.5263228 -0.13150801 0.0028862017 0.2349395 -0.21789756
-0.18861437 -0.25188288 -0.27358666 -0.056139093 -0.32921904 -0.35775343 -0.2867636 -0.32925922
-0.10050902 -0.7782122 -0.102864735 -0.48435578 -0.5490101 -0.6494027 -0.2560783 -0.6872229
-0.43361744 -0.61250865 -0.4867329 -0.3780567 -0.22629768 -0.4960452 -0.47788236 -0.7745686
-0.4690399 -0.3763326 -0.29539782 -0.51504 -0.90800625 -0.5623062 -0.7213407 -0.15524673
-0.5035986 -0.59251565 -0.83218956 -0.6527542 -0.60344607 -0.5742727 -0.59617877 -0.22312069
-0.39034724 -0.3459367 -0.1945234 -0.58409256 -0.5128319 -0.26309195 -0.49418196 -0.32791388
-0.15213948 -0.2273174 -0.33832723 -0.12012896 -0.1886308 -0.34108916 0.014603157 -0.47684053
-0.04957202 -0.2803362 -0.32377627 -0.2959909 -0.8663443 -0.23209074 -0.6418532 -0.49142092
-0.71893704 -0.7546475 -0.41210914 -0.5282214 -0.45006162 -0.67240953 -0.31156257 -0.03896278
-0.5975514 -0.6212492 -0.39088598 -0.5208166 -0.4503066 -0.53553265 -0.6569465 0.020030359
-0.37768987 -0.5387047 -0.45079756 -0.5869528 -0.08019754 -0.3261776 -0.36779535 -0.5040085
-0.26174587 -0.42600554 -0.16200414 -0.46002766 -0.36084306 -0.7860447 -0.33393398 -0.23646182
-0.64483225 -0.366048 -0.3698212 -0.85971504 -0.30924344 -0.7164826 -0.8245189 -1.1314915
-0.4323059 0.11821457 0.35406512 -0.6762497 -0.25748116 -0.2863214 0.3610593 0.34240562
-0.268786 0.3280544 -0.30683184 0.40512827 0.37441117 0.141049 -0.0878343 -0.3455816
0.32991523 -0.07735662 0.65914994 0.049608316 -0.09744997 -0.022619596 0.018648617 -0.24602419
-0.11222889 -0.18716459 0.5273303 0.24948062 0.45641056 -0.3685718 0.31513157 -0.66472775
0.28364933 0.01762852 0.40692118 -0.10603527 0.17919736 0.35476243 -0.46349445 -0.56903476
0.17880796 -0.1920307 0.024363847 -0.52891594 -0.67059624 -0.12193007 0.11150606 0.4711586
-0.115659796 0.11856122 -0.5775647 -0.10519895 -0.37929392 -0.6596672 -0.43060184 -0.54897046
00000000: 2937 36bd 9aa8 ebbe 3c58 f83d 7fa9 4abe
00000010: 4274 09bf f095 05bf e381 afbc 295a 06bf
00000020: dbf9 51be 94fb c9bd 0a5d 97be 5879 623e
00000030: 1a3f 843d b3cd 9b3e 955f 1fbc 9e82 4a3e
00000040: 802b 20bd bcdc 0ebd 5833 a4be 4c8f bbbe
00000050: 5fec 3bbe 5aff b6be 67bc d33d 2fd3 693d
00000060: 0b90 83be 42f1 3bbe 816e 97be 97fd 13bf
00000070: c2b8 20be 20ef 0dbe df16 1fbf 4059 1c3d
00000080: 9f1f 1dbe de9c 973e 9491 53be adb7 0cbc
00000090: 9367 11be 2150 08be cd84 32be 4593 9cbe
000000a0: d48a b3bd 3377 3ebe bbb8 3fbd 15b1 b3be
000000b0: 1b51 2cbe af93 d3bb 7a9e 80bd 12fb a83b
000000c0: d887 13be 17fb b8be 0c5f 273e 9059 8ebd
000000d0: 69e9 4abe b8c5 a4be ae03 81bd 06be 853e
000000e0: f1d5 0fbe 95a3 adbd c487 9cbe a030 09be
000000f0: edca 183d 6cc3 6abd 4ccb e2be f1ac 28bf
00000100: 1de2 4cbd c55d de3b 1431 fbbe 7041 b9be
00000110: 0fe6 abbe 827c 8dbe b292 88be 4476 96bd
00000120: a055 d8bd 619e 26be c7e5 f63e 46b2 cb3e
00000130: 3be6 47be a931 723d 0331 1dbe 7da3 763d
00000140: 7d43 1e3e e675 583c 4966 acbe 40ea 0f3e
00000150: 9e9f 0ebe d459 39bd cfe1 ae3d dd29 31be
00000160: f419 3cbe bc92 cfbe 45e0 71bd 17bd 06bf
00000170: 09aa 06be 6e26 3d3b fb93 703e 8a20 5fbe
00000180: 2024 41be cbf6 80be 8d13 8cbe 1bf2 65bd
00000190: 668f a8be 752b b7be aed2 92be aa94 a8be
000001a0: acd7 cdbd ea38 47bf bfaa d2bd 7bfd f7be
000001b0: ed8b 0cbf 413f 26bf b21c 83be d7ed 2fbf
000001c0: 1b03 debe 5ecd 1cbf 0e35 f9be a690 c1be
000001d0: 94ba 67be a3f9 fdbe ffac f4be 214a 46bf
000001e0: ff25 f0be abae c0be 623e 97be a9d9 03bf
000001f0: 1973 68bf 4df3 0fbf c9a9 38bf 00f9 1ebe
00000200: d6eb 00bf 1baf 17bf 600a 55bf e61a 27bf
00000210: 717b 1abf 8903 13bf 2c9f 18bf c079 64be
00000220: 98db c7be 9d1e b1be 2431 47be 1787 15bf
00000230: f448 03bf fdb3 86be 6b05 fdbe 54e4 a7be
00000240: 74ca 1bbe e4c5 68be 3a39 adbe 2c06 f6bd
00000250: 6f28 41be 3da3 aebe 1442 6f3c 7124 f4be
00000260: 080c 4bbd 3a88 8fbe 01c6 a5be 1f8c 97be
00000270: bdc8 5dbf 32a9 6dbe 7e50 24bf 869b fbbe
00000280: 420c 38bf 9430 41bf f8ff d2be 8539 07bf
00000290: 7a6e e6be 0823 2cbf 2185 9fbe 7097 1fbd
000002a0: 21f9 18bf 300a 1fbf 3522 c8be 3d54 05bf
000002b0: 968e e6be ab18 09bf a52d 28bf b516 a43c
000002c0: 9160 c1be 8de8 09bf f0ce e6be 8a42 16bf
000002d0: 9c3e a4bd c000 a7be ac4f bcbe b306 01bf
000002e0: 8e03 86be 661d dabe 6ae4 25be bf88 ebbe
000002f0: 6cc0 b8be 3a3a 49bf 65f9 aabe 0c23 72be
00000300: ba13 25bf a56a bbbe 3459 bdbe 4916 5cbf
00000310: 2855 9ebe 676b 37bf ac13 53bf b7d4 90bf
00000320: 3357 ddbe 7b1a f23d 0648 b53e b31e 2dbf
00000330: 92d4 83be b898 92be c4dc b83e ca4f af3e
00000340: 529e 89be bff6 a73e 1019 9dbe f96c cf3e
00000350: d2b2 bf3e 266f 103e 78e2 b3bd 12f0 b0be
00000360: a6ea a83e 266d 9ebd 0dbe 283f 1732 4b3d
00000370: da93 c7bd bb4c b9bc fcc4 983c c4ed 7bbe
00000380: 43d8 e5bd 13a8 3fbe 1eff 063f d977 7f3e
00000390: a5ae e93e 71b5 bcbe ed58 a13e 992b 2abf
000003a0: 7c3a 913e b069 903c f957 d03e 0529 d9bd
000003b0: 837f 373e 6ca3 b53e 254f edbe 43ac 11bf
000003c0: 6f19 373e b2a3 44be b196 c73c 0967 07bf
000003d0: 32ac 2bbf 79b6 f9bd 4a5d e43d b33b f13e
000003e0: 0bdf ecbd 3ad0 f23d 48db 13bf 8c72 d7bd
000003f0: d032 c2be f3df 28bf d877 dcbe 5489 0cbf

weight_ih_l1 f4 [300, 100]
-0.6334883 -0.8940701 0.5898946 0.06525128 -1.2269901 -0.010176664 0.27439937 -0.08827714
-0.079201385 -0.3833982 -0.90591174 0.020901129 -1.0115964 -0.23237425 0.63563854 -0.39010972
-0.4014177 0.65586567 0.85568064 -0.19646223 0.8936493 -0.014077546 -1.0257008 -0.10773696
-0.55340016 1.2897301 -0.09365752 0.5646184 0.5075677 0.029067554 0.11185322 -0.30319825
0.3227942 0.11164587 -0.097073935 0.0028293317 0.8581228 1.2481958 -0.4150632 -0.4115141
-0.6049528 -1.357083 0.4287462 -0.14367369 -0.15634674 0.64443547 -0.72270155 -0.0014706613
-0.24756445 -0.5349488 0.06848314 0.104373485 -0.19189252 -0.62616587 1.4824306 0.119269036
-0.47019783 -0.79572153 -0.19834284 0.17174499 1.0175827 0.63140905 -0.8977756 1.1800925
-1.0264523 -0.006908291 0.441301 0.6791418 -0.64612913 1.0234785 0.78089374 -0.40533096
0.8166343 0.5694675 -0.41443223 0.076082 -0.6462994 -0.2933123 -0.28234258 0.6434932
0.08332565 -0.7229157 -0.89121455 -0.009144503 -0.8243677 -0.49502295 -0.6714957 -0.30040625
0.24799637 0.035683982 -0.11933147 0.8666938 -0.8772162 0.16908562 1.1568818 0.14084211
0.19153096 -0.15464592 -7.565832e-05 -0.9142319 -0.6148063 0.3313988 0.5598221 -0.2506322
-0.76498944 1.2055227 -0.015752094 -0.8830405 0.64013076 -0.58246833 -0.38150254 0.41766745
0.07608559 -0.40638202 -0.3957759 0.03793 -0.23945461 -0.199713 -0.06299634 0.45861083
0.343306 -0.042036228 -1.0072757 -0.14635281 -0.33222598 -0.023956075 -0.67166483 0.40728158
0.09232395 0.1885988 0.5512527 -0.117802486 -0.23289207 -0.04769143 -0.0518413 0.24735746
-0.07672271 -0.41997856 -0.16328491 -0.82976204 0.32772183 -0.23921476 -1.1141794 0.39855072
-0.4254149 -0.9103349 -0.4571688 -0.4637534 -0.60931206 -0.64203286 -0.45596543 -0.036299363
-0.096015245 -0.07033685 0.44965395 0.44034064 0.1433322 0.53657943 -1.011746 -0.48143426
-0.23049907 0.744885 -1.4589365 -0.7885404 -0.65994775 -0.20323461 -0.20717101 0.42606726
0.56197864 0.27518183 0.35628092 -0.50199485 -0.17883433 1.0901554 0.49198326 -0.34879276
-0.007038426 -0.8229215 0.26561257 0.77085936 0.8131388 0.5373397 -0.113325626 -0.48330784
0.5873301 -0.39230663 -0.45826793 -0.3356093 -0.22799355 -0.33980438 -0.3351764 0.0016522135
1.4231787 0.09669223 0.30283126 -0.24153432 0.55078787 0.40504175 0.9502945 0.1882994
0.59498066 0.27248296 -1.1024878 -0.8509837 0.106800616 -0.032148313 -0.48220006 -0.5879385
-0.41170904 0.35159472 -0.20814976 -0.19469434 0.13731463 -0.15200023 -0.079485565 0.27754852
-0.9963675 0.6987783 -0.046101905 -0.95778495 0.3371269 0.52307147 -0.24141167 -0.21142681
0.6285014 0.650698 -0.7308347 0.16910928 -0.40472078 -1.1645474 0.08942267 0.08779017
0.040232204 -1.4754884 0.08248795 0.12361953 -0.30167526 -1.1043326 -0.034525443 -0.08164226
-0.37526712 0.5878506 -0.044208612 -0.24660772 0.63234407 0.19494267 -0.13604175 -0.77296567
-1.2869037 -0.7304892 -0.57004535 0.09819323 0.91431826 0.70267427 0.7646082 -0.03659951
00000000: 4a2c 22bf c7e1 64bf 5503 173f 77a2 853d
00000010: 030e 9dbf 06bc 26bc 137e 8c3e a5ca b4bd
00000020: 5634 a2bd c54c c4be d5e9 67bf d838 ab3c
00000030: fe7b 81bf 84f3 6dbe 35b9 223f 76bc c7be
00000040: 9f86 cdbe d0e6 273f e30d 5b3f 652d 49be
00000050: 33c6 643f 82a5 66bc 2a4a 83bf 32a5 dcbd
00000060: a2ab 0dbf e015 a53f 84cf bfbd d58a 103f
00000070: f5ef 013f 141f ee3c 4d13 e53d cd3c 9bbe
00000080: 4845 a53e 97a6 e43d b3ce c6bd 4f6c 393b
00000090: f0ad 5b3f e1c4 9f3f 2a83 d4be fab1 d2be
000000a0: 30de 1abf e5b4 adbf 9f84 db3e 321f 13be
000000b0: 5c19 20be b9f9 243f f802 39bf 34c3 c0ba
000000c0: 8981 7dbe 68f2 08bf e340 8c3d c4c1 d53d
000000d0: 797f 44be 684c 20bf 49c0 bd3f 5343 f43d
000000e0: c5bd f0be 68b4 4bbf 631a 4bbe ebdd 2f3e
000000f0: 2640 823f 06a4 213f 9fd4 65bf 450d 973f
00000100: ca62 83bf f25e e2bb 34f2 e13e 3ddc 2d3f
00000110: b868 25bf 5801 833f a7e8 473f 8a87 cfbe
00000120: f20e 513f 9fc8 113f 7630 d4be e1d0 9b3d
00000130: e173 25bf 082d 96be 358f 90be f8bb 243f
00000140: a3a6 aa3d 0111 39bf a326 64bf d3d2 15bc
00000150: c309 53bf a673 fdbe 24e7 2bbf d9ce 99be
00000160: c3f2 7d3e 5e29 123d 0f64 f4bd a5df 5d3f
00000170: 3e91 60bf c824 2d3e b414 943f ea38 103e
00000180: b120 443e 805b 1ebe c0aa 9eb8 1a0b 6abf
00000190: f263 1dbf 1aad a93e 8050 0f3f dd52 80be
000001a0: 59d6 43bf 914e 9a3f 890a 81bc f10e 62bf
000001b0: 9cdf 233f a51c 15bf 4d54 c3be 82d8 d53e
000001c0: c3d2 9b3d 4e11 d0be 24a3 cabe 7d5c 1b3d
000001d0: 9733 75be 9181 4cbe 3a04 81bd 0acf ea3e
000001e0: cec5 af3e 2e2e 2cbd 69ee 80bf 83dd 15be
000001f0: 8619 aabe 883f c4bc 3af2 2bbf 3687 d03e
00000200: 5714 bd3d 0b20 413e e61e 0d3f 6e42 f1bd
00000210: 427b 6ebe 1758 43bd 8b57 54bd 464b 7d3e
00000220: cc20 9dbd 6e07 d7be 2934 27be 496b 54bf
00000230: 28cb a73e b7f4 74be 6e9d 8ebf d70e cc3e
00000240: fbcf d9be b50b 69bf 0712 eabe 1671 edbe
00000250: e0fb 1bbf 445c 24bf 4d74 e9be a4ae 14bd
00000260: a4a3 c4bd c40c 90bd 0b39 e63e 5474 e13e
00000270: adc5 123e 455d 093f e580 81bf 8d7e f6be
00000280: f307 6cbe c9b0 3e3f 6ebe babf c9dd 49bf
00000290: 56f2 28bf bc1c 50be a324 54be 7d25 da3e
000002a0: d5dd 0f3f a2e4 8c3e 746a b63e bc82 00bf
000002b0: 5920 37be 368a 8b3f 3be5 fb3e f794 b2be
000002c0: 99a2 e6bb fcaa 52bf 5ffe 873e 0a57 453f
000002d0: dd29 503f 188f 093f 4417 e8bd 2074 f7be
000002e0: 445b 163f 6adc c8be 18a2 eabe fbd4 abbe
000002f0: 2477 69be d7fa adbe 3e9c abbe 168f d83a
00000300: b82a b63f 9306 c63d b30c 9b3e c654 77be
00000310: 6f00 0d3f a261 cf3e 8046 733f 8fd1 403e
00000320: a750 183f e382 8b3e 521e 8dbf 11da 59bf
00000330: 48ba da3d f3ad 03bd ede2 f6be 2383 16bf
00000340: 87cb d2be 3904 b43e 3625 55be f45d 47be
00000350: 359c 0c3e f3a5 1bbe 54c9 a2bd d71a 8e3e
00000360: f111 7fbf 22e3 323f 5ad5 3cbd 6531 75bf
00000370: e69b ac3e 03e8 053f 9f34 77be 4580 58be
00000380: 78e5 203f 2594 263f fc17 3bbf fc2a 2d3e
00000390: 9037 cfbe e40f 95bf 3c23 b73d 55cb b33d
000003a0: 86ca 243d cedc bcbf 71ef a83d 3c2c fd3d
000003b0: 2e75 9abe c55a 8dbf 8d6a 0dbd 0f34 a7bd
000003c0: 0323 c0be 607d 163f 1714 35bd bc86 7cbe
000003d0: 4de1 213f 0d9f 473e 874e 0bbe 14e1 45bf
000003e0: 43b9 a4bf 5701 3bbf 7eee 11bf 8819 c93d
000003f0: c310 6a3f 76e2 333f 5dbd 433f 5ee9 15bd

weight_hh_l1 f4 [300, 100]
-0.3550422 -0.11193391 0.032178685 0.34082493 -0.15494622 0.26435533 0.08018269 0.98868716
0.6551076 -0.5979439 0.8637618 0.36300322 -0.09106568 -0.8514231 -0.7368675 0.21411248
-0.08022483 1.2742631 -0.19285351 0.28715515 0.26417917 -0.48371157 -0.6151737 -0.49596083
0.16136001 0.24643375 -0.9465293 -0.30253527 -0.3874429 -0.24335147 0.013175985 0.53307545
0.07276842 0.048210274 -0.67586285 0.042644057 -0.06601872 -0.32566074 0.99857104 -0.33580104
-0.28445485 0.17397803 1.5883788 -0.07632014 0.43751788 -0.35091412 -0.548087 0.54073995
-0.028407404 0.3163238 0.09063294 -0.10893244 0.5528075 0.25100723 -0.49459338 0.28470108
1.2894177 1.0087799 0.28542206 0.884759 0.40492073 -0.13259771 0.016296586 0.11477891
0.1394235 0.46929467 0.47176298 0.63262385 0.6794974 -0.16889794 0.48039538 -0.09533107
0.04128475 1.6507016 -0.5716413 0.8154075 -0.021868555 0.37785172 -0.30093804 0.22085685
-0.35658842 -0.13894516 0.12579934 0.17124337 -0.4995281 0.4692281 -0.4216917 0.024749547
-0.23274595 0.08663778 -0.10915824 1.0022625 0.81447524 0.12553358 0.4654702 -0.08049098
0.52794534 -0.85800207 0.6073521 0.26381505 -0.32599357 0.022945825 -0.26493886 1.0346518
-0.5151519 0.3631936 0.278507 0.36329937 0.46275675 0.5124418 -0.7486217 -0.093693815
-0.14118299 -0.24527505 -0.27814284 -0.5791589 0.40814057 0.60175914 -0.35281026 0.35468337
-0.17272426 0.3272709 -0.0044067414 -1.1929804 0.09453639 0.902334 0.6397733 0.17777753
-0.5056407 -0.38253504 0.023075731 0.08119252 -0.5019434 0.14284505 -1.0199708 -0.5463898
0.14578804 0.33237654 0.5560008 0.10346256 -0.7041067 0.3029915 -0.14339018 0.4551092
-0.10064104 -0.6157521 0.015660249 -0.6511903 0.1965607 -0.35458004 0.48098496 0.047573224
2.0345914 -0.28363398 0.40453082 -0.13759571 0.19248658 0.4657137 -0.46965638 -0.59259313
-0.5495921 -0.3341335 -0.0060446346 0.15160662 -0.27277568 0.5384164 0.90198606 -0.911465
-0.6323102 -0.072552495 0.094277926 0.008745834 0.28234777 0.80244803 0.21329671 -0.26369715
-0.49591175 0.8748274 0.010406683 -0.022670353 -0.13385738 0.47300497 -0.13136607 -0.060590614
-0.3978089 0.26638433 -0.2359053 -0.09098979 -0.5334995 0.00789593 -1.0805384 -0.47981697
-0.23181418 -0.12557298 0.16405508 -0.13699573 -0.06618153 0.19024228 0.53342557 0.7617021
0.21148036 -0.08149116 0.16026196 -0.6924002 -0.23731832 -0.20329742 -0.04095804 -0.5598986
0.18402384 0.30564225 0.34185117 0.67212844 -0.5858787 -0.08461043 0.59590614 -0.0010545172
0.49888358 -0.60000396 0.59850746 0.13074933 0.21423693 0.59415287 -0.7109645 -0.45639753
-0.12265444 0.07074839 -0.28728136 -0.035329852 0.08050736 -0.27022177 0.079325356 0.10351887
0.28978637 0.17514694 -0.04897863 0.63042367 -0.5424194 0.40529647 0.042073887 -0.22399364
0.35713506 0.35572028 0.06771154 0.75348836 0.21967532 4.3003354e-05 0.15127933 -0.13150422
0.25648203 -0.47999024 -0.23006842 0.059897806 -0.7572677 -0.5373589 0.12620482 1.0078281
00000000: 17c8 b5be 9b3d e5bd cccd 033d 9b80 ae3e
00000010: 39aa 1ebe 9559 873e d236 a43d 9a1a 7d3f
00000020: 22b5 273f da12 19bf 7e1f 5d3f 8fdb b93e
00000030: a580 babd ddf6 59bf 59a3 3cbf 4d40 5b3e
00000040: ea4c a4bd 0e1b a33f 647b 45be 0006 933e
00000050: 7e42 873e 0ba9 f7be 067c 1dbf 94ee fdbe
00000060: 8f3b 253e 2159 7c3e bf4f 72bf e7e5 9abe
00000070: ea5e c6be 2131 79be 16e0 573c a277 083f
00000080: 9c07 953d 2378 453d 5905 2dbf 89ab 2e3d
00000090: d334 87bd 01bd a6be 5aa2 7f3f 1dee abbe
000000a0: 11a4 91be 4c27 323e ff4f cb3f bc4d 9cbd
000000b0: 5802 e03e 04ab b3be 6e4f 0cbf ef6d 0a3f
000000c0: a5b6 e8bc 31f5 a13e c39d b93d f917 dfbd
000000d0: cb84 0d3f 0584 803e 583b fdbe 57c4 913e
000000e0: a40b a53f b31f 813f d722 923e 917f 623f
000000f0: c551 cf3e b2c7 07be 6b80 853c 3511 eb3d
00000100: 09c5 0e3e 6447 f03e eb8a f13e a3f3 213f
00000110: 8bf3 2d3f 95f3 2cbe 62f6 f53e f03c c3bd
00000120: 331a 293d 314a d33f 1657 12bf 8cbe 503f
00000130: af25 b3bc c875 c13e 8d14 9abe 4c28 623e
00000140: c292 b6be a447 0ebe 8bd1 003e 6c5a 2f3e
00000150: 26c2 ffbe aa3e f03e f9e7 d7be 90bf ca3c
00000160: f454 6ebe 266f b13d 5b8e dfbd 234a 803f
00000170: 7381 503f e08b 003e 1c52 ee3e 74d8 a4bd
00000180: 6d27 073f 06a6 5bbf 6d7b 1b3f c412 873e
00000190: a1e8 a6be e2f8 bb3c 11a6 87be 786f 843f
000001a0: ffe0 03bf 83f4 b93e 7898 8e3e 6002 ba3e
000001b0: 74ee ec3e 632f 033f aca5 3fbf 8be2 bfbd
000001c0: 4692 10be 6229 7bbe bd68 8ebe c243 14bf
000001d0: cdf7 d03e e30c 1a3f 8ca3 b4be 0f99 b53e
000001e0: a1de 30be 0d90 a73e 6d66 90bb 95b3 98bf
000001f0: 4b9c c13d 5cff 663f 2fc8 233f 500b 363e
00000200: ab71 01bf a2db c3be 5109 bd3c 4448 a63d
00000210: 5d7f 00bf f945 123e 678e 82bf 34e0 0bbf
00000220: 7649 153e 422d aa3e 1256 0e3f 2ee4 d33d
00000230: 5640 34bf b421 9b3e e0d4 12be 1304 e93e
00000240: e41c cebd eea1 1dbf ec49 803c 68b4 26bf
00000250: 3547 493e 848b b5be a943 f63e 24dc 423d
00000260: bf36 0240 7938 91be aa1e cf3e e4e5 0cbe
00000270: 341b 453e 0772 ee3e cd76 f0be 2fb4 17bf
00000280: 11b2 0cbf 8c13 abbe 1212 c6bb c43e 1b3e
00000290: 41a9 8bbe a8d5 093f 8fe8 663f c555 69bf
000002a0: 15df 21bf 6796 94bd c914 c13d b04a 0f3c
000002b0: e38f 903e 3c6d 4d3f 746a 5a3e 5003 87be
000002c0: 25e8 fdbe b0f4 5f3f cb80 2a3c 2db7 b9bc
000002d0: e911 09be b52d f23e d484 06be dd2d 78bd
000002e0: 9cad cbbe 8763 883e 2991 71be db58 babd
000002f0: 6c93 08bf ee5d 013c 154f 8abf 92aa f5be
00000300: b260 6dbe 3496 00be 0efe 273e 9c48 0cbe
00000310: 2f8a 87bd dfce 423e 948e 083f e9fe 423f
00000320: 4f8e 583e d6e4 a6bd b61b 243e 2441 31bf
00000330: 9303 73be 332d 50be 9ec3 27bd 8455 0fbf
00000340: bf70 3c3e 247d 9c3e 1e07 af3e 9c10 2c3f
00000350: 25fc 15bf 3c48 adbd 4e8d 183f ba37 8aba
00000360: ab6d ff3e dc99 19bf c937 193f 27e3 053e
00000370: ed60 5b3e 671a 183f c501 36bf f0ac e9be
00000380: 4032 fbbd 88e4 903d 8b16 93be 09b6 10bd
00000390: 0be1 a43d 825a 8abe 5575 a23d b401 d43d
000003a0: e15e 943e b859 333e d19d 48bd 7263 213f
000003b0: ffdb 0abf 0583 cf3e ab55 2c3d 975e 65be
000003c0: 68da b63e f820 b63e 59ac 8a3d 9de4 403f
000003d0: 91f2 603e 805e 3438 f8e8 1a3e 0ba9 06be
000003e0: 9d51 833e 48c1 f5be 0e97 6bbe 6757 753d
000003f0: 4cdc 41bf 5a90 09bf d63b 013e 8300 813f

bias_ih_l1 f4 [300]
0.27926484 0.06498158 -0.15287614 -0.14397712 0.21080181 -0.05578234 -0.068524376 0.042811364
0.00034403976 -0.12870099 0.27325994 -0.043098323 0.25256273 -0.17991638 0.06613478 -0.28130704
-0.04637012 -0.018038908 -0.1849202 0.16118947 0.115606435 -0.3779141 -0.070213415 -0.03547964
0.18741094 0.079989 -0.05336003 0.37867606 -0.072918266 0.043643072 0.18163814 -0.27725005
-0.16338706 -0.03290247 0.24140336 -0.081998065 0.20198464 -0.011794869 0.115432 0.1035717
-0.11150328 0.203223 0.29130948 -0.07864695 0.09841946 -0.16400942 -0.17789483 -0.066168934
0.23174772 0.39399338 0.039928705 0.101604804 0.2673992 0.05229276 0.218089 -0.2520391
-0.22927034 -0.10180708 0.00065099983 0.013770936 -0.1957601 0.05226645 -0.14913854 -0.097507216
0.23505329 -0.24732849 -0.108163506 0.07807466 0.0325355 0.32794324 -0.109089226 0.12942342
-0.24603435 0.028094549 0.3656566 0.036675733 -0.13110724 -0.0108588245 0.22607605 0.12297054
0.35301962 -0.31137547 -0.047407437 0.21679454 0.041220665 0.03968201 -0.14548054 0.21207859
0.047099497 0.20998141 0.054726828 -0.23733471 -0.13441151 0.23336858 0.085754305 -0.13939908
0.34344095 -0.08109026 -0.091936976 -0.04034674 -0.057529684 -0.41887906 -0.012818793 -0.44350633
0.06699396 -0.06596594 -0.01661747 0.058851037 0.08148853 -0.4232283 0.03770806 -0.036840793
-0.13399974 -0.3270057 0.18514404 -0.28025913 -0.4901878 0.3808447 -0.29805875 -0.49771053
-0.8027208 -0.19043155 -0.11276615 -0.20947926 -0.36527053 0.21439649 0.33018807 -0.56122994
-0.3666317 -0.33457133 -0.4055127 -0.730368 -0.091968626 -0.19488233 -0.16797541 -0.45265552
-0.012082911 -0.1295938 -0.032065745 -0.094824575 -0.30461085 -0.13204007 -0.17139812 -0.4849769
-0.34881517 -0.15997818 -0.8155943 -0.15154809 -0.51079816 -0.29896557 -0.70213556 0.07700468
0.125686 -0.10301449 -0.43176723 -0.03845571 -0.11418754 -0.8634381 -0.41790676 -0.12658513
-0.07372144 0.23849222 -0.5510726 -0.78245884 -0.41565746 -0.5532235 -0.38511902 0.3367012
-0.31197864 -0.5844418 -0.2982668 0.6557153 -0.050738364 -0.2222184 -0.45448476 -0.45357347
-0.17026055 0.01039203 -0.4166389 -0.18706661 -0.6475445 0.09068592 -0.22175711 -0.074507825
-0.7657433 -0.45786375 -0.38573635 -0.64552754 -0.1497934 -0.5125231 0.05279954 -0.30677602
-0.07378609 -0.30903208 -0.26186085 -0.070385806 -0.6336597 -0.056371167 -0.09739348 -0.12771998
0.1682158 -0.18237713 0.15727738 -0.1470687 0.35787252 0.14618325 0.01967213 0.21679023
-0.03774017 -0.12938341 0.0029300547 -0.18643875 0.22019081 -0.20327781 -0.18011321 -0.14063771
0.06567244 0.16645223 -0.03928989 0.19394742 -0.15028335 -0.11281763 0.008770855 -0.17680359
0.11722972 0.10927206 -0.035152484 0.3076144 0.0547484 -0.044296738 -0.18466122 -0.17158416
-0.22246507 0.02331987 0.1726668 -0.136177 0.1492363 -0.12013636 0.032258246 0.17174429
0.09600956 -0.14528127 0.23187688 -0.042408824 -0.23372789 -0.0011895902 -0.26262102 0.1175835
-0.19972195 0.26607078 0.102139235 0.19193786 0.22600704 -0.20667 -0.1283614 0.08193106
00000000: cdfb 8e3e 1015 853d 908b 1cbe bd6e 13be
00000010: 6edc 573e 067c 64bd 8256 8cbd f85a 2f3d
00000020: 3c60 b439 31ca 03be bae8 8b3e de87 30bd
00000030: e74f 813e 003c 38be ac71 873d 7a07 90be
00000040: 98ee 3dbd 55c6 93bc b95b 3dbe da0e 253e
00000050: 11c3 ec3d f57d c1be 0dcc 8fbd 1953 11bd
00000060: a7e8 3f3e 46d1 a33d 0c90 5abd d4e1 c13e
00000070: 2c56 95bd 14c3 323d 59ff 393e b8f3 8dbe
00000080: f04e 27be bec4 06bd 7132 773e 9aee a7bd
00000090: 10d5 4e3e 443f 41bc 9d67 ec3d 661d d43d
000000a0: d55b e4bd b119 503e 8426 953e a711 a1bd
000000b0: 2490 c93d 16f2 27be 102a 36be 9483 87bd
000000c0: 464f 6d3e 80b9 c93e 488c 233d 2e16 d03d
000000d0: 8ce8 883e ef30 563d b952 5f3e 450b 81be
000000e0: d8c5 6abe 3b80 d0bd dca7 2a3a 7e9f 613c
000000f0: 5675 48be 5815 563d c6b7 18be ddb1 c7bd
00000100: cfb1 703e ae43 7dbe d484 ddbd 9be5 9f3d
00000110: f243 053d 2de8 a73e 2c6a dfbd 9387 043e
00000120: 6ef0 7bbe 8a26 e63c 5837 bb3e 4b39 163d
00000130: fa40 06be 36e9 31bc 7b80 673e fad7 fb3d
00000140: fdbe b43e 9b6c 9fbe 4d2e 42bd 63ff 5d3e
00000150: 00d7 283d 9a89 223d daf8 14be 212b 593e
00000160: 67eb 403d 5e05 573e 3d29 603d df07 73be
00000170: 2ca3 09be 2cf8 6e3e f49f af3d a2be 0ebe
00000180: 7ed7 af3e a612 a6bd 7449 bcbd a042 25bd
00000190: 3fa4 6bbd 5177 d6be ea05 52bc 4313 e3be
000001a0: 2134 893d 2719 87bd 5c21 88bc c90d 713d
000001b0: 75e3 a63d 61b1 d8be c473 1a3d 5fe6 16bd
000001c0: 3a37 09be 4b6d a7be 6696 3d3e 207e 8fbe
000001d0: e5f9 fabe 14fe c23e 289b 98be ead3 febe
000001e0: 1c7f 4dbf 7d00 43be f0f1 e6bd bb81 56be
000001f0: bd04 bbbe c18a 5b3e 690e a93e c4ac 0fbf
00000200: 26b7 bbbe ef4c abbe 5c9f cfbe 66f9 3abf
00000210: 0c5a bcbd 3c8f 47be bf01 2cbe 77c2 e7be
00000220: 67f7 45bc 3db4 04be 5f57 03bd 6333 c2bd
00000230: f4f5 9bbe 8335 07be fd82 2fbe e44e f8be
00000240: e797 b2be 52d1 23be caca 50bf 6c2f 1bbe
00000250: abc3 02bf 0412 99be 28bf 33bf a1b4 9d3d
00000260: d5b3 003e 43f9 d2bd 9810 ddbe bc83 1dbd
00000270: 28db e9bd 480a 5dbf e0f7 d5be 889f 01be
00000280: 44fb 96bd 4e37 743e 1813 0dbf 394f 48bf
00000290: 0ed1 d4be 0ea0 0dbf 522e c5be 1a64 ac3e
000002a0: aabb 9fbe fa9d 15bf 6db6 98be f5dc 273f
000002b0: 08d3 4fbd 388d 63be 3ab2 e8be c83a e8be
000002c0: c858 2ebe 5543 2a3c b251 d5be 648e 3fbe
000002d0: 7ac5 25bf 8ab9 b93d 4c14 63be 8f97 98bd
000002e0: c107 44bf 1e6d eabe 3c7f c5be 4b41 25bf
000002f0: 7163 19be b734 03bf 5544 583d bf11 9dbe
00000300: 291d 97bd 7439 9ebe a012 86be 6f26 90bd
00000310: 8637 22bf 74e5 66bd 3c76 c7bd 07c9 02be
00000320: c340 2c3e 12c1 3abe 520d 213e 2d99 16be
00000330: 113b b73e 10b1 153e 7227 a13c 42fe 5d3e
00000340: 7095 1abd 167d 04be 2906 403b cde9 3ebe
00000350: b379 613e 0f28 50be 996f 38be 5503 10be
00000360: 467f 863d 7472 2a3e 70ee 20bd 279a 463e
00000370: e1e3 19be ee0c e7bd a2b3 0f3c 000c 35be
00000380: 2316 f03d 08ca df3d 0dfc 0fbd a27f 9d3e
00000390: dc3f 603d 7f70 35bd d517 3dbe c2b3 2fbe
000003a0: e2cd 63be 5009 bf3c 91cf 303e fc71 0bbe
000003b0: 67d1 183e 0d0a f6bd 3921 043d bcdd 2f3e
000003c0: a9a0 c43d 9dc4 14be 2271 6d3e e0b4 2dbd
000003d0: 5d56 6fbe 06ec 9bba 4376 86be 9ecf f03d
000003e0: e983 4cbe 6e3a 883e 602e d13d 5c8b 443e
000003f0: 646e 673e 4da1 53be 2c71 03be 79cb a73d
