shakespeare.pt (torch, 570673 bytes, 11 tensors)

weight f4 [100, 100]
0	0xbfd91bdb	-1.6961626
1	0x3eee2365	0.4651138
2	0x3f8c883a	1.0979073
3	0xbfa8e0c3	-1.3193592
4	0x3f0c6e68	0.54855967
5	0xbfbf3f1e	-1.4941137
6	0x3f890d8a	1.0707257
7	0xbef8c388	-0.48586679
8	0x4001de54	2.0291948
9	0xbf89194e	-1.0710847
10	0x3f97508d	1.1821457
11	0x3ecc6c13	0.39926204
12	0xbf9f0818	-1.2424345
13	0x3f4a3153	0.7898151
14	0x3ec578f3	0.3856884
15	0x3fb3e0d7	1.4052991
16	0xc00a707a	-2.163115
17	0x3fbc5edd	1.471645
18	0xbf2911a9	-0.6604257
19	0x3fcd8fd4	1.6059518
20	0xbffece98	-1.9906797
21	0x3e833cf7	0.2563245
22	0xbf8d4303	-1.1036075
23	0x3f61d312	0.8821269
24	0xbeea2c25	-0.45736805
25	0x3fc02e8a	1.5014203
26	0x3e42a824	0.19009453
27	0xbf185bf4	-0.5951531
28	0xbe56c185	-0.2097226
29	0x3f1c14be	0.6096915
30	0x4033a1df	2.8067548
31	0x3fdd830d	1.7305619
32	0xbf0acea3	-0.5422155
33	0x3da45ede	0.08025907
34	0x3f176d9b	0.5915162
35	0xbf11d248	-0.5696149
36	0x3ec1b5bc	0.37833965
37	0xbee48403	-0.44631967
38	0x3f2a03d7	0.6641211
39	0xbf522fbf	-0.82104105
40	0x3ef24db5	0.4732491
41	0x3ea64128	0.32471585
42	0xbf29b1d4	-0.6628697
43	0x3fae1438	1.359992
44	0xbf201839	-0.6253696
45	0xbedcf5c5	-0.43156257
46	0x3ee3683b	0.4441546
47	0xbea65f29	-0.32494476
48	0xbf3371cd	-0.7009552
49	0x3f21b121	0.631609
50	0xbf62016c	-0.8828342
51	0x3eb610dd	0.3555974
52	0x3efecdcd	0.4976639
53	0xbf9bacaa	-1.2162068
54	0xbf86663d	-1.0499951
55	0x3c26e3d8	0.010186158
56	0xbcbbd110	-0.022926837
57	0xbc262a45	-0.010141914
58	0x3e2f16d6	0.17098555
59	0xbe160577	-0.14650522
60	0x3fa68751	1.3010045
61	0xbfb56380	-1.417099
62	0x3fc46e47	1.5346154
63	0xbfc5b136	-1.5444705
64	0xbf99d8f1	-1.201933
65	0x3fbfdcdf	1.498928
66	0xbf491739	-0.7855106
67	0xbf5abd7e	-0.8544539
68	0x3f8a1791	1.0788442
69	0x3f15f96b	0.58583707
70	0xbe3f9839	-0.18710412
71	0xbf129aa1	-0.57267195
72	0xbe1d8e9b	-0.15386431
73	0x3f1c8958	0.6114707
74	0xbef2d9e4	-0.47431862
75	0x3e54ec1f	0.20793198
76	0x3fcc619d	1.5967289
77	0x3f821755	1.016337
78	0xbf97b268	-1.185132
79	0x3f188039	0.5957065
80	0xbf6da7ad	-0.9283398
81	0xbf9a45cf	-1.2052554
82	0xbe9f9f47	-0.31176206
83	0x3d4a5e2f	0.049406227
84	0xbf9575fe	-1.1676633
85	0xbf01c1e6	-0.5068649
86	0xbce7f620	-0.028315604
87	0xbfbf5a01	-1.4949342
88	0xbf779b2a	-0.96721137
89	0xbe3a3e6a	-0.18187872
90	0xbec3c9b3	-0.38239822
91	0xbfe5cfff	-1.79541
92	0x3f9e24cf	1.2354983
93	0x3eb5a6bf	0.3547878
94	0xbf0828cd	-0.5318726
95	0x3f9f973f	1.2468032
96	0xbfb2f989	-1.3982402
97	0x3fcef833	1.6169494
98	0xbecbc137	-0.3979585
99	0x3ea47ded	0.32127324
100	0xbdc7f2b6	-0.0976309
101	0xbdcc66b0	-0.099805236
102	0xbdfa6497	-0.12226217
103	0xbf6f6fce	-0.93529975
104	0x3ebfef28	0.3748715
105	0x3fb383bc	1.4024577
106	0xbf37e4b5	-0.71833354
107	0xbf71ea47	-0.94498104
108	0xbf870f09	-1.0551463
109	0x3d353fe8	0.0442504
110	0x3f3787f2	0.7169181
111	0x3e89d8c2	0.26923186
112	0x3e89a3ae	0.2688269
113	0x3f5e4bf0	0.8683462
114	0xbfc68dec	-1.5512061
115	0xbef8dd9d	-0.48606578
116	0xc006bad6	-2.1051536
117	0xbe8a82bc	-0.27052867
118	0x3fe735fc	1.806335
119	0x3f521537	0.8206362
120	0xbf951ba0	-1.1649055
121	0xbf58dfc5	-0.84716445
122	0x3e27126a	0.16315618
123	0xbf5d658a	-0.8648306
124	0xbd375a82	-0.04476405
125	0xbded5c3c	-0.11589858
126	0x3fbc233a	1.469825
127	0x3f642094	0.8911221
128	0xbd83830a	-0.06421478
129	0x3fa1fc83	1.2655185
130	0x3efcee1b	0.4940041
131	0x3f558a58	0.8341422
132	0xbf3e7215	-0.74392825
133	0x3f656b92	0.89617264
134	0x3f5ab4b6	0.85431993
135	0xbf5c3e35	-0.8603242
136	0x3ee67117	0.45008156
137	0x3fcb89aa	1.5901387
138	0x3ebc85bc	0.3682078
139	0x3fb0a569	1.3800479
140	0x400c805e	2.195335
141	0xc064d091	-3.57523
142	0x3f33a7ed	0.7017811
143	0xbfeab5a6	-1.8336685
144	0x3fd35411	1.651003
145	0x3fa29e38	1.2704535
146	0x3edf706a	0.43640453
147	0x3fc435fa	1.5328972
148	0xbf6442b3	-0.89164275
149	0x3ed0aec0	0.40758324
150	0xbf3b5714	-0.73179746
151	0xbe1f3413	-0.15547208
152	0x3efc8c51	0.49325803
153	0x3f9ab606	1.2086799
154	0x3f4729a3	0.7779791
155	0x3e356d26	0.17717418
156	0xbeb9c306	-0.36281604
157	0xbeda7978	-0.42670798
158	0xbf17e734	-0.5933716
159	0xbfe2a488	-1.7706461
160	0xc00561d7	-2.0840967
161	0x3e9af07a	0.30261594
162	0x3e87fc8f	0.26559874
163	0x3fb9c1b7	1.4512242
164	0x3fb7fccc	1.4374022
165	0x3f84ddab	1.0380148
166	0xbf4df19d	-0.804468
167	0xbff1f74e	-1.8903596
168	0xbfa5f2d0	-1.2964725
169	0xbf95832a	-1.1680653
170	0x3d6d36b1	0.057913486
171	0x3ea3af9d	0.3196992
172	0x3f71a904	0.9439852
173	0xbf2dbfbb	-0.6787068
174	0xbe6da8e2	-0.23208955
175	0xbf0a9cb0	-0.54145336
176	0xbf503caf	-0.81342596
177	0xbf707edd	-0.9394358
178	0xbe320580	-0.1738491
179	0xbf84697c	-1.0344691
180	0x3fb27f1e	1.3945043
181	0xbfef22e4	-1.8682523
182	0xbeb898af	-0.36053988
183	0x3fbf0666	1.4923828
184	0x3ce630bd	0.028099412
185	0x3ebf1850	0.37323236
186	0x3f9e2517	1.2355069
187	0x3fc1942e	1.5123346
188	0xbfafbf36	-1.3730228
189	0x3e4b4c9f	0.19853447
190	0x3eaa3369	0.33242348
191	0xc00b4555	-2.1761067
192	0x3f9beae4	1.2181058
193	0x3e95774a	0.29192573
194	0xbe80ee55	-0.25181833
195	0xbf2937d5	-0.6610082
196	0xbe9a0f33	-0.3008972
197	0x3fb652f1	1.4244062
198	0xbf117c10	-0.5682993
199	0xbf5afb2f	-0.85539526
200	0x3e174a48	0.1477443
201	0x3f4ec487	0.80768627
202	0x3f044686	0.5167011
203	0x3e9b6bc2	0.3035565
204	0xbd9cfb7b	-0.076651536
205	0xbf5657c5	-0.83727676
206	0xbf5f63a3	-0.8726141
207	0xbf93c162	-1.1543391
208	0xbf931225	-1.1489912
209	0x3ea36444	0.31912434
210	0x40304be4	2.754632
211	0x3fb1112c	1.3833365
212	0x3e903de3	0.28172216
213	0x3f2a632f	0.6655759
214	0x3ebd2e63	0.36949453
215	0xc00b72eb	-2.178889
216	0xbcbcb9b8	-0.023037776
217	0x3fbf70c1	1.4956285
218	0xbf5afa8f	-0.8553857
219	0x3eca1316	0.39467686
220	0x3ffea64b	1.9894499
221	0x3f5a6615	0.85312015
222	0x3f5d3fac	0.8642528
223	0x4007ca78	2.1217327
224	0xbc62a67f	-0.013833641
225	0xbf8dcc46	-1.1077964
226	0xbf032cc4	-0.5124018
227	0x3d28f1cc	0.04124622
228	0x3e490131	0.1962936
229	0xbf40a04f	-0.7524461
230	0xbf96870d	-1.1759964
231	0x3f611143	0.87916964
232	0x3f8db9fa	1.107238
233	0xbd17f5e4	-0.037099734
234	0x3fc22991	1.5168935
235	0xbf313ad4	-0.6923039
236	0x3e9fba5d	0.3119687
237	0xbf651939	-0.8949161
238	0x3e8f6af3	0.28011283
239	0xbdbfbcf2	-0.0936221
240	0xbf8c9ca4	-1.0985303
241	0xbf0c1d8e	-0.54732597
242	0xbf99dfa4	-1.2021375
243	0x3f62105d	0.8830622
244	0x3eb5cd51	0.35508206
245	0xbf2b0078	-0.6679759
246	0x4002d2e0	2.0441208
247	0x3f290080	0.6601639
248	0x3fc1dcaa	1.5145466
249	0xbebdf193	-0.3709837
250	0x3fef1230	1.8677425
251	0xbdb16396	-0.08661573
252	0xbe3c4eac	-0.18389386
253	0xbf5fe0a7	-0.8745217
254	0x3fb2bdf1	1.3964216
255	0xbf9c8c4c	-1.2230315

weight_ih_l0 f4 [300, 100]
0	0xbee456c3	-0.44597444
1	0x3e98ac7f	0.29819104
2	0x3e0d4e62	0.13799432
3	0xbef2870e	-0.47368664
4	0x3e86091e	0.2617883
5	0xbe075ea6	-0.132197
6	0xbf6b3034	-0.9187043
7	0x3e26271d	0.16225858
8	0xbec922f2	-0.39284474
9	0xbeb45882	-0.35223776
10	0xbf0d1ce5	-0.55122215
11	0x3df81e29	0.121151276
12	0x3edd0ac1	0.43172267
13	0x3ebbe379	0.36696985
14	0x3dbddfe8	0.09271222
15	0x3edd9741	0.4327946
16	0x3e4325c6	0.19057378
17	0x3e2c2815	0.16812165
18	0x3eff1d46	0.4982702
19	0x3f20023c	0.6250341
20	0xbd31f032	-0.04344196
21	0xbf81c0b5	-1.0136935
22	0xbf4754f9	-0.77864033
23	0xbdfe9863	-0.12431409
24	0x3ea7f261	0.32802108
25	0x3e55a6e3	0.20864443
26	0xbd881f24	-0.066465646
27	0xbedf7d5a	-0.43650323
28	0x3e4eda0e	0.20200369
29	0x3e402064	0.18762356
30	0xbe9242d2	-0.28566605
31	0x3d1f02de	0.038821094
32	0xbf379321	-0.71708876
33	0x3e88bfd2	0.26708847
34	0x3e1eedff	0.15520476
35	0x3f3c326a	0.73514426
36	0xbd23dc3a	-0.040004946
37	0xbe5f1b87	-0.21787845
38	0x3e710ce9	0.23540081
39	0x3e992d26	0.29917258
40	0xbe8f873b	-0.2803286
41	0x3be087b0	0.0068521127
42	0x3f18d6c9	0.59702736
43	0x3ef4d872	0.47821385
44	0x3f74a011	0.9555674
45	0xbe9f7168	-0.3114121
46	0x3f033024	0.5124533
47	0x3d77370d	0.060355235
48	0xbf1bc691	-0.60849863
49	0x3e00efc7	0.12591468
50	0xbef76838	-0.483217
51	0x3df6c53d	0.12049339
52	0xbe306f0d	-0.17229863
53	0xbe7ae980	-0.24503136
54	0xbebd93c4	-0.370268
55	0xbe04e41d	-0.12977643
56	0x3f42f67b	0.7615735
57	0x3f2064d2	0.6265384
58	0xbea6ec32	-0.32602078
59	0xbd24fbee	-0.04027932
60	0xbed461ec	-0.41480958
61	0xbddefd95	-0.10888211
62	0xbf318ad1	-0.6935244
63	0xbe272ae3	-0.16324954
64	0x3c7dd06e	0.015491588
65	0x3f164b61	0.5870877
66	0xbe17ff67	-0.14843522
67	0x3ef3f8f0	0.47650862
68	0xbec062b9	-0.3757532
69	0xbf1883a4	-0.5957587
70	0xbfb2b7f7	-1.3962392
71	0xbf2b52aa	-0.6692301
72	0x3df8117b	0.12112709
73	0xba2de96a	-0.00066342077
74	0x3ea30284	0.31837857
75	0xbc05d899	-0.008169317
76	0xbee7a7a9	-0.45245102
77	0x3e709ebc	0.23498052
78	0x3f0ba838	0.54553556
79	0xbe783e58	-0.24242532
80	0xbf00392e	-0.5008725
81	0xbf162bea	-0.5866076
82	0xbef22a01	-0.4729767
83	0xbe07ec18	-0.13273656
84	0x3e0c704a	0.1371471
85	0xbd34e29b	-0.04416142
86	0xbf30a566	-0.6900238
87	0xbf0a5362	-0.5403348
88	0x3ea10877	0.3145177
89	0x3eeb0e39	0.4590929
90	0xbf0911fa	-0.53543055
91	0xbea415a6	-0.32047766
92	0xbd77fc59	-0.06054339
93	0xbeb5155f	-0.35367867
94	0x3f1760d8	0.59132147
95	0xbf574f8c	-0.84105754
96	0x3f0c2633	0.5474579
97	0xbf03f3e4	-0.5154402
98	0xbe42552d	-0.18977804
99	0x3f834744	1.0256124
100	0xbb48b047	-0.0030622648
101	0x3efcf72a	0.4940732
102	0xbd15bfc5	-0.03655984
103	0x3e412562	0.18861917
104	0xbdcf3307	-0.101171546
105	0x3f15622a	0.5835291
106	0xbedeb3e4	-0.4349662
107	0x3ebd0734	0.36919558
108	0x3eef3c52	0.46725708
109	0x3ef6da7a	0.4821356
110	0xbdc31e2d	-0.0952724
111	0xbea8b8cc	-0.3295349
112	0xbf147995	-0.5799802
113	0xbea63f21	-0.3247004
114	0xbf1fd66a	-0.62436545
115	0x3e9f2446	0.31082362
116	0xbef4f86f	-0.4784579
117	0xbdf36ce5	-0.11886004
118	0x3e8cb41f	0.2748117
119	0x3f8a8d0d	1.0824295
120	0xbf56d413	-0.8391735
121	0xbdd045db	-0.10169574
122	0xbad6b679	-0.0016381285
123	0xbe219d74	-0.1578272
124	0xbe7aaa6f	-0.24479078
125	0x3d0f7bf9	0.03503034
126	0xbf445b44	-0.7670176
127	0x3f565296	0.83719766
128	0x3eacfb78	0.33785605
129	0x3f29dcd4	0.6635258
130	0xbe9c5516	-0.30533665
131	0x3e8c29b5	0.2737557
132	0x3f1dfecb	0.6171691
133	0x3f42afa8	0.7604928
134	0xbe0edec1	-0.13952161
135	0x3bb16db6	0.00541469
136	0x3f450fec	0.7697742
137	0xbd4476c5	-0.04796483
138	0x3f169ba1	0.5883122
139	0xbe826078	-0.25464225
140	0x3de15e23	0.11004283
141	0xbe200252	-0.15625885
142	0xbcde2218	-0.027115867
143	0x3f825f27	1.0185288
144	0x3ec6d4b6	0.3883416
145	0xbe888172	-0.2666126
146	0xbde37399	-0.11106033
147	0x3df6586b	0.12028583
148	0x3eaff2ec	0.34365022
149	0x3ea3f067	0.3201935
150	0x3e447255	0.19184239
151	0xbe9290e6	-0.28626174
152	0xbeebed76	-0.46079606
153	0xbc4bcdd8	-0.012439214
154	0x3f259751	0.64684016
155	0xbf1f8d7d	-0.6232527
156	0xbe146454	-0.14491397
157	0x3e342714	0.17593032
158	0xbea29709	-0.31755856
159	0x3e54e4eb	0.2079045
160	0x3e4b68f6	0.19864258
161	0x3de38b5d	0.11110566
162	0x3df42d96	0.11922757
163	0x3da5ddef	0.08098971
164	0x3eb3e96e	0.3513903
165	0x3ea58fe8	0.32336354
166	0x3ba81436	0.0051293625
167	0x3efc4b14	0.4927603
168	0x3d0b921e	0.034074895
169	0x3dc2c90c	0.09511003
170	0xbf20ec2d	-0.62860376
171	0xbdead4ed	-0.114663936
172	0x3ed741df	0.42042443
173	0x3f05dee5	0.52293235
174	0x3f0476fe	0.5174407
175	0x3eedc30f	0.4643788
176	0x3ee68dce	0.45030063
177	0x3e031ab6	0.12803158
178	0xbe25d324	-0.16193825
179	0x3e7702e7	0.24122201
180	0xbe88efd5	-0.26745477
181	0xbdfdbef3	-0.12389936
182	0xbf5c4650	-0.8604479
183	0xbdca3651	-0.09873641
184	0x3e05b4e0	0.1305728
185	0x3e5db256	0.21650061
186	0xbf13c82c	-0.57727313
187	0x3e4e862d	0.20168371
188	0x3e17b04d	0.14813347
189	0x3e6ba4cf	0.23012088
190	0xbed0f9f2	-0.40815693
191	0x3e4f31d7	0.20233856
192	0xbe747e05	-0.23876198
193	0x3eb96b47	0.3621466
194	0xbf23161f	-0.6370563
195	0x3e9f9442	0.311678
196	0xbef4dcc7	-0.4782469
197	0xbe9db252	-0.3080011
198	0xbf2c3b36	-0.6727785
199	0x3f710498	0.94147635
200	0x3eab347d	0.33438483
201	0x3f1ce901	0.61293036
202	0xbe3eb762	-0.18624642
203	0x3e1a5a79	0.15073575
204	0xbf18faa5	-0.59757453
205	0x3ea8a1c3	0.32935914
206	0xbf735119	-0.9504562
207	0xbe5ca491	-0.21547152
208	0x3dc8a07e	0.097962365
209	0xbf6d776b	-0.9276034
210	0xbe59f1d4	-0.21283656
211	0x3d0fb892	0.03508813
212	0x3da1af85	0.07894806
213	0xbe1d7497	-0.15376507
214	0xbe8dc447	-0.2768881
215	0xbeac33be	-0.33633226
216	0xbf25f3fd	-0.6482542
217	0xbde601ff	-0.112308495
218	0x3f26ad4c	0.6510818
219	0x3f480405	0.78131133
220	0x3e58bc41	0.21165563
221	0xbf183ab5	-0.5946458
222	0xbe30762f	-0.17232583
223	0x3e90b025	0.28259388
224	0x3edb1064	0.42785943
225	0x3e000ef5	0.12505706
226	0xbe85ded5	-0.2614657
227	0xbe135278	-0.14386928
228	0xbeae8518	-0.34085917
229	0xbf1837f3	-0.5946037
230	0xbbc20ba6	-0.0059217988
231	0xbeb8ca1f	-0.36091706
232	0xbe2984f0	-0.16554618
233	0xbeb00788	-0.34380746
234	0x3dd8d12e	0.10586773
235	0xbd918b32	-0.071066275
236	0xbf32b1d8	-0.6980262
237	0xbe4a6957	-0.19766746
238	0x3f30e8a9	0.6910501
239	0x3e4941c9	0.19654001
240	0xbe579420	-0.21052599
241	0x3e981be2	0.29708773
242	0x3e3c4fa8	0.18389761
243	0xbf2f397b	-0.68447083
244	0x3f12965e	0.5726069
245	0xbf28d743	-0.65953463
246	0x3f2d2b0f	0.6764383
247	0xbed38e10	-0.41319323
248	0xbebc9898	-0.3683517
249	0xbe93fcf8	-0.28903937
250	0x3ec1e737	0.37871715
251	0xbec342ca	-0.38136894
252	0xbf04f912	-0.5194255
253	0x3f05765a	0.52133715
254	0xbf2b110f	-0.66822904
255	0xbeda092b	-0.4258512

weight_hh_l0 f4 [300, 100]
0	0x3f303969	0.688376
1	0x3f14be0c	0.5810249
2	0xbed32578	-0.41239524
3	0xbd0262cd	-0.031832505
4	0xbf4e8d85	-0.8068469
5	0xbd8baba1	-0.06819845
6	0x3eae7d0c	0.34079778
7	0xbe95797f	-0.29194257
8	0x3e9bfc10	0.30465746
9	0xbec6afc1	-0.38805965
10	0xbe826d85	-0.25474182
11	0x3eaeaef6	0.3411786
12	0x3dbda96d	0.09260831
13	0x3f09d398	0.5383849
14	0xbea36616	-0.31913823
15	0x3e3f5a21	0.18686725
16	0xbed5306d	-0.41638508
17	0x3f6cfadc	0.9257028
18	0xbf0734f0	-0.5281515
19	0xbdfe440f	-0.12415325
20	0xbebb9ee3	-0.36644658
21	0x3f3413c6	0.7034267
22	0x3fa17ef2	1.2616866
23	0xbe0a51e0	-0.13507795
24	0xbed9d04b	-0.42541727
25	0xbdcbbe69	-0.09948427
26	0x3dd628da	0.104570106
27	0xbe500f07	-0.20318232
28	0xbee75c37	-0.45187542
29	0x3e744dfc	0.23857874
30	0xbe41372d	-0.18868704
31	0xbd1d6ee3	-0.038435828
32	0x3f1d4e6f	0.61447805
33	0x3f00d938	0.5033145
34	0xbe85ecac	-0.2615713
35	0x3e693a80	0.22776222
36	0xbd0332d9	-0.032030914
37	0xbe066104	-0.13122946
38	0xbeb72158	-0.35767627
39	0x3f19b2e5	0.60038596
40	0xbe4826b9	-0.19546022
41	0x3ea0dbd1	0.31417707
42	0xbf2c01b2	-0.67190087
43	0xbec15552	-0.37760407
44	0xbf78be37	-0.97165245
45	0x3f6c6f82	0.9235765
46	0x3e891c97	0.26779625
47	0x3e23eb50	0.16007733
48	0xbe7a7829	-0.244599
49	0xbd2dc061	-0.042419795
50	0xbe6dbb71	-0.23216034
51	0x3d93e0f9	0.072206445
52	0xbea25300	-0.3170395
53	0x3f26bc14	0.65130734
54	0x3f57904b	0.8420455
55	0x3ebac5f1	0.36479142
56	0x3ed41816	0.41424626
57	0x3d985b60	0.074393034
58	0xbd53626b	-0.05160753
59	0x3d2849f9	0.04108617
60	0x3eaba998	0.33527827
61	0x3e0a005c	0.134767
62	0x3e5a0b30	0.2129333
63	0x3e5777e3	0.21041827
64	0xbdfd7f1f	-0.12377762
65	0x3f677afa	0.9042202
66	0x3ecbcf1a	0.39806443
67	0xbea5cce1	-0.32382873
68	0xbdc0aace	-0.094075784
69	0x3cc53159	0.024071382
70	0x3f02bea7	0.5107216
71	0xbe737c2b	-0.23777835
72	0x3cd78625	0.026309082
73	0xbeb1d5f6	-0.34733552
74	0x3e85feb2	0.2617088
75	0xbe88f987	-0.26752874
76	0xbc89e978	-0.01683496
77	0xbdf1bff7	-0.118041925
78	0xbd1f1f18	-0.038848013
79	0xbec1af18	-0.37828898
80	0xbee812f4	-0.4532696
81	0x3d2839aa	0.041070618
82	0xbd549eae	-0.05190914
83	0x3f1da9d2	0.6158725
84	0xbf6ebb23	-0.932543
85	0x3e8b9b91	0.27267125
86	0xbe26c988	-0.16287816
87	0xbdaee4ee	-0.085397586
88	0xbc97487b	-0.018467179
89	0xbe8f74af	-0.2801871
90	0x3e002fc2	0.12518218
91	0xbe083f16	-0.13305315
92	0x3e7bcf94	0.24590904
93	0x3db71080	0.08938694
94	0xbed231cf	-0.41053626
95	0xbf3fad7d	-0.748741
96	0xbe159ce0	-0.14610624
97	0xbfc32385	-1.5245215
98	0x3e8a9e62	0.27073961
99	0xbebcd86b	-0.36883864
100	0xbd45494e	-0.048165612
101	0xbe8bf6b3	-0.27336654
102	0xbeb960b0	-0.3620658
103	0xbd550c21	-0.05201352
104	0x3f34c46b	0.7061221
105	0x3f1972fa	0.59941065
106	0x3d93de30	0.07220113
107	0xbef50dfa	-0.47862226
108	0x3f199df0	0.6000662
109	0x3c8519e8	0.016247705
110	0x3dadf457	0.0849387
111	0x3f1549ea	0.5831591
112	0xbf207c0d	-0.62689286
113	0x3e697d7d	0.22801776
114	0xbe507ef6	-0.20360932
115	0xbf49e42b	-0.7886378
116	0x3c3204af	0.0108653745
117	0x3f8ccd93	1.1000236
118	0x3f7bf717	0.98423904
119	0xbc60ae18	-0.013713382
120	0x3ec4b566	0.38419646
121	0xbc9d2db2	-0.019186828
122	0xbebc52ad	-0.36781827
123	0x3e95f7fb	0.29290757
124	0xbf896486	-1.0733802
125	0x3ed778fe	0.42084497
126	0xbf8bd624	-1.0924726
127	0x3e355c28	0.17710936
128	0x3e9307a9	0.28716782
129	0x3e8b3e2a	0.27195865
130	0xbf452ea7	-0.7702431
131	0x3edf8cd2	0.43662125
132	0x3ec110b9	0.3770807
133	0x3fa95fd9	1.3232375
134	0xbd1384ee	-0.036015444
135	0xbdbba356	-0.09162013
136	0x3d1eb258	0.0387443
137	0x3e70991c	0.23495907
138	0x3f05f024	0.5231955
139	0xbf955dec	-1.1669288
140	0xbed03b15	-0.40670076
141	0xbed37600	-0.41300964
142	0xbcdb339d	-0.02675801
143	0x3f058cad	0.5216778
144	0x3eda9a35	0.42695776
145	0xbe0bf795	-0.13668664
146	0xbeadeafe	-0.33968347
147	0x3f4fe4ff	0.81208795
148	0xbe41aeac	-0.18914288
149	0xbd625b76	-0.055263005
150	0xbee5dda0	-0.4489565
151	0xbf818441	-1.0118486
152	0xbf5d1e78	-0.86374617
153	0x3f385ac7	0.72013515
154	0xbd84575f	-0.06461977
155	0x3f3fe0c9	0.7495237
156	0x3e03ed85	0.12883575
157	0x3f4544a9	0.7705789
158	0x3e0cf47d	0.1376514
159	0xbf84e339	-1.0381843
160	0x3f8521d2	1.0400946
161	0xbdbffd21	-0.093744524
162	0xbeabbeb7	-0.3354394
163	0x3d37b440	0.044849634
164	0x3ec22e19	0.37925795
165	0x3bc3b80c	0.005972868
166	0x3ef20c64	0.47275078
167	0xbf6249a0	-0.8839359
168	0x3df1f88d	0.118149854
169	0xbe97d524	-0.296548
170	0x3ea15267	0.3150818
171	0x3d923265	0.07138518
172	0x3f17fb8d	0.5936821
173	0x3e641d6b	0.22276847
174	0x3f12ad57	0.57295746
175	0xbecaaa7e	-0.395832
176	0xbf6ff40c	-0.9373176
177	0xbf81a618	-1.0128813
178	0x3f19e369	0.60112625
179	0xbf1194cd	-0.56867677
180	0x3e8d4c1c	0.2759713
181	0x3f63cd06	0.88984716
182	0xbf0d886c	-0.5528629
183	0xbe545ea0	-0.20739222
184	0x3f390e18	0.7228713
185	0x3e9c961a	0.30583268
186	0x3f2fe6ca	0.6871153
187	0xbec05ea7	-0.37572214
188	0xbeae9b1f	-0.34102723
189	0x3e8aa384	0.27077878
190	0xbf0e24c7	-0.5552487
191	0x3ef683e0	0.48147488
192	0x3e0d53e4	0.13801533
193	0x3f2ab271	0.6667853
194	0xbed33bac	-0.41256464
195	0xbe97b860	-0.29632854
196	0x3f45a8de	0.77210796
197	0xbeb9ccc1	-0.36289027
198	0x3ef488dd	0.47760668
199	0xbf2ad02d	-0.667239
200	0x3d3e60a1	0.04647887
201	0x3d18bd58	0.037289947
202	0x3fa6edaa	1.3041279
203	0x3dd06ea0	0.1017735
204	0x3f2b54bc	0.6692617
205	0xbebe01b3	-0.3711067
206	0x3f8d890a	1.1057446
207	0xbeae0745	-0.3398992
208	0xbd95146c	-0.07279286
209	0x3e79fc9b	0.24412768
210	0xbe14976e	-0.14510891
211	0x3d8a63d1	0.0675732
212	0xbf6d7570	-0.9275732
213	0xbfcc774c	-1.5973907
214	0x3eeeca2b	0.46638617
215	0xbf34b833	-0.70593566
216	0xbfa3c6ae	-1.2795007
217	0xbf619513	-0.88118094
218	0xbd9cb586	-0.0765181
219	0x3f5cd491	0.8626185
220	0xbfcc7a85	-1.597489
221	0xbf3cca2b	-0.73745984
222	0xbef99446	-0.48745936
223	0x3f0dcdd8	0.5539222
224	0xbe93b5c4	-0.28849614
225	0x3f047216	0.5173658
226	0x3de3342e	0.11093937
227	0x3f557da3	0.8339483
228	0xbe7cb33c	-0.24677747
229	0x4002041a	2.0315003
230	0x3efc48ec	0.49274385
231	0xbeb08f80	-0.34484482
232	0x3f3f4453	0.7471363
233	0x3b4e711f	0.003150053
234	0xbe124a5c	-0.14286178
235	0x3eb80726	0.35942954
236	0xbf6a6187	-0.91555065
237	0x3d1817ca	0.037132062
238	0x3e54038a	0.20704475
239	0x3eafa6ed	0.34307042
240	0x3f1de5db	0.61678857
241	0x3e926eb3	0.28600082
242	0x3f17cd1d	0.59297353
243	0xbf108dbb	-0.56466264
244	0x3f95f7f9	1.17163
245	0x3e5027a3	0.2032762
246	0x3d3e8b32	0.046519466
247	0x3f3fdf02	0.7494966
248	0x3eebf3c5	0.4608442
249	0x3e63b046	0.22235212
250	0x3ec5b550	0.38614893
251	0xbde694ba	-0.11258836
252	0xbede2d8f	-0.43394133
253	0x3eaf3dbf	0.34226796
254	0x3e92f750	0.2870431
255	0xbdfed111	-0.1244222

bias_ih_l0 f4 [300]
0	0xbe25812e	-0.1616256
1	0xbea5b388	-0.32363534
2	0xbec76c29	-0.38949707
3	0xbe484901	-0.19559099
4	0x3eb2ef6b	0.34948286
5	0x3b8d8f68	0.004320074
6	0xbe967230	-0.29383993
7	0xbf09d216	-0.5383619
8	0x3e26a76a	0.16274801
9	0x3e577abf	0.21042918
10	0xbecd5596	-0.4010436
11	0xbd1858a5	-0.037193913
12	0xbee585da	-0.44828683
13	0xbdf88240	-0.12134218
14	0x3c6b94f7	0.014378778
15	0xbf0a90f2	-0.5412742
16	0x3e17a1a1	0.1480775
17	0xbe82ca4c	-0.25544965
18	0xbec31858	-0.3810451
19	0xbe052f62	-0.13006356
20	0xbe94e05a	-0.29077417
21	0xbec70174	-0.38868296
22	0xbe7c4e38	-0.24639213
23	0xbdce407c	-0.10070893
24	0xbe27f878	-0.16403377
25	0xbea73797	-0.326596
26	0xbe14250d	-0.14467259
27	0x3dd09fa2	0.101866975
28	0xbe1589b9	-0.14603318
29	0xbe848e2c	-0.2588972
30	0x3db9faec	0.09081063
31	0xbd6277e7	-0.05529013
32	0x3d930433	0.07178535
33	0xbd4f3895	-0.05059107
34	0x3e602ed0	0.21892858
35	0xbd2d6d6f	-0.042340692
36	0xbea43fb7	-0.3207986
37	0xbf20227d	-0.62552625
38	0x3c952fe4	0.018211313
39	0xbd2949d4	-0.041330174
40	0xbed8a986	-0.42316836
41	0x3d20a79f	0.039222356
42	0x3e987d33	0.2978302
43	0xbee4e4f0	-0.44705915
44	0x3d95831e	0.07300399
45	0x3ea1c945	0.3159887
46	0xbe88312f	-0.26600024
47	0xbe024fed	-0.12725802
48	0xbe8e1789	-0.2775233
49	0xbdac701b	-0.0841982
50	0xbeaedd33	-0.34153137
51	0xbe2cf09d	-0.16888662
52	0xbe15a9a9	-0.14615501
53	0xbf0fac64	-0.5612242
54	0x3c1b8212	0.00949146
55	0x3e1fa4f1	0.15590264
56	0xbe8619fe	-0.26191705
57	0x3e19c393	0.15016012
58	0xbd197a56	-0.037470184
59	0xbe84f9ee	-0.2597193
60	0xbd837d2c	-0.06420359
61	0xbd3eea4e	-0.04661017
62	0x3ed12431	0.40847924
63	0xbea22334	-0.31667483
64	0xbecaec9f	-0.39633653
65	0x3d63ac2c	0.055584118
66	0xbe2cfae4	-0.16892582
67	0xbeea9c46	-0.45822352
68	0x3e48bbd8	0.19602907
69	0xbee91509	-0.4552386
70	0xbe17798e	-0.14792463
71	0xbea21fd9	-0.31664923
72	0xbf0f1733	-0.55894774
73	0xbe59913e	-0.21246812
74	0xbe99b964	-0.30024254
75	0xbea2f133	-0.31824645
76	0xbc5e5d08	-0.013571985
77	0xbd8e033f	-0.06934213
78	0xbd7ac4b9	-0.061222766
79	0xbe460007	-0.19335948
80	0x3e185c5f	0.14878987
81	0xbe6758bc	-0.22592443
82	0xbdb193e4	-0.08670786
83	0x3dfdb313	0.12387671
84	0xbeef42f3	-0.46730766
85	0x3d9813aa	0.074256256
86	0xbe0525c3	-0.13002686
87	0x3e13b314	0.14423782
88	0xbe312258	-0.17298257
89	0xbe17f6e8	-0.14840281
90	0xbe4f15a3	-0.20223098
91	0xbd81b397	-0.06333082
92	0xbe849fbd	-0.2590312
93	0xbecbaa20	-0.39778233
94	0xbd4ed158	-0.050492615
95	0x3bc717da	0.0060758414
96	0xbdeee005	-0.11663822
97	0xbe98a451	-0.29812863
98	0x3c722e76	0.014781585
99	0x3afe983e	0.0019424034
100	0xbf1178ed	-0.56825143
101	0xbf26cac8	-0.6515317
102	0xbe5dc5fc	-0.21657556
103	0xbf17a3ba	-0.592342
104	0xbf552f1a	-0.83274996
105	0xbdf24196	-0.11828916
106	0xbe396bb1	-0.18107487
107	0xbf3f1452	-0.7464038
108	0xbef11fba	-0.47094518
109	0xbeeee2da	-0.4665745
110	0xbf29d59c	-0.6634157
111	0xbe9e0cc2	-0.30869108
112	0xbdaae18a	-0.083437994
113	0x3e73d35d	0.23811097
114	0xbf24230c	-0.6411598
115	0xbf09e185	-0.5385974
116	0xbeddc944	-0.43317616
117	0xbde73cbe	-0.112908825
118	0xbf123e8c	-0.5712669
119	0xbec74c19	-0.38925245
120	0xbed1b162	-0.40955645
121	0xbf4cd6b9	-0.8001514
122	0xbf31d850	-0.6947069
123	0xbf251a03	-0.64492816
124	0x3dff7a33	0.124744795
125	0xbf267c09	-0.6503301
126	0xbf4cec3a	-0.80047953
127	0xbc169887	-0.009191639
128	0xbf3ed944	-0.7455027
129	0xbefc6a2e	-0.4929976
130	0xbf0efd12	-0.55854905
131	0xbf1ffcc5	-0.6249507
132	0xbf4ebdfc	-0.80758643
133	0xbecdb3b4	-0.40176165
134	0xbed54f61	-0.41662124
135	0xbee93902	-0.45551306
136	0xbeb41fff	-0.3518066
137	0xbeaa1717	-0.3322074
138	0xbf4522c2	-0.7700616
139	0xbf0962e5	-0.53666526
140	0xbf4d8d0a	-0.80293334
141	0xbf3345a6	-0.7002815
142	0x3de2ec0b	0.11080178
143	0xbf2a0236	-0.66409624
144	0xbe120cc6	-0.14262685
145	0xbe6e4a5e	-0.23270556
146	0xbeeb0d04	-0.45908368
147	0xbe595150	-0.21222425
148	0xbf37bb07	-0.71769756
149	0xbf0c0f83	-0.5471117
150	0xbe266d6d	-0.1625268
151	0xbef7e3d9	-0.4841602
152	0xbe9675f0	-0.29386854
153	0xbf3ae125	-0.72999793
154	0xbeb8ccc9	-0.3609374
155	0xbf1009d3	-0.5626499
156	0xbf1e460c	-0.61825633
157	0xbf27418a	-0.6533438
158	0xbe5464ba	-0.20741549
159	0xbeb6e938	-0.35724807
160	0xbf24fd29	-0.6444879
161	0xbf3f4377	-0.7471232
162	0xbf2a299d	-0.66469747
163	0xbe8b3787	-0.27190802
164	0xbf13b7f9	-0.57702595
165	0xbedb1215	-0.42787233
166	0xbe259293	-0.16169195
167	0xbeb0b83b	-0.34515557
168	0xbe84481f	-0.25836274
169	0xbeae4f3f	-0.34044835
170	0xbea9b7b2	-0.3314796
171	0xbf20c970	-0.6280737
172	0xbf49f444	-0.78888345
173	0xbf282586	-0.65682256
174	0x3df8f078	0.12155241
175	0xbe838fa3	-0.25695524
176	0xbf2f3ea2	-0.68454945
177	0xbf0b68de	-0.5445689
178	0xbedb62cd	-0.42848817
179	0xbed3bda1	-0.41355613
180	0xbde33f71	-0.11096085
181	0xbe9d0d66	-0.30674285
182	0xbed9b5bd	-0.42521468
183	0xbda8ea3f	-0.08247804
184	0xbeca43f7	-0.39504978
185	0xbf40f91e	-0.7538012
186	0xbf3b6478	-0.7320018
187	0xbbd8d961	-0.0066177105
188	0xbf66166f	-0.8987798
189	0xbe72c695	-0.23708566
190	0xbf0352cf	-0.5129823
191	0xbef36f58	-0.47545886
192	0xbf060b90	-0.5236139
193	0xbf0009ef	-0.5001516
194	0xbeb2a5f9	-0.34892252
195	0xbf2ed603	-0.68295306
196	0xbdc44039	-0.09582562
197	0xbf3144ad	-0.69245416
198	0xbfa2eee6	-1.2729156
199	0xbf5f36d4	-0.87193036
200	0xbd63936d	-0.055560518
201	0xbca18f93	-0.019721782
202	0x3d259b22	0.04043115
203	0xbd1c99a8	-0.038232476
204	0xbe553491	-0.20820834
205	0xbeaa068a	-0.33208114
206	0xbe08d2f6	-0.13361725
207	0xbddad8c8	-0.10685879
208	0xbe529fcd	-0.20568772
209	0x3d4d893f	0.050179716
210	0xbdb44a5d	-0.08803246
211	0xbe258bee	-0.1616666
212	0x3dbb9833	0.09159889
213	0xbd56dc40	-0.05245614
214	0x3d40646f	0.04697078
215	0xbe4b6979	-0.19864453
216	0xbdff98e7	-0.12480336
217	0x3cdf221c	0.027237944
218	0xbc217de0	-0.009856671
219	0xbe257cfa	-0.16160956
220	0xbe10a759	-0.14126338
221	0xbe1b7350	-0.15180707
222	0xbdee9c9b	-0.11650964
223	0x3da5dac8	0.0809837
224	0xbde9a09e	-0.114075884
225	0x3e434cf5	0.19072326
226	0x3e922653	0.28544864
227	0x3d0df3bd	0.034656275
228	0x3cbdf4ef	0.023188083
229	0x3e93ccf4	0.28867304
230	0xbdf4d622	-0.11954905
231	0xbd73b7dc	-0.059501514
232	0x3e8aacd1	0.27084973
233	0xbe4c16f6	-0.19930634
234	0x3e867eeb	0.26268706
235	0x3e116837	0.14199911
236	0x3e370b62	0.17875436
237	0x3df6d253	0.12051835
238	0x3e641641	0.22274114
239	0x3c96bdac	0.01840099
240	0x3e8c48dd	0.2739934
241	0xbe4dde5b	-0.20104353
242	0x3d8c99c2	0.068652645
243	0xbe33919c	-0.17536014
244	0xbe435715	-0.19076188
245	0x3cdae823	0.02672202
246	0x3dc2bf4d	0.09509144
247	0xbe7a5b0f	-0.24448799
248	0x3dfe3083	0.124115966
249	0x3e2ead34	0.17058259
250	0x3e5e024f	0.21680568
251	0xbc249d51	-0.010047273
252	0xbd20eb80	-0.03928709
253	0x3e9aceb1	0.30235818
254	0xbc9d9b80	-0.019239187
255	0x3f1e2b20	0.61784554

bias_hh_l0 f4 [300]
0	0xbe9bb1a2	-0.3040896
1	0xbe8dafc5	-0.27673164
2	0xbe914893	-0.28375682
3	0xbec475e3	-0.3837119
4	0x3e9295cf	0.2862992
5	0x3dc38185	0.09546188
6	0xbe71e19f	-0.23621224
7	0xbef9e40a	-0.48806792
8	0x3e81b21e	0.25331205
9	0x3d83572e	0.064131126
10	0xbe93a497	-0.2883651
11	0xbe54493b	-0.2073106
12	0xbecd24cf	-0.40067145
13	0xbe16d118	-0.147282
14	0x3cf7f6b9	0.030269014
15	0xbf013bc9	-0.5048185
16	0x3e3b9e99	0.18322219
17	0xbea77d42	-0.32712752
18	0xbeb2f4ba	-0.34952337
19	0xbc1789da	-0.009249175
20	0xbe387351	-0.1801274
21	0xbebac610	-0.36479235
22	0xbe513a8e	-0.20432493
23	0xbdb3f5ec	-0.0878714
24	0xbddc6394	-0.107611805
25	0xbe216758	-0.15762079
26	0xbe31bc91	-0.17357089
27	0x3e07105a	0.13189831
28	0xbe30b251	-0.17255522
29	0xbecd4ea6	-0.40099066
30	0xbc20843b	-0.009797151
31	0xbde1606d	-0.1100472
32	0x3d9bbda1	0.07604528
33	0xbe15e05e	-0.1463637
34	0x3e1d5a2a	0.15366426
35	0xb9ab9cfe	-0.0003273263
36	0xbedd566f	-0.43230006
37	0xbf11df3c	-0.56981254
38	0x3ce69d33	0.02815113
39	0x3c92b6f4	0.017909504
40	0xbeb172ea	-0.34657985
41	0x3db92324	0.09039906
42	0x3e48ce33	0.19609909
43	0xbecacaea	-0.39607936
44	0x3d044023	0.032287728
45	0x3e1ea0a4	0.15490967
46	0xbe0a2a78	-0.13492763
47	0xbc0f6e7e	-0.008754371
48	0xbe5946c3	-0.212184
49	0xbc96d93f	-0.018414138
50	0xbec4ba47	-0.38423368
51	0xbe8a255d	-0.2698163
52	0xbdc96768	-0.09834176
53	0xbeec93cd	-0.46206513
54	0x3e0a0c55	0.13481267
55	0x3ea48829	0.32135132
56	0xbe76f3b0	-0.24116397
57	0x3df84f9c	0.12124559
58	0x3d54d061	0.051956538
59	0xbe89d3cd	-0.26919404
60	0xbdb179db	-0.0866582
61	0xbd858174	-0.06518832
62	0x3ed0e293	0.40797862
63	0xbe5271cb	-0.20551221
64	0xbeecf9cf	-0.4628434
65	0x3d84d858	0.06486577
66	0xbe0fc460	-0.14039755
67	0xbe8c5c48	-0.27414155
68	0x3e9fb8cf	0.31195685
69	0xbef92c09	-0.4866641
70	0xbc7e4977	-0.015520445
71	0xbe6cbf5c	-0.23119873
72	0xbf130fdd	-0.5744608
73	0xbe950cc2	-0.29111296
74	0xbe8a90bf	-0.27063558
75	0xbeb2371b	-0.34807667
76	0xbd58eaad	-0.05295818
77	0xbd225228	-0.03962913
78	0x3d6e7f3b	0.058226805
79	0xbe74e5e5	-0.23915823
80	0x3d844579	0.06458563
81	0xbec855e8	-0.3912804
82	0xbdb4a494	-0.08820453
83	0x3e828aff	0.2549667
84	0xbef251cf	-0.4732804
85	0xbdb0eb6f	-0.086386554
86	0xbe377c96	-0.1791862
87	0x3c873283	0.016503578
88	0xbdaef628	-0.08543044
89	0xbe791a6c	-0.24326485
90	0xbeb4c217	-0.3530433
91	0x3d23b50f	0.039967593
92	0xbebe53a8	-0.371732
93	0xbeaeb2aa	-0.34120685
94	0xbe073463	-0.13203578
95	0xbe015ec4	-0.12633806
96	0xbdae20cb	-0.085023485
97	0xbe6ee3c3	-0.23329072
98	0x3e2ebc60	0.17064047
99	0xbc169a92	-0.009192126
100	0xbf210e65	-0.6291259
101	0xbf1f966a	-0.6233889
102	0xbeba64ab	-0.3640493
103	0xbf0b23d4	-0.54351544
104	0xbf34dcac	-0.7064922
105	0xbdf168a6	-0.11787538
106	0xbe7d6341	-0.24744894
107	0xbf3bb7f4	-0.73327565
108	0xbeefff14	-0.46874297
109	0xbf13e081	-0.5776444
110	0xbf1f1e08	-0.621552
111	0xbe1950fb	-0.14972298
112	0xbda08076	-0.07837002
113	0x3dab48ab	0.0836347
114	0xbf14f768	-0.5819001
115	0xbf11b77c	-0.569206
116	0xbf106442	-0.5640298
117	0xbddc3ac5	-0.10753397
118	0xbf2e801a	-0.6816422
119	0xbee5b5d7	-0.44865295
120	0xbedd5b42	-0.43233687
121	0xbf51054f	-0.81648725
122	0xbf4b466e	-0.7940434
123	0xbf41ea47	-0.75748104
124	0x3e3a552d	0.18196554
125	0xbf1ed60f	-0.6204538
126	0xbf205de8	-0.6264329
127	0xbd14ee31	-0.03635997
128	0xbf1a9482	-0.60382855
129	0xbed1b79d	-0.40960398
130	0xbf130c3c	-0.57440543
131	0xbf0711c0	-0.5276146
132	0xbf55a3e6	-0.83453214
133	0xbeeabb8e	-0.45846218
134	0xbef84cdc	-0.4849614
135	0xbeff3b3b	-0.49849877
136	0xbe6c5f30	-0.23083186
137	0xbed403a1	-0.4140902
138	0xbf39b336	-0.7253908
139	0xbf22109e	-0.63306606
140	0xbf391b88	-0.72307634
141	0xbf4f623c	-0.8100927
142	0x3e4a9d35	0.19786532
143	0xbf132e76	-0.5749277
144	0xbde33730	-0.110945106
145	0xbe87ccaa	-0.26523334
146	0xbea4eee4	-0.3221351
147	0xbe8d98f5	-0.2765576
148	0xbf50b6b1	-0.81528765
149	0xbec62951	-0.38703397
150	0xbd92b43e	-0.07163285
151	0xbf059954	-0.52187085
152	0xbe906e9b	-0.28209385
153	0xbf3dda79	-0.7416149
154	0xbea211ff	-0.31654355
155	0xbf193ef9	-0.59861714
156	0xbf1d695c	-0.6148889
157	0xbf363400	-0.71173096
158	0xbe71034c	-0.23536414
159	0xbebca764	-0.3684646
160	0xbf424ca8	-0.7589822
161	0xbf3a1987	-0.726952
162	0xbf2240cb	-0.63380116
163	0xbe12cee7	-0.1433674
164	0xbf17aecd	-0.592511
165	0xbede908d	-0.43469658
166	0xbd872a36	-0.06599848
167	0xbeb2e54f	-0.34940574
168	0xbe8a026c	-0.26954973
169	0xbe9feec7	-0.3123686
170	0xbec770a2	-0.3895312
171	0xbf04b686	-0.5184101
172	0xbf41e5d0	-0.7574129
173	0xbf2c5518	-0.6731734
174	0x3e0a7ab8	0.13523376
175	0xbe782609	-0.2423326
176	0xbf183218	-0.59451437
177	0xbf26d7d3	-0.6517307
178	0xbf15bbb7	-0.58489555
179	0xbee0d307	-0.43911
180	0xbd18c50a	-0.037297286
181	0xbef90d12	-0.48642784
182	0xbed64baf	-0.41854617
183	0xbe597acb	-0.21238248
184	0xbed325df	-0.4123983
185	0xbf497d94	-0.7870724
186	0xbf3ea372	-0.7446815
187	0xbd97a9d4	-0.07405439
188	0xbf7d8315	-0.9902814
189	0xbe7adf29	-0.24499191
190	0xbec71f91	-0.3889127
191	0xbee8904d	-0.45422593
192	0xbf220c2e	-0.63299835
193	0xbed99d69	-0.42502907
194	0xbeceb213	-0.40370235
195	0xbf3aa6b7	-0.72910637
196	0xbda5b5df	-0.0809133
197	0xbf3f6cdf	-0.747755
198	0xbfa345fd	-1.2755734
199	0xbf60af66	-0.87767637
200	0xbf04a9e8	-0.51821756
201	0xbf1070c7	-0.56422085
202	0x3e9d7983	0.3075677
203	0x3d58c9e5	0.052926917
204	0xbe363a79	-0.17795743
205	0xbdab8f53	-0.08376946
206	0xbcce1dcf	-0.025160698
207	0xbd5f2951	-0.05448276
208	0x3d409f56	0.047026955
209	0x3e2d03f8	0.16896045
210	0xbe89a8c3	-0.26886567
211	0xbea7a805	-0.32745376
212	0x3e36c771	0.17849518
213	0x3d9a4c6e	0.07534109
214	0xbc8138bf	-0.015774129
215	0xbeb6695c	-0.35627258
216	0xbe795d51	-0.24352004
217	0xbd51cd8a	-0.051221408
218	0x3c8ff8a6	0.01757462
219	0xbf0d22f2	-0.5513145
220	0x3e20419c	0.15650028
221	0xbb8648c0	-0.004098028
222	0x3eae6209	0.3405917
223	0xbcae9720	-0.021312296
224	0x3e99d8f8	0.30048347
225	0x3e333cff	0.17503737
226	0x3d914412	0.070930615
227	0x3e6726df	0.22573422
228	0xbbadd34e	-0.0053047305
229	0x3e546c1d	0.20744367
230	0x3e38c692	0.18044499
231	0xbef6a3d2	-0.4817186
232	0x3db63b99	0.08898086
233	0xbe0df938	-0.138646
234	0xbe2e29ba	-0.17008105
235	0x3f190f1c	0.5978868
236	0x3ecda458	0.40164447
237	0x3ed8a784	0.42315304
238	0x3ed4897c	0.41511142
239	0xbe763712	-0.24044445
240	0xbeb042ea	-0.3442605
241	0x3e4bc684	0.19899946
242	0x3d60a10c	0.054841086
243	0xbe40e614	-0.18837768
244	0xbf685770	-0.9075842
245	0x3e922a9b	0.2854813
246	0x3e7f6b8d	0.24943371
247	0xbee2d55e	-0.4430341
248	0xbe631e47	-0.22179519
249	0x3e2d0cb8	0.16899383
250	0x3ea23adb	0.31685528
251	0x3f3a8640	0.728611
252	0x3ecf49aa	0.4048589
253	0x3dfdb1c0	0.12387419
254	0x3e988c53	0.2979456
255	0x3f05360c	0.52035594

weight_ih_l1 f4 [300, 100]
0	0x3f01a100	0.5063629
1	0xbdd9ee95	-0.10641209
2	0xbf1fece2	-0.6247083
3	0xbdb38752	-0.08766045
4	0xbdefdf64	-0.1171253
5	0x3e836505	0.2566301
6	0x3f0d43ff	0.5518188
7	0xbec5adc9	-0.3860915
8	0xbe5f4be2	-0.21806291
9	0xbe7c977a	-0.24667159
10	0xbedf70e4	-0.43640816
11	0xbe1a6275	-0.15076621
12	0x3f112147	0.566914
13	0xbfd5683b	-1.6672434
14	0x3f41cc4b	0.7570235
15	0xbdf06db5	-0.11739675
16	0x3dbef68b	0.09324368
17	0xbe2b059c	-0.16701359
18	0x3ee192ee	0.4405741
19	0xbeb201e7	-0.34767076
20	0xbfd20d56	-1.641032
21	0xbfaafcc9	-1.3358394
22	0xbe91561c	-0.2838601
23	0x3f2b6b02	0.66960156
24	0xbe4c32b0	-0.19941211
25	0xbed78e25	-0.42100635
26	0x3fb8bcd3	1.4432625
27	0xbf13a7c5	-0.5767787
28	0xbd99978d	-0.07499609
29	0xbdc4d3ec	-0.096107334
30	0xbe315197	-0.1731628
31	0xbecd05d3	-0.40043506
32	0x3e904c3d	0.28183165
33	0x3dc9598d	0.098315336
34	0xbf7c82c3	-0.98637027
35	0x3e5eb85f	0.2175002
36	0x3edb0ff9	0.42785624
37	0x3ef4c290	0.4780469
38	0xbf404313	-0.7510235
39	0x3ec6a584	0.38798153
40	0x3f54bfec	0.8310535
41	0xbd9ba0dc	-0.07599041
42	0xbf6ce65e	-0.9253901
43	0x3d453841	0.04814935
44	0x3ebdb683	0.37053308
45	0xbe00d87a	-0.1258258
46	0xbf947cc5	-1.1600577
47	0xbefe7dc3	-0.49705324
48	0xbef0c683	-0.47026452
49	0xbd7172b9	-0.0589473
50	0x3f054b7a	0.52068293
51	0xbf067b7a	-0.5253216
52	0xbf6a3247	-0.9148297
53	0xbe1fd95c	-0.1561026
54	0x3fca9310	1.582613
55	0xbee5aa22	-0.44856364
56	0xbdcab893	-0.09898486
57	0xbe55f522	-0.20894292
58	0xbf5a9be6	-0.8539413
59	0xbf4f23af	-0.80913824
60	0xbf38ae66	-0.7214111
61	0x3d587c21	0.052852754
62	0x3f98a3ae	1.1924951
63	0xbec6878e	-0.38775295
64	0x3f3efe2b	0.7460658
65	0xbf3e6e74	-0.7438729
66	0xbee211c0	-0.44154167
67	0xbe570794	-0.20998985
68	0x3ed09d30	0.40744925
69	0x3e88ebb4	0.26742327
70	0xbece33b1	-0.40273812
71	0x3ea13095	0.31482378
72	0xbf6ed0dd	-0.9328745
73	0xbf6d3220	-0.9265461
74	0xbf326dff	-0.6969909
75	0xbe8d7bfd	-0.27633658
76	0xbf28f259	-0.65994793
77	0x3f9dc7c9	1.2326595
78	0xbf118ee7	-0.56858677
79	0x3ea638b3	0.32465133
80	0xbf186d8c	-0.59542155
81	0xbf2a6dbe	-0.66573703
82	0x3e0fbe9f	0.1403756
83	0x3edb316a	0.42811137
84	0xbebe82ed	-0.37209263
85	0xbf35ce71	-0.7101813
86	0xbd35ecdc	-0.04441534
87	0xbf5f515c	-0.8723352
88	0xbf430b5d	-0.76189214
89	0xbdca6ea5	-0.09884385
90	0x3fafae11	1.3724996
91	0xbe9beede	-0.3045568
92	0xbf130c42	-0.5744058
93	0xbe365155	-0.17804463
94	0x3e24f619	0.16109504
95	0xbf4205dc	-0.7579019
96	0x3f3810f7	0.71900886
97	0xbf151793	-0.58239096
98	0xbe5c82e3	-0.21534304
99	0x3ddf1e16	0.1089441
100	0xbf4f812e	-0.8105649
101	0xbebccd86	-0.36875552
102	0xbf090c32	-0.53534234
103	0x3f12cfa6	0.57348096
104	0xbec92c2b	-0.3929151
105	0xbf2d449e	-0.67682827
106	0x3c1ea94d	0.009683919
107	0x3ef58f11	0.47960714
108	0x3f3813b1	0.71905047
109	0x3e24c330	0.16090083
110	0x3eae2c92	0.3401838
111	0xbe64ccdf	-0.22343777
112	0xbf14ac5d	-0.58075505
113	0x3f73f856	0.95300806
114	0xbe1167fc	-0.14199823
115	0xbed78f21	-0.42101386
116	0x3f0eaede	0.55735576
117	0xbf0675a6	-0.5252327
118	0xbf00543a	-0.5012852
119	0xbe98f751	-0.29876187
120	0xbcf5f984	-0.030026205
121	0xbebd7d84	-0.37009823
122	0x3d495acc	0.049158856
123	0x3f517fc0	0.81835556
124	0x3e8cbee0	0.27489376
125	0x3f259d00	0.6469269
126	0x3edbeaac	0.42952478
127	0xbeddd43f	-0.43325993
128	0xbecae5a8	-0.3962834
129	0x3f80b75b	1.0055956
130	0xbecc502d	-0.3990492
131	0x3e07a56a	0.13246694
132	0xbf89c38d	-1.0762802
133	0xbe1efaf5	-0.1552542
134	0xbfba76c0	-1.456749
135	0xbf039457	-0.51398224
136	0x3e9a3ccc	0.3012451
137	0x3f05ef12	0.5231792
138	0xbe4ee1bd	-0.202033
139	0x3d404770	0.046943128
140	0x3eb4743f	0.3524494
141	0xbfa9d1a3	-1.3267101
142	0x3eec00c7	0.46094343
143	0xbec0d8b6	-0.37665337
144	0xbe3b3354	-0.18281299
145	0x3ea0d16c	0.31409776
146	0x3f5359b7	0.8255877
147	0x3d8a934f	0.06766378
148	0xbd76b452	-0.06023056
149	0xbdd3cd95	-0.10341946
150	0xbee5d3ab	-0.44888052
151	0x3eb0ca8c	0.3452953
152	0x3f3754e0	0.71613884
153	0x3f235748	0.63805056
154	0x3ef7b831	0.48382714
155	0xbd9bcd0a	-0.076074675
156	0xbed8c382	-0.4233666
157	0x3e197542	0.14986137
158	0xbeb70765	-0.3574783
159	0x3e6c1061	0.23053123
160	0x3edbbd66	0.42917937
161	0xbe029efa	-0.12755957
162	0xbe869356	-0.26284283
163	0xbef1ed3a	-0.47251302
164	0xbf307d18	-0.6894088
165	0xbf84c8e9	-1.0373813
166	0xbea1b0cc	-0.31580198
167	0x3d7939f9	0.060846303
168	0x3e8664b2	0.262487
169	0xbec855af	-0.3912787
170	0x3d112d9a	0.03544388
171	0x3b7da224	0.003870138
172	0x3e7b170f	0.24520515
173	0x3f30ed4e	0.691121
174	0xbde6b15b	-0.112642966
175	0x3db64f46	0.08901839
176	0x3e49a499	0.19691695
177	0xbed7ce71	-0.4214969
178	0xbe900386	-0.28127688
179	0xbfb7c43e	-1.4356763
180	0xbe9b50b4	-0.3033501
181	0xbcc77cdc	-0.02435153
182	0xbe67ca18	-0.22635686
183	0x3f17d866	0.5931457
184	0x3f87cf5f	1.061016
185	0x3f099062	0.53735936
186	0x3f94138c	1.1568465
187	0x3ec88526	0.39164084
188	0xbaff2b29	-0.0019467819
189	0x3ec48675	0.38383833
190	0x3ef7ad8c	0.48374593
191	0xbe5cb16f	-0.2155206
192	0xbe4449f4	-0.19168836
193	0x3f5948df	0.8487682
194	0x3ef3b864	0.47601616
195	0xbec31811	-0.381043
196	0xbef326ee	-0.47490638
197	0x3f355052	0.70825684
198	0xbf80a37c	-1.0049891
199	0xbe224a46	-0.15848646
200	0x3efe03f1	0.49612382
201	0x3eefc578	0.46830344
202	0x3e608bb2	0.2192829
203	0xbf5d26f7	-0.8638758
204	0xbf8462c4	-1.0342641
205	0xbf0060a7	-0.5014748
206	0x3d8eec68	0.06978685
207	0x3ebd00b7	0.36914608
208	0xbf3baaa0	-0.7330723
209	0x3ca12e64	0.019675441
210	0x3bb466ea	0.0055054324
211	0x3f0056d1	0.5013247
212	0x3af11b58	0.001839499
213	0xbf122a59	-0.5709587
214	0xbd707545	-0.058705587
215	0x3f2cb87a	0.6746899
216	0x3f037af6	0.513595
217	0xbed9270f	-0.42412612
218	0x3fa5752a	1.2926381
219	0xbf44d891	-0.76892954
220	0x3f4c6687	0.79843944
221	0xbf316532	-0.69295037
222	0xbf8d7e8f	-1.1054248
223	0x3efaf26f	0.49013087
224	0x3e21ed85	0.15813263
225	0x3c4431f0	0.011974797
226	0xbf3e8b01	-0.74430853
227	0xbf1957c5	-0.5989955
228	0xbe7d5986	-0.24741182
229	0xbf35a0b9	-0.7094837
230	0x3f1e62bd	0.6186941
231	0x3e831f15	0.2560965
232	0x3effdcce	0.49973148
233	0x3ef43034	0.47693026
234	0xbf1d4b3e	-0.61442935
235	0xbda7979f	-0.08183216
236	0x39f77738	0.00047200336
237	0x3c8aafe0	0.016929567
238	0x3ed4d8d9	0.41571692
239	0x3dc9bf57	0.09850948
240	0xbf00354e	-0.50081336
241	0x3eae5921	0.34052375
242	0x3f880b66	1.0628479
243	0xbd50ee7c	-0.051008686
244	0x3e11f382	0.14253047
245	0xbed0a5f0	-0.407516
246	0x3f6130ca	0.8796507
247	0xb509a800	-5.128095e-07
248	0xbf015ffa	-0.50537074
249	0x3ea518ee	0.32245582
250	0xbf95f2ee	-1.1714761
251	0xbd970848	-0.073746264
252	0xbf92a8db	-1.1457781
253	0xbe323af4	-0.17405301
254	0xbf60ae91	-0.8776637
255	0xbd0bed45	-0.034161825

weight_hh_l1 f4 [300, 100]
0	0xbe75b04b	-0.23993032
1	0xbe8f21a1	-0.27955344
2	0x3df95a7d	0.121754624
3	0x3f8240c1	1.0176011
4	0xbdb78771	-0.0896138
5	0x3e303927	0.17209302
6	0x3ea2b644	0.31779683
7	0x3e361eed	0.17785235
8	0xbf066ec6	-0.52512777
9	0xbe10d4f4	-0.14143735
10	0x3e93e25c	0.28883636
11	0x3e39de7e	0.1815128
12	0x3f61ce67	0.8820557
13	0xbfb75e1c	-1.4325595
14	0xbc5d8732	-0.013521003
15	0x3ead64fd	0.3386611
16	0xbd54a642	-0.05191637
17	0xbe1eab56	-0.15495047
18	0x3e29e46a	0.1659104
19	0x3c7e156d	0.015508038
20	0xbef31a6a	-0.4748109
21	0x3e901e9c	0.28148353
22	0x3e9d2c02	0.30697638
23	0x3f11b5ee	0.5691823
24	0x3f49b987	0.7879872
25	0x3d606849	0.054786954
26	0x3ec2b731	0.3803039
27	0xbe68d06f	-0.22735761
28	0x3e52f661	0.20601799
29	0xbd40a78d	-0.04703479
30	0xbe6c31d5	-0.23065884
31	0x3f0d870d	0.55284196
32	0xbf24f87a	-0.64441645
33	0xbed9e5bc	-0.42558086
34	0xbc9e768b	-0.019343635
35	0xbeb612d5	-0.35561243
36	0xbeeba8c4	-0.46027195
37	0x3f22e31e	0.63627803
38	0xbf300683	-0.68759936
39	0x3e559517	0.20857655
40	0x3f149aab	0.58048505
41	0xbdf5723f	-0.11984681
42	0xbe0f6ab0	-0.14005542
43	0x3eec1430	0.46109152
44	0x3eb5f783	0.355404
45	0xbdc9c072	-0.09851159
46	0x3f1e97a6	0.6195015
47	0x3eb241ba	0.3481577
48	0x3f46fee8	0.77732706
49	0x3edd3d96	0.4321105
50	0xbe6f3c25	-0.23362787
51	0x3e3294be	0.17439553
52	0x3f6ce908	0.9254308
53	0xbdb577f4	-0.0886077
54	0x3ec58e2c	0.3858503
55	0xbdd6c8d3	-0.10487523
56	0xbdb58411	-0.0886308
57	0x3e043c0e	0.12913534
58	0xbd2afcba	-0.041744925
59	0xbf38fcc9	-0.7226072
60	0x3dc6af93	0.09701457
61	0xbc3df3d6	-0.01159378
62	0x3ef2b17e	0.4740104
63	0xbef203f3	-0.47268638
64	0xbd741bda	-0.059596874
65	0xbf125315	-0.57158023
66	0x3dd0b52f	0.10190808
67	0x3d092399	0.033481214
68	0xbe8018c9	-0.2501891
69	0x3db51fa1	0.08843923
70	0xbf1082ad	-0.56449395
71	0xbec709ec	-0.38874757
72	0x3f2b4207	0.66897625
73	0xbdf68965	-0.12037925
74	0xbf5bed8b	-0.85909337
75	0xbf8ad1f1	-1.0845319
76	0x3eb8267d	0.35966864
77	0xbdcb97f0	-0.09941089
78	0x3d03446c	0.032047674
79	0xbf004733	-0.5010864
80	0x3ed0cd2e	0.4078154
81	0xbddffae3	-0.10936525
82	0x3d170dd4	0.036878422
83	0x3eaca393	0.33718547
84	0x3fc15f5a	1.5107224
85	0xbf21493a	-0.6300236
86	0x3d0c1204	0.03419687
87	0xbe5859e5	-0.21128042
88	0xbec24fe0	-0.37951565
89	0xbd564b3a	-0.052317835
90	0x3d4dbe83	0.050230514
91	0x3f659501	0.89680487
92	0x3ec73aab	0.38911948
93	0xbe8b4347	-0.27199766
94	0xbe01fab4	-0.12693292
95	0xbeaeaecc	-0.34117734
96	0x3cba305b	0.022728136
97	0x3e72928d	0.23688717
98	0x3e6afe86	0.22948655
99	0xbe9ebc8e	-0.3100323
100	0xbe739a38	-0.23789299
101	0x3f1f7aeb	0.6229693
102	0x3ee5b4d4	0.44864523
103	0x3b834d71	0.0040070345
104	0x3f250e1b	0.6447465
105	0xbf1be52d	-0.6089657
106	0xbebcf8b8	-0.36908507
107	0x3e19bb3f	0.15012835
108	0x3e96f659	0.29484823
109	0xbed1f6da	-0.41008645
110	0xbee5a3e3	-0.44851598
111	0xbd8e704d	-0.069550134
112	0x3e1ed0d9	0.15509357
113	0x3eb90370	0.36135435
114	0xbda66c1a	-0.081260875
115	0xbd7e4dab	-0.06208579
116	0x3e6cf532	0.2314041
117	0x3f0cf139	0.55055577
118	0xbe3f4b6f	-0.1868112
119	0x3e2dd647	0.16976272
120	0x3f3db982	0.7411119
121	0xbf80b9c8	-1.0056696
122	0x3e2ce0fa	0.16882697
123	0x3f183b59	0.5946556
124	0x3e010d69	0.12602772
125	0x3ead0688	0.33794045
126	0xbec99be7	-0.39376757
127	0x3e47f223	0.19525962
128	0xbeb05805	-0.34442154
129	0x3d6138f0	0.05498594
130	0xbcee20fb	-0.02906846
131	0xbe54a31e	-0.2076535
132	0x3eececf4	0.4627453
133	0xbeb5455c	-0.3540448
134	0x3d1a6e5d	0.037702907
135	0x3f94714c	1.1597075
136	0xbce39cd5	-0.027784744
137	0xbebe2a40	-0.3714161
138	0x3e858035	0.26074377
139	0xbe95d280	-0.2926216
140	0xbf233343	-0.63750094
141	0x3dcaa5d0	0.098949075
142	0xbf05159c	-0.519861
143	0xbdeb4ed2	-0.11489643
144	0x3e6407c8	0.22268593
145	0xbe8b342e	-0.27188247
146	0xbc7c903e	-0.015415249
147	0x3ec22f06	0.379265
148	0xbf1f3515	-0.6219037
149	0xbdf871bc	-0.12131068
150	0x3e81a610	0.25322008
151	0xbce0c388	-0.027436987
152	0x3d4a4164	0.049378768
153	0xbdba031c	-0.09082624
154	0xbe82b3bc	-0.2552775
155	0xbf452114	-0.770036
156	0x3d8fe31d	0.0702574
157	0xbeae8f76	-0.34093827
158	0x3ec64c7c	0.38730228
159	0xbe3b24f3	-0.18275814
160	0x3f1a167a	0.60190547
161	0xbe49857a	-0.19679824
162	0x3d770a95	0.060312826
163	0x3e16ae58	0.14714944
164	0xbe388452	-0.18019226
165	0x3ea7e870	0.32794523
166	0xbeb7d526	-0.35904807
167	0x3f59af9b	0.8503358
168	0xbee3ab22	-0.444665
169	0x3d223c86	0.0396085
170	0x3e6cee76	0.2313784
171	0xbd54d155	-0.051957447
172	0xbe148058	-0.14502084
173	0x3ef69c01	0.48165897
174	0x3ef4c524	0.47806656
175	0xbec13c49	-0.37741306
176	0xbe30c1bb	-0.17261402
177	0xbcd04e36	-0.025427919
178	0x3f189a26	0.5961021
179	0xbe92c126	-0.28662986
180	0xbf280507	-0.6563267
181	0x3e119326	0.14216289
182	0x3d0de0ee	0.034638338
183	0xbe5741c9	-0.21021189
184	0x3eaa8ba7	0.3330967
185	0xbe8de497	-0.27713463
186	0x3e6f55c7	0.23372565
187	0xbd6be5ab	-0.057592075
188	0x3dcd6650	0.1002928
189	0x3bc2acb2	0.005940997
190	0xbe19e383	-0.15028195
191	0xbeb3a5b5	-0.35087362
192	0xbd71a0dd	-0.0589913
193	0x3ee25b21	0.4421015
194	0x3e5b2109	0.2139932
195	0x3f09a26b	0.53763455
196	0x3ede8cd5	0.4346682
197	0xbe468f28	-0.19390547
198	0x3bf5d83f	0.007502585
199	0x3da65bf6	0.08123009
200	0x3ee700c8	0.45117784
201	0x3e8fc9f8	0.28083777
202	0xbe99060b	-0.29887423
203	0xbe8ebdb3	-0.27879104
204	0x3e10b3bf	0.14131068
205	0x3d1b4b9f	0.037913915
206	0xbd4df63b	-0.05028365
207	0x3eb30225	0.34962574
208	0x3e8f3225	0.27967945
209	0x3e240e9d	0.160212
210	0xbe845feb	-0.2585443
211	0xbe51ce38	-0.20488822
212	0xbe8bd887	-0.27313635
213	0x3f69214b	0.91066426
214	0xbdb9abd3	-0.09065976
215	0xbe2ff8da	-0.17184773
216	0xbe69ed02	-0.22844318
217	0xbdf82f54	-0.12118402
218	0x3de17e12	0.11010374
219	0xbf3254e4	-0.6966078
220	0xbe0e3954	-0.13889056
221	0xbe903f84	-0.2817346
222	0x3ec9c7bb	0.39410195
223	0xbfbbb050	-1.4663181
224	0x3e53273e	0.20620438
225	0xbf813687	-1.0094765
226	0xbd2560b5	-0.04037543
227	0xbdbcf1de	-0.0922582
228	0x3e45be14	0.1931079
229	0xbe32e062	-0.17468408
230	0x3ef8e936	0.48615426
231	0xbe43405b	-0.19067518
232	0x3d0c8d54	0.03431447
233	0xbf03d5ea	-0.5149828
234	0x3ee6c6b3	0.4507347
235	0xbdaf7bcb	-0.085685335
236	0x3e351a60	0.17685843
237	0x3ed45c25	0.4147655
238	0xbe1dc7c2	-0.15408233
239	0xbe810197	-0.25196525
240	0xbd8d2823	-0.06892421
241	0xbe5e4353	-0.2170537
242	0xbe88dcad	-0.26730862
243	0x3e5ac32f	0.21363519
244	0xbeacd9d9	-0.33759955
245	0x3f2346a3	0.6377966
246	0xbe4dfa46	-0.20115003
247	0x3f1a447f	0.60260767
248	0xbf8d398b	-1.1033186
249	0xbef46292	-0.47731453
250	0x3dbd910d	0.09256182
251	0x3e969856	0.29413098
252	0x3e993ff5	0.29931608
253	0x3ea33bdb	0.31881604
254	0x3eaab6fc	0.3334273
255	0xbd6c4805	-0.05768587
