treasure_island.pt (torch, 570733 bytes, 11 tensors)

weight f4 [100, 100]
0	0x3f4d459c	0.8018434
1	0xbfae85ca	-1.3634579
2	0x3d9757c5	0.073897876
3	0xbf58c94a	-0.8468214
4	0xbfa3061c	-1.273624
5	0xbf2a38a4	-0.66492677
6	0xbeb5a856	-0.35479993
7	0xc00a5a80	-2.1617737
8	0xbf5d9a13	-0.86563224
9	0x3ea4de92	0.32201058
10	0x3f5bfd91	0.85933787
11	0xbf42748d	-0.7595909
12	0xbf9dca55	-1.2327372
13	0xbf90e027	-1.1318406
14	0xbf886ce8	-1.0658236
15	0xbf2d975c	-0.6780908
16	0xbe427b8a	-0.18992439
17	0x3f097ac8	0.53702974
18	0xbeda59d6	-0.42646664
19	0x3fd116b0	1.6335049
20	0x3fb4080f	1.4064959
21	0x3efd97e4	0.49529946
22	0xbea0d628	-0.31413388
23	0xbe4d2d48	-0.20036805
24	0xbf81272a	-1.0090077
25	0x3d311f50	0.043242753
26	0xbf83a465	-1.0284544
27	0x3f880f53	1.0629677
28	0x3fc48efb	1.5356134
29	0x3ff5a988	1.9192362
30	0x3ecbfe4e	0.39842457
31	0x3dae6243	0.08514836
32	0x3fcd4f51	1.603983
33	0xbe4ef218	-0.20209539
34	0xbf846f65	-1.0346495
35	0x3da53c4e	0.08068143
36	0x3ea3c2b6	0.3198449
37	0x402b1924	2.6734095
38	0x40577096	3.3662467
39	0xbf85dc3a	-1.0457833
40	0xbc0f4cea	-0.008746365
41	0x3fc77676	1.5583026
42	0x3ed2ffe2	0.41210848
43	0x3f3119d8	0.6918006
44	0xbf84bce3	-1.0370144
45	0x3f0a86cb	0.5411193
46	0xbf2283fb	-0.63482636
47	0x3f05f28f	0.5232324
48	0x3fe33adf	1.7752341
49	0xbf2b3924	-0.66884065
50	0x3f6d28e2	0.9264051
51	0xbf8286d9	-1.0197402
52	0xbf501271	-0.8127814
53	0x3dd5c790	0.10438454
54	0x3fc8a645	1.5675741
55	0xbf0a1d9d	-0.53951436
56	0xbfb80471	-1.4376355
57	0x3d4b304e	0.049606614
58	0x3fadf42d	1.3590142
59	0xbdc2060b	-0.09473809
60	0xbfc9ea30	-1.5774593
61	0x3eeae4f6	0.45877808
62	0xbf842995	-1.032519
63	0xbec132d0	-0.3773408
64	0x3f96fa86	1.1795204
65	0xbf32b949	-0.6981397
66	0x40613089	3.5185874
67	0x3fc01879	1.5007468
68	0xbf246dae	-0.6422986
69	0xbfec1dc7	-1.8446587
70	0xbc80500c	-0.01566317
71	0xbe32d22a	-0.17462984
72	0x3fdce8db	1.7258562
73	0x3f9b0e35	1.2113711
74	0x3ee8cd3f	0.4546909
75	0xbdbdfb1f	-0.09276413
76	0x3f6e7af6	0.93156374
77	0x3ef6a8df	0.48175713
78	0x3f852104	1.04007
79	0x3f3d7dab	0.7401988
80	0xbfc87c24	-1.5662885
81	0x3f0796e2	0.52964604
82	0xbf8b2cc7	-1.087304
83	0x3da956c3	0.082685016
84	0xbfa52765	-1.2902647
85	0xbeae467a	-0.34038144
86	0xbf7d3b64	-0.9891875
87	0xbe40b225	-0.18817957
88	0x3ea8187a	0.32831174
89	0x3f8397f4	1.0280747
90	0x3f6deefd	0.9294279
91	0x3e951393	0.29116496
92	0xbf900001	-1.1250001
93	0xbd41b425	-0.04729094
94	0x3dda1a06	0.10649495
95	0x3fc5ec6a	1.5462773
96	0xbfce2e1f	-1.6107825
97	0xbfe0cd0e	-1.7562578
98	0xbd8a360b	-0.06748589
99	0x3f4290fa	0.76002467
100	0x3fe52721	1.7902566
101	0xbf7d05c1	-0.98836905
102	0xbf4921e8	-0.7856736
103	0x3ef99a1e	0.48750395
104	0xbe4dfeff	-0.20116805
105	0xbff6cc8b	-1.9281172
106	0xbf9750b7	-1.1821507
107	0x3fe2b9ba	1.7712929
108	0xbef9e54c	-0.48807752
109	0xbf8de863	-1.1086544
110	0x3f3dba2b	0.74112195
111	0xbf826141	-1.018593
112	0xbfbcb1d8	-1.4741774
113	0x3f5ba9a5	0.8580573
114	0x40150a8b	2.3287685
115	0x3f971a08	1.1804819
116	0x3e9de7c5	0.3084089
117	0x3e8fd5cb	0.280928
118	0xbf38cf0b	-0.7219092
119	0x3f9c14e2	1.2193873
120	0x3ffc02c1	1.968834
121	0xc009f67e	-2.1556697
122	0x3f62420a	0.8838202
123	0x3f8e153d	1.1100231
124	0x3e98c8ab	0.29840598
125	0x3ca39bf7	0.01997183
126	0x3f097d70	0.5370703
127	0xbf8f50b6	-1.1196506
128	0xbf21b59c	-0.6316774
129	0x3f683a9a	0.9071442
130	0x3ea174ee	0.31534523
131	0x3f83fce2	1.0311549
132	0x400f0ae6	2.2350402
133	0xbf76a978	-0.9635234
134	0x3f193a9a	0.59855044
135	0xbeca37bc	-0.39495647
136	0x3f365f24	0.71238923
137	0x3fbf2d88	1.493577
138	0x3f4d4e48	0.8019757
139	0xbf33998a	-0.70156157
140	0x3fa6a04e	1.3017671
141	0xbed2d048	-0.4117453
142	0xbf6a60f0	-0.91554165
143	0x3f8b502b	1.088384
144	0xbea071e1	-0.31336883
145	0xbfdec871	-1.740492
146	0xbf5f692c	-0.87269855
147	0x3eb142be	0.34621233
148	0x4020559c	2.5052252
149	0xbf5800fe	-0.84376514
150	0x3e2d3cff	0.169178
151	0x3fc199f9	1.5125114
152	0xbf8d0bf4	-1.1019273
153	0xbef0d2d4	-0.4703585
154	0x3fb7f589	1.4371806
155	0x3d442444	0.047886148
156	0xbe40fb17	-0.18845783
157	0xbf0d5b0d	-0.5521706
158	0x3de3a5c1	0.111155994
159	0x3fa00abc	1.2503276
160	0xbf99d8e8	-1.201932
161	0xbe79677f	-0.24355887
162	0xbfb8a51d	-1.4425389
163	0xbe4c8e46	-0.19976148
164	0xbfd2dcd9	-1.6473647
165	0x3fa1bd15	1.2635828
166	0xbf169018	-0.5881362
167	0xbf1aedbc	-0.60519004
168	0xbf94c459	-1.162242
169	0xbfa6d2ec	-1.3033118
170	0x3f9b1495	1.2115656
171	0x3f110aec	0.5665729
172	0xbedbe2d7	-0.42946503
173	0x3e2310c8	0.1592437
174	0xbed1bad5	-0.40962854
175	0xc009a590	-2.1507301
176	0xbe82d7ee	-0.25555366
177	0x3ee3bb16	0.44478673
178	0x3ee55eec	0.44798982
179	0xbecd0d93	-0.4004942
180	0x3d7fc653	0.062444996
181	0xbee13b49	-0.43990543
182	0xbec6fff7	-0.3886716
183	0x3f895d5e	1.0731618
184	0x3fdcc21e	1.724674
185	0xbf15ffc1	-0.58593374
186	0xc00d10c7	-2.204149
187	0xbec0f55a	-0.37687188
188	0xc0045546	-2.0677047
189	0x3e5e8dd7	0.21733795
190	0x3f207080	0.6267166
191	0xbe8c393e	-0.27387422
192	0xbf0db176	-0.5534891
193	0xbeab59c7	-0.33466932
194	0x3fe92a5d	1.8216053
195	0x3e39640f	0.18104576
196	0x3f084ea8	0.5324502
197	0x3a5233d4	0.0008018587
198	0x40052c28	2.08082
199	0xbdb9fabc	-0.09081027
200	0xbf30de84	-0.6908953
201	0x3f813be3	1.0096401
202	0x3ff6e62e	1.9288995
203	0x3f1261e9	0.5718065
204	0xbeab8bcc	-0.33505094
205	0xbf420f39	-0.7580448
206	0xbf8417be	-1.0319746
207	0xbf39822e	-0.72464263
208	0xbebdf4a4	-0.37100708
209	0xbf239965	-0.63905936
210	0xbf82f332	-1.0230467
211	0x3e650a30	0.22367167
212	0x3e6618e2	0.2247043
213	0x3f6be0f9	0.92140156
214	0x3fe6baad	1.8025719
215	0xbf693f9c	-0.91112685
216	0xbdff3d9b	-0.12462922
217	0xbfe1c117	-1.7637051
218	0xc0154b41	-2.3327181
219	0x3fe6b4de	1.8023946
220	0x3ff5180f	1.9147967
221	0xbff383c3	-1.9024585
222	0x3ffca845	1.9738852
223	0x3deffdf8	0.117183626
224	0x3fc8331d	1.5640599
225	0xbe2c5fa4	-0.16833359
226	0xbfae83ec	-1.3634009
227	0x3d95ccc5	0.07314447
228	0x3bbf4b20	0.005837813
229	0x3f4885e5	0.78329307
230	0xbf181e52	-0.59421265
231	0x3fdd6141	1.7295305
232	0x3fd4f451	1.663706
233	0xbeb14dfb	-0.34629807
234	0x3fab7afe	1.3396909
235	0xbe5ff552	-0.21870926
236	0xbfa46a7e	-1.2844999
237	0x3ee8d96b	0.45478377
238	0x4012ec23	2.2956626
239	0x400623bb	2.0959308
240	0xbfb36911	-1.4016439
241	0x3e87d7fa	0.26531965
242	0x3f85b029	1.0444385
243	0x3e659c04	0.22422796
244	0x3f84f257	1.0386456
245	0xbf0b7c48	-0.54486513
246	0x3f81d689	1.0143596
247	0x3d0eca82	0.034861095
248	0x3fb9f4fc	1.4527888
249	0x3f967beb	1.1756567
250	0x3f6f6558	0.93514013
251	0x3db51884	0.088425666
252	0xbf50fc42	-0.81634915
253	0xbf94d1d1	-1.1626531
254	0xbed7b25e	-0.4212827
255	0xbf790bef	-0.97283834

weight_ih_l0 f4 [300, 100]
0	0x3ed754d7	0.42056915
1	0xbe1db690	-0.15401673
2	0x3f12bc37	0.57318443
3	0x3f0b37dc	0.5438211
4	0xbe2fed91	-0.17180468
5	0x3efda335	0.4953858
6	0x3f82a9c1	1.0208055
7	0xbe2170e1	-0.15765716
8	0x3ee02607	0.43779013
9	0xbc92eceb	-0.017935237
10	0x3ebc645c	0.36795318
11	0x3edd92ab	0.4327596
12	0xbdc6e9c8	-0.09712559
13	0xbe8ff553	-0.28116855
14	0xbd8d53c9	-0.069007464
15	0xbf083b1d	-0.532152
16	0x3e621e5d	0.22081895
17	0x3e60977b	0.21932785
18	0xbe0ef851	-0.13961913
19	0xbe2cf7a6	-0.16891345
20	0x3daac38c	0.08338079
21	0xbe8831c0	-0.26600456
22	0x3ee5d98a	0.44892532
23	0x3d80c2c8	0.062871516
24	0x3de51ec1	0.111875065
25	0xbf8e7fb7	-1.1132725
26	0xbe3ed717	-0.18636738
27	0xbf0a4ea5	-0.5402625
28	0xbe6f4ff4	-0.23370343
29	0xbaa45bbd	-0.0012539547
30	0xbeb8263d	-0.35966673
31	0x3e138bcb	0.14408796
32	0x3ea55b10	0.32296038
33	0xbec72f28	-0.38903165
34	0xbe9047e6	-0.28179854
35	0x3e654d16	0.22392687
36	0x3de8e16a	0.11371119
37	0xbee26577	-0.44218037
38	0x3de56327	0.112005524
39	0xbd6db969	-0.05803815
40	0xbcbefb08	-0.02331306
41	0x3ed5ae7f	0.41734692
42	0x3eb87b87	0.36031744
43	0x3d6da154	0.058015183
44	0x3c340378	0.010987155
45	0xbddb01fe	-0.10693739
46	0x3f26f9b0	0.6522474
47	0xbded19ba	-0.115771726
48	0xbe9e04e1	-0.30863097
49	0x3ec9ba87	0.39400122
50	0x3ec80c9f	0.3907213
51	0x3c7f2564	0.015572879
52	0xbf56aa86	-0.8385395
53	0x3e1907ed	0.1494443
54	0xbee7aaeb	-0.45247588
55	0xbded5ab5	-0.115895666
56	0xbdd4acd1	-0.103845246
57	0xbf1f6db0	-0.62276745
58	0xbf8ad187	-1.0845193
59	0xbede90cb	-0.43469843
60	0xbd93cda1	-0.07216955
61	0xbf8e55d5	-1.1119944
62	0x3e449225	0.19196375
63	0xbd868dda	-0.06570025
64	0x3ebb0700	0.36528778
65	0xbf29edeb	-0.6637866
66	0xbeb76eb2	-0.3582664
67	0x3e88fb3a	0.2675417
68	0xbef19d82	-0.4719048
69	0xbcec8e74	-0.02887652
70	0x3e42e178	0.19031322
71	0xbe593537	-0.21211706
72	0xbf06e76e	-0.52696884
73	0xbdf0675e	-0.11738466
74	0xbf17634c	-0.5913589
75	0xbdfd7cee	-0.12377344
76	0xbed260ea	-0.41089565
77	0xbe523453	-0.20527773
78	0xbee40c24	-0.44540513
79	0x3e2f13fa	0.17097464
80	0x3f462eaf	0.77414984
81	0x3ec7892c	0.3897184
82	0xbcaa0c67	-0.020757867
83	0x3f0041d7	0.50100464
84	0x3de89927	0.113573365
85	0x3e2eba10	0.17063165
86	0xbee2f63b	-0.44328484
87	0x3ea23098	0.316777
88	0x3e873bea	0.26412898
89	0x3dbb1640	0.09135103
90	0xbe69f0d4	-0.22845775
91	0x3da2cfee	0.07949816
92	0x3f3bdc59	0.733831
93	0x3e9f0d44	0.31064808
94	0x3ece57ce	0.40301365
95	0x3e96869b	0.2939957
96	0xbc0feb9f	-0.008784204
97	0x3dd91e59	0.106014915
98	0xbd011930	-0.03151816
99	0xbe17195d	-0.14755769
100	0xbe189595	-0.14900811
101	0x3f2a2b0d	0.6647194
102	0xbfa8b282	-1.3179476
103	0x3d94f0e9	0.072725125
104	0x3e6b05a6	0.22951373
105	0x3e91ba81	0.28462604
106	0xbd3f8553	-0.046758007
107	0x3e5d57da	0.21615544
108	0x3dc19bde	0.094535574
109	0xbdb46d56	-0.08809917
110	0x3e801f27	0.25023767
111	0x3e023c6a	0.12718359
112	0xbcd3b261	-0.025841894
113	0xbeda11ce	-0.4259171
114	0x3df48929	0.11940224
115	0x3f960b42	1.1722186
116	0x3ed37d71	0.41306642
117	0x3ece8d36	0.4034211
118	0x3cbe0070	0.023193568
119	0x3e127213	0.14301328
120	0x3f02b060	0.51050377
121	0x3efa4b2a	0.4888547
122	0xbabc7874	-0.001437916
123	0xbe11929c	-0.14216083
124	0x3e95e698	0.29277492
125	0x3f26d1fd	0.65164167
126	0x3e425e20	0.18981218
127	0x3eda5aae	0.42647308
128	0xbf986f06	-1.1908882
129	0xbeefbfa1	-0.4682589
130	0x3f0ca493	0.5493862
131	0xbed74784	-0.4204675
132	0x3f01bdc2	0.5068017
133	0x3f27c128	0.6552911
134	0xbd1a7bb9	-0.037715647
135	0xbe907651	-0.28215268
136	0x3ea8003e	0.32812685
137	0xbeaa14e6	-0.3321907
138	0xbe54046a	-0.20704809
139	0x3f0876d7	0.53306335
140	0x3eba6d8a	0.36411697
141	0xbf0a934a	-0.54130995
142	0xbe9d1389	-0.30678967
143	0x3e5e81cf	0.21729206
144	0xbf4ecbd3	-0.8077976
145	0x3e30747f	0.1723194
146	0xbe3ae8da	-0.18252888
147	0x3eb241f0	0.3481593
148	0xbe9e8c90	-0.30966616
149	0x3f04f12a	0.5193049
150	0xbddbbd9a	-0.10729523
151	0xbf084efd	-0.53245527
152	0x3f363797	0.71178573
153	0xbf0337ba	-0.51256907
154	0x3ebb7354	0.36611426
155	0x3e398bed	0.18119784
156	0x3e59cde5	0.21269949
157	0x3f73582d	0.9505642
158	0xbe9134bd	-0.2836055
159	0x3e55734f	0.20844768
160	0xbee4c259	-0.44679525
161	0x3f0bf61d	0.54672414
162	0x3d9bb581	0.076029785
163	0x3f121be9	0.5707384
164	0x3f75d230	0.96023846
165	0x3e466547	0.19374572
166	0x3e39e37f	0.18153189
167	0xbdfb955c	-0.122843474
168	0x3e9b1d1e	0.30295652
169	0x3d997463	0.07492902
170	0x3db1c61d	0.08680365
171	0x3ec4d3d6	0.38442868
172	0xbef28cf6	-0.4737317
173	0x3ed874a9	0.42276505
174	0xbf411231	-0.7541838
175	0x3f0a5a47	0.54044
176	0x3e47c4b7	0.19508635
177	0xbf3e0efc	-0.74241614
178	0xbdad7e71	-0.084713824
179	0x3e8bd51c	0.27311027
180	0xbe370186	-0.17871675
181	0xbee2e7a5	-0.44317356
182	0xbeb81797	-0.35955498
183	0x3d7fa104	0.062409416
184	0x3e47e91f	0.19522522
185	0x3b595bda	0.003316632
186	0xbd8d30df	-0.06894087
187	0xbeb8e182	-0.3610955
188	0xbec89ba9	-0.3918126
189	0x3ec4b3b7	0.38418362
190	0x3ec1e6aa	0.37871295
191	0xbe07959e	-0.13240668
192	0xbf4e0c98	-0.80487967
193	0xbda32734	-0.07966462
194	0xbf718db3	-0.9435684
195	0xbf18c59a	-0.59676516
196	0xbebf3983	-0.37348565
197	0xbf204eb5	-0.626201
198	0xbcd038d4	-0.025417723
199	0x3e26b1d0	0.16278768
200	0x3e007027	0.12542783
201	0xbe3cc4aa	-0.18434396
202	0x3ca98905	0.020695219
203	0x3e093dc3	0.13402466
204	0xbfc2c31b	-1.5215791
205	0xbeb020a1	-0.34399894
206	0x3dffd1d7	0.12491196
207	0x3f4f8f34	0.81077886
208	0x3ec5364d	0.3851799
209	0xbf4c54ed	-0.79817086
210	0xbdbe44d4	-0.09290472
211	0xbf2c1f54	-0.672353
212	0xbeaf4592	-0.34232765
213	0x3e08336f	0.1330087
214	0xbeddb0fb	-0.43299088
215	0x3e7eb4e4	0.24873692
216	0xbf530ce0	-0.8244152
217	0x3f0b88f2	0.54505837
218	0xbe59c465	-0.21266325
219	0xbec1c63f	-0.37846562
220	0x3ec3a8df	0.38214776
221	0x3e5d54a8	0.21614325
222	0xbd9ce6a7	-0.07661181
223	0x3f858485	1.0431067
224	0xbef081b2	-0.4697395
225	0x3f35b69a	0.7098175
226	0xbfbc5be0	-1.4715538
227	0x3f2c516e	0.6731175
228	0xbfaf0d0e	-1.3675859
229	0x3f30b07b	0.6901929
230	0xbd424f08	-0.04743865
231	0xbe939e9a	-0.2883194
232	0x3e8a9fed	0.2707514
233	0x3d97535d	0.07388947
234	0xbf0255b4	-0.5091202
235	0xbeca70cb	-0.3953918
236	0xbeb4acb3	-0.3528801
237	0xbf130d3b	-0.57442063
238	0xbe5079c4	-0.2035895
239	0xbdf6c2ec	-0.12048897
240	0x3f10137a	0.5627972
241	0x3f4003d5	0.7500585
242	0x3f859fc9	1.0439388
243	0xbcc5732a	-0.024102766
244	0x3db32ad3	0.087484024
245	0x3efa7cd8	0.48923373
246	0xbddfa9d9	-0.10921068
247	0xbe7a53a2	-0.24445966
248	0x3f3f0eab	0.74631757
249	0xbe61f9b8	-0.22067916
250	0x3ef663be	0.48122972
251	0xbdae3a64	-0.08507231
252	0xbe7ba788	-0.24575627
253	0xbe5de3ee	-0.2166898
254	0xbe97c5c2	-0.29643065
255	0x3eea0bf1	0.45712236

weight_hh_l0 f4 [300, 100]
0	0x3d2c9548	0.042134553
1	0xbe1d2ccd	-0.15349121
2	0xbe880a66	-0.26570433
3	0x3e0a7dea	0.13524595
4	0xbf00481c	-0.5011003
5	0xbf11bfa7	-0.56933063
6	0x3ecddadd	0.40206042
7	0x3e12a0c9	0.14319147
8	0xbeaf00eb	-0.34180388
9	0x3d33b2b0	0.04387158
10	0x3e7835c4	0.2423926
11	0x3e746a4e	0.23868677
12	0x3e1a5a21	0.15073444
13	0x3ef724af	0.48270175
14	0xbe711d4c	-0.23546332
15	0x3eceb387	0.40371343
16	0x3e9af032	0.3026138
17	0x3e113159	0.14178981
18	0xbf07f161	-0.5310269
19	0xbf576ece	-0.8415345
20	0xbdace5e0	-0.08442283
21	0xbe6f3d4a	-0.23363224
22	0x3e4bd330	0.1990478
23	0x3f00237c	0.50054145
24	0xbed00f50	-0.40636683
25	0xbd85e067	-0.06536942
26	0xbe1a483d	-0.15066619
27	0xbf11d31a	-0.5696274
28	0xbd7080d2	-0.058716603
29	0xbe330096	-0.17480692
30	0xbe1cabbd	-0.15299888
31	0xbdf2ce63	-0.118557714
32	0x3ef491c0	0.47767448
33	0x3ece77eb	0.40325865
34	0x3fac4bf3	1.3460678
35	0x3f1ce8a2	0.6129247
36	0x3e701534	0.23445588
37	0xbe55c4f5	-0.20875914
38	0xbf24d171	-0.6438208
39	0xbf6f0e69	-0.93381363
40	0x3dff63e7	0.12470227
41	0xbf76e6ce	-0.9644593
42	0x3ebc434f	0.36770102
43	0xbe7e6057	-0.24841438
44	0x3d0fc724	0.035102025
45	0x3ed3c11a	0.41358262
46	0x3e5526c1	0.20815565
47	0x3e30f417	0.17280613
48	0x3e6816a6	0.2266489
49	0xbe96fdbf	-0.29490468
50	0x3e20d790	0.1570723
51	0x3e0716cb	0.13192289
52	0x3e265f1a	0.16247216
53	0xbd86dfb5	-0.065856375
54	0x3e3f9f72	0.18713167
55	0x3f5b64ca	0.85700667
56	0xbe3e4529	-0.1858107
57	0xbd9e098a	-0.07716663
58	0x3e024634	0.12722093
59	0xbe605283	-0.21906476
60	0xbd8a15c1	-0.067424305
61	0xbd1b27f9	-0.037879918
62	0xbecd0dd8	-0.40049624
63	0x3f839162	1.0278742
64	0xbf5583f4	-0.8340447
65	0xbe9ad37b	-0.30239472
66	0x3ecbad62	0.39780718
67	0x3c57a318	0.013161443
68	0x3dbd4613	0.09241881
69	0xbea4ede4	-0.32212746
70	0xbbc52551	-0.0060164114
71	0xbfa67821	-1.300541
72	0x3f1badc8	0.60812044
73	0x3ecb4947	0.39704344
74	0x3f5ea0b5	0.8696397
75	0x3ef0742c	0.46963632
76	0x3f1285f4	0.57235646
77	0xbf61b53e	-0.8816718
78	0xbee358e2	-0.4440375
79	0x3e7e47c6	0.24832067
80	0xbf22e448	-0.6362958
81	0xbf7e537b	-0.9934613
82	0xbf1e7820	-0.61902046
83	0x3d8611fd	0.065464
84	0x3e848725	0.25884357
85	0x3f653aac	0.8954265
86	0x3e6023d5	0.21888669
87	0x3e911f7c	0.28344333
88	0x3f0cc8ae	0.5499371
89	0x3f017c3a	0.5058018
90	0x3e996c50	0.29965448
91	0x3f083874	0.5321114
92	0x3f9ca3e0	1.2237511
93	0x3f4db577	0.8035502
94	0x3d356d6a	0.0442938
95	0xbf04f1ae	-0.51931274
96	0xbe0de554	-0.13857013
97	0x3f81fbc8	1.0154963
98	0x3e7743a7	0.24146901
99	0x3e7b36da	0.24532643
100	0x3e55d920	0.20883608
101	0x3f47342d	0.7781399
102	0x3dd81130	0.10550153
103	0x3efe6880	0.49689102
104	0x3f034c53	0.51288337
105	0x3cefc5c9	0.029269116
106	0x3f5ba5fb	0.8580014
107	0xbf359b0a	-0.70939696
108	0xbef1d671	-0.47233918
109	0x3f62291f	0.88343996
110	0xbe298862	-0.16555932
111	0xbeade39d	-0.33962718
112	0x3f351f20	0.7075062
113	0x3f615263	0.8801634
114	0xbea6ff97	-0.32616875
115	0x3e1dde48	0.15416825
116	0xbdb1254d	-0.08649693
117	0xbb9d2947	-0.0047961804
118	0xbf0d9ee4	-0.5532057
119	0x3e6a98e7	0.2290989
120	0xbf310150	-0.6914263
121	0x3eff1271	0.49818757
122	0xbf22e8bd	-0.6363638
123	0x3e701021	0.23443653
124	0xbf3d3fc1	-0.73925406
125	0x3f25fd44	0.6483958
126	0xbeada6ee	-0.3391642
127	0xbe933364	-0.28750145
128	0x3dd017f2	0.10160817
129	0xbbd280db	-0.006424052
130	0xbf1a6cae	-0.6032208
131	0xbd454713	-0.048163485
132	0xbe8fefc2	-0.28112608
133	0xbea518ac	-0.32245386
134	0x3f2bd38e	0.6711968
135	0xbe712713	-0.23550062
136	0x3ec26522	0.37967783
137	0xbf9621a2	-1.1729014
138	0xbfab35e4	-1.3375821
139	0x3f0b21b6	0.54348314
140	0xbefc01f7	-0.4922025
141	0xbec1cdf0	-0.3785243
142	0x3f05c8aa	0.52259314
143	0x3ef08ecb	0.46983942
144	0x3deef50c	0.11667833
145	0x3fc80df2	1.5629256
146	0xbde3c416	-0.11121385
147	0x3efc08b0	0.49225378
148	0x3c396cbd	0.011317429
149	0xbf6b4a4a	-0.9191023
150	0x3f389793	0.72106284
151	0x3da08ee9	0.07839758
152	0xbe9a1948	-0.30097413
153	0x3e5acbe6	0.21366844
154	0x3f766601	0.96249396
155	0x3e6f2036	0.23352131
156	0x3da2ca1e	0.07948707
157	0x3e4cdb59	0.2000555
158	0xbf116853	-0.5679981
159	0x3be42980	0.006962955
160	0xbf1900ec	-0.5976703
161	0x3eb7904d	0.3585228
162	0xbe0cb6b6	-0.13741574
163	0x3e8f91fd	0.28041068
164	0xbf970f50	-1.1801548
165	0xbddad8cf	-0.10685884
166	0x3fb68645	1.4259726
167	0xbf3d4f96	-0.73949564
168	0x3f2bbb31	0.67082506
169	0x3db0052e	0.08594738
170	0xbfaba255	-1.3408915
171	0x3ee9178c	0.45525777
172	0x3f011bee	0.5043324
173	0xbf032796	-0.5123228
174	0xbf77476b	-0.9659335
175	0xbf3f8e12	-0.7482616
176	0x3c382c27	0.0112409955
177	0x3e7b0853	0.24514894
178	0x3e8b6573	0.27225837
179	0xbf4724ef	-0.7779073
180	0xbf096af6	-0.53678834
181	0xbc4cb0ee	-0.012493355
182	0x3f9320e1	1.1494409
183	0xbd9861ca	-0.07440527
184	0xbf06e2ac	-0.52689624
185	0xbe586e28	-0.21135771
186	0x3ee30959	0.4434307
187	0xbf61c947	-0.8819775
188	0xbeea9d9b	-0.45823368
189	0x3ee74cb0	0.45175695
190	0xbc2f1fdc	-0.010688748
191	0xbf29653a	-0.66170084
192	0xbe4d3165	-0.20038374
193	0xbd549e95	-0.051909048
194	0x3de4d0b3	0.11172619
195	0xbabb8e2c	-0.0014309338
196	0xbf2990f9	-0.66236836
197	0xbe3ed5af	-0.18636201
198	0x3fbec894	1.4904962
199	0x3e8f3027	0.27966425
200	0x3f8fcdd5	1.123469
201	0xbb942c2a	-0.0045218663
202	0xbef2329b	-0.47304234
203	0xbfa4826f	-1.2852305
204	0x3f367513	0.7127239
205	0xbe7ebacd	-0.24875946
206	0x3f4abe0f	0.79196256
207	0x3eebb374	0.4603535
208	0xbec01831	-0.37518457
209	0xbe14ef2d	-0.14544363
210	0xbf29beaa	-0.66306555
211	0x3f274e33	0.653537
212	0x3e1f6857	0.15567146
213	0xbd92691e	-0.07148956
214	0xbf325094	-0.696542
215	0x3ec16b45	0.37777153
216	0x3f6163ae	0.88042724
217	0x3e4739c2	0.19455627
218	0xbdc9eba6	-0.098593995
219	0x3f8af924	1.0857282
220	0x3b97e93c	0.004635958
221	0x3e105e46	0.14098462
222	0x3d9f278d	0.077712156
223	0xbf738c7e	-0.9513625
224	0xbfbcab95	-1.4739863
225	0xbe0f9136	-0.14020237
226	0x3f916f0d	1.1362015
227	0xbef2d397	-0.47427055
228	0x3f16333d	0.58671933
229	0xbd61906b	-0.05506937
230	0xbd063d08	-0.032773048
231	0x3fdb7aae	1.7146814
232	0x3edb5380	0.42837143
233	0x3f264e13	0.6496288
234	0xbee6bd51	-0.45066312
235	0xbdcb7f6c	-0.09936413
236	0xbedc4457	-0.4302089
237	0x3f0e4502	0.5557405
238	0xbe1c9466	-0.15290985
239	0xbf13a3d8	-0.5767188
240	0x3e8e6210	0.2780919
241	0xbe047a30	-0.12937236
242	0x3f08858d	0.5332878
243	0x3e0012b5	0.12507136
244	0xbe433ba8	-0.19065726
245	0xbd94217d	-0.0723295
246	0x3f0ad9a9	0.54238373
247	0x3f037846	0.513554
248	0x3e5ff82b	0.21872012
249	0xbf064a74	-0.52457356
250	0x3e1e4a8c	0.15458125
251	0x3dbbfcba	0.09179063
252	0xbf18cd2f	-0.59688085
253	0xbf83c6e1	-1.0295068
254	0xbf071e12	-0.5278026
255	0x3df55f5b	0.11981078

bias_ih_l0 f4 [300]
0	0xbea89dc3	-0.32932863
1	0xbe7e414b	-0.24829595
2	0xbe102499	-0.14076461
3	0xbe9314b4	-0.28726733
4	0xbe9ddd67	-0.3083298
5	0xbd62be0d	-0.055357028
6	0xbed0b98d	-0.40766564
7	0xbe033e48	-0.12816727
8	0xbe61a7d7	-0.22036682
9	0x3d5d1844	0.05397822
10	0xbd1a832d	-0.037722755
11	0xbce5b25f	-0.028039156
12	0xbe6a924a	-0.22907367
13	0x3cbfab89	0.023397224
14	0x3e1343b7	0.143813
15	0x3db743fb	0.08948513
16	0x3e2b6ac0	0.1673994
17	0x3e8e4c97	0.27792808
18	0xbed266d4	-0.41094077
19	0x3ed505c2	0.41605955
20	0xbe9c3192	-0.3050657
21	0xbf318d79	-0.69356495
22	0x3ddc450c	0.10755357
23	0xbed5145e	-0.416171
24	0xbd0a5f90	-0.03378254
25	0x3e10722a	0.1410605
26	0xbef4222f	-0.4768233
27	0xbdba942b	-0.09110292
28	0xbdbe2d3d	-0.09285972
29	0x3d227ab0	0.039667785
30	0xbd00db02	-0.031458862
31	0x3cc89b16	0.024488013
32	0xbed68717	-0.4189994
33	0xbdf9d530	-0.121988654
34	0xbc3393da	-0.0109605435
35	0xbf35ebeb	-0.7106311
36	0xbe96df34	-0.29467165
37	0xbea50e7e	-0.3223762
38	0x3cf2cca2	0.029638592
39	0xbdcf1ba2	-0.101126924
40	0xbefdc2fa	-0.49562818
41	0xbbf18fe4	-0.0073718894
42	0x3d4c269f	0.04984152
43	0xbe7395d5	-0.23787625
44	0xbe63844c	-0.22218436
45	0xbe261002	-0.16217044
46	0xbe0145a3	-0.1262422
47	0xbe9e4792	-0.3091398
48	0xbe0f3b00	-0.1398735
49	0xbd170372	-0.03686852
50	0xbe9ca5f4	-0.30595362
51	0xbe9365a2	-0.28788477
52	0xbeae03cb	-0.3398727
53	0xbea22c2c	-0.31674325
54	0x3e0ca53a	0.13734904
55	0xbf184a11	-0.59488016
56	0x3e6863bd	0.22694297
57	0x3e08aca6	0.1334711
58	0xbe124361	-0.14283516
59	0xbe375f8b	-0.1790754
60	0x3d26f117	0.040757265
61	0xbeaae856	-0.33380383
62	0xbe815060	-0.25256634
63	0xbe8a5fd9	-0.2702625
64	0xbe201c94	-0.15635902
65	0xbee35c3d	-0.4440631
66	0x3bf72a4b	0.0075428835
67	0x3e3f2e24	0.18669945
68	0x3e04adac	0.12956876
69	0x3e3550c6	0.17706594
70	0x3ed3b834	0.41351473
71	0xbe7086e1	-0.23488952
72	0x3dcb105d	0.099152304
73	0x3e0dfb45	0.13865383
74	0xbe8a8100	-0.27051544
75	0xbef45101	-0.4771805
76	0xbcc7ea39	-0.024403678
77	0xbe66b4df	-0.22529934
78	0xbdca236f	-0.0987004
79	0x3de95c59	0.11394567
80	0x3d01ecc9	0.031719957
81	0xbe964501	-0.2934952
82	0xbef50325	-0.47853962
83	0xbd476883	-0.048683655
84	0x3e2e079d	0.16995092
85	0xbe56f9b1	-0.20993687
86	0xbe4caf81	-0.19988824
87	0x3d5e8bdf	0.05433261
88	0x3e2c106c	0.1680314
89	0xbc3264a2	-0.010888251
90	0x3e06d040	0.13165379
91	0x3eb1fafa	0.34761792
92	0xbe987023	-0.29773054
93	0xbe248817	-0.16067539
94	0xbe45eebe	-0.19329354
95	0x3e03ee03	0.12883763
96	0x3e18a313	0.14905958
97	0x3e8a7096	0.2703902
98	0x3d8ace42	0.06777622
99	0xbdda596d	-0.10661588
100	0xbf106247	-0.5639996
101	0xbf041293	-0.5159084
102	0xbf83db9c	-1.0301394
103	0xbf15a036	-0.5844759
104	0xbf7436d4	-0.9539616
105	0xbeb7f4cd	-0.35928956
106	0xbeed8cef	-0.46396586
107	0xbd13cbdb	-0.036083084
108	0xbf1a3e5f	-0.6025142
109	0xbe9b51c2	-0.30335814
110	0xbeb157ec	-0.34637392
111	0xbf31e7ba	-0.6949421
112	0x3dbfb70a	0.09361084
113	0xbdfdc6d8	-0.12391442
114	0xbf324c65	-0.6964782
115	0xbf08d346	-0.5344738
116	0xbdf6fdbb	-0.12060114
117	0xbc2d98ca	-0.01059551
118	0xbe903f3f	-0.28173253
119	0xbe6bbd7f	-0.23021506
120	0xbf3e8b4c	-0.744313
121	0xbf3cf519	-0.7381149
122	0xbf4814af	-0.7815656
123	0xbf104ee7	-0.56370395
124	0xbe5fd6f6	-0.21859345
125	0xbf229019	-0.63501126
126	0xbf014b8c	-0.505059
127	0xbf5253d2	-0.8215915
128	0xbe44e89e	-0.19229361
129	0xbef6b480	-0.48184586
130	0xbf7da536	-0.99080217
131	0xbe06c1b1	-0.13159825
132	0xbef8affd	-0.48571768
133	0xbf895637	-1.0729436
134	0xbe5c0c42	-0.21489051
135	0xbef22a76	-0.4729802
136	0xbda1910e	-0.07888995
137	0xbe978639	-0.2959459
138	0x3d23ed42	0.04002119
139	0xbf07ac86	-0.52997625
140	0xbea9f906	-0.33197802
141	0xbe57d748	-0.21078217
142	0xbf4f30f8	-0.80934095
143	0xbedfc971	-0.43708375
144	0xbec124e2	-0.37723452
145	0xbe87f6af	-0.26555392
146	0xbe6a5523	-0.2288404
147	0xbf3e50b4	-0.74341893
148	0xbf34c66d	-0.70615274
149	0xbf10962d	-0.5647915
150	0xbf5d8332	-0.86528313
151	0xbf6208a0	-0.8829441
152	0xbf087e7b	-0.53317994
153	0xbf71eb8e	-0.9450005
154	0xbf4b5181	-0.7942124
155	0xbf633031	-0.8874541
156	0xbee7e87f	-0.45294568
157	0xbf2080a5	-0.62696296
158	0xbe7a0e9c	-0.24419636
159	0xbeb17d69	-0.34665993
160	0xbf331e20	-0.6996784
161	0xbef7b999	-0.48383787
162	0xbe92df59	-0.28686026
163	0xbf370a6a	-0.71500266
164	0xbefe5be7	-0.4967949
165	0xbeedc27c	-0.46437442
166	0xbe8535cd	-0.2601761
167	0xbf5c6803	-0.8609621
168	0xbf127818	-0.572145
169	0xbf72974c	-0.9476211
170	0xbf04c967	-0.51869816
171	0xbe7983fb	-0.24366753
172	0xbe880dfd	-0.26573172
173	0xbefad583	-0.48991022
174	0xbe7620a8	-0.24035895
175	0xbe2fc8f0	-0.17166495
176	0xbda371f5	-0.0798072
177	0xbed98421	-0.4248362
178	0xbdfb877d	-0.12281702
179	0xbf5f62eb	-0.8726031
180	0xbe68ec94	-0.22746497
181	0xbde3bdec	-0.11120209
182	0xbf08eeba	-0.5348927
183	0xbedf374c	-0.43596876
184	0xbf1ac115	-0.6045087
185	0xbea5699a	-0.3230713
186	0xbd9c7241	-0.0763898
187	0xbf27593e	-0.6537055
188	0xbf257fcb	-0.6464812
189	0xbf45b30a	-0.77226317
190	0xbe9b7759	-0.30364493
191	0xbf081f19	-0.5317245
192	0xbe39e318	-0.18153036
193	0xbeb705fc	-0.35746753
194	0xbf02fa72	-0.511634
195	0xbec458a3	-0.38348874
196	0xbebd38de	-0.3695745
197	0xbf51bddc	-0.8193033
198	0xbe5b8c18	-0.2144016
199	0xbf7db47d	-0.9910353
200	0x3d6695b8	0.056295127
201	0xbd6403ed	-0.055667806
202	0x3e25c9e9	0.16190304
203	0xbd8a7a0e	-0.06761561
204	0xbde25889	-0.11052043
205	0x3dc531b3	0.0962862
206	0x3debb8d7	0.11509865
207	0xbe8c15b3	-0.27360305
208	0x3e0a2c81	0.1349354
209	0xbe17f115	-0.14838059
210	0xbe45e1e5	-0.19324453
211	0xbde6a8f4	-0.11262694
212	0x3df914d1	0.121621735
213	0x3e4001be	0.18750665
214	0x3e3746a8	0.17898047
215	0xbe502127	-0.20325147
216	0xbcce9619	-0.025218057
217	0xbbe090ee	-0.0068532145
218	0xbdd36f9e	-0.10324024
219	0x3ef1d673	0.47233924
220	0xbdf5ab27	-0.11995535
221	0x3e1acd09	0.15117277
222	0xbf1a5ac1	-0.6029473
223	0x3deb8c6a	0.11501391
224	0x3db835c3	0.08994629
225	0x3ca3a21b	0.019974759
226	0xbd1eba9f	-0.038752194
227	0x3d9ff357	0.07810085
228	0x3f06e1c7	0.5268826
229	0xbe39592a	-0.1810042
230	0x3e4df298	0.20112073
231	0x3e901b1d	0.28145686
232	0x3bb63809	0.005560879
233	0xbee4f2a8	-0.44716382
234	0x3b9e4a99	0.00483067
235	0x3c931823	0.017955845
236	0xbcb2494b	-0.021763464
237	0xbd851904	-0.06498912
238	0xbe71c5dd	-0.23610635
239	0xbd2ed186	-0.042680286
240	0x3e725beb	0.23667876
241	0xbe8f5287	-0.2799265
242	0xbd6aa9ce	-0.057290845
243	0x3e257d53	0.16161089
244	0x3c7960dc	0.015220847
245	0xbdc9d43a	-0.09854932
246	0x3e9740da	0.29541665
247	0x3ee0066d	0.43754902
248	0x3e0f084f	0.13968013
249	0x3ea1fe1f	0.31639192
250	0xb8668640	-5.4961303e-05
251	0x3dca971d	0.09892104
252	0x3d562f72	0.05229134
253	0xbe0f064c	-0.13967246
254	0xbef57b32	-0.47945553
255	0xbd9d3742	-0.07676555

bias_hh_l0 f4 [300]
0	0xbe8d8b75	-0.2764546
1	0xbeda27f8	-0.4260862
2	0xbd054447	-0.032535817
3	0xbe52cdce	-0.20586321
4	0xbe993e0b	-0.29930148
5	0xbe054420	-0.13014269
6	0xbee0f58d	-0.4393734
7	0xbe097960	-0.13425207
8	0xbe7bd7da	-0.2459406
9	0x3d318563	0.043340098
10	0xbdffc8dd	-0.124894835
11	0x3c885d43	0.016646033
12	0xbe78121f	-0.24225663
13	0xbdb0d407	-0.08634191
14	0x3de4e8b4	0.11177197
15	0x3e176163	0.14783244
16	0x3e24da91	0.16099001
17	0x3e83bbc6	0.25729197
18	0xbed62aea	-0.41829616
19	0x3f06433f	0.5244636
20	0xbe8f1c70	-0.27951384
21	0xbf38e1a1	-0.7221928
22	0x3e1fb7c5	0.15597446
23	0xbebc6490	-0.36795473
24	0xbdf25b02	-0.118337646
25	0x3db30a6d	0.08742223
26	0xbec9aa84	-0.39387906
27	0xbd77274c	-0.06034021
28	0xbd80f4b8	-0.062966764
29	0x3e02825e	0.12745044
30	0x3d9dc776	0.0770406
31	0x3d868ca7	0.06569796
32	0xbed9fee7	-0.42577288
33	0xbd01effb	-0.031723004
34	0x3bf6566f	0.007517628
35	0xbf1e8ec4	-0.61936593
36	0xbe9dd074	-0.308231
37	0xbeb380e8	-0.35059285
38	0xbd95678d	-0.07295141
39	0xbd064ce1	-0.03278816
40	0xbf1aff59	-0.6054588
41	0x3c8613af	0.016366808
42	0x3e5d66f3	0.21621303
43	0xbe2d304f	-0.1691296
44	0xbe7491bc	-0.23883718
45	0xbdad5bae	-0.08464752
46	0xbcda7d27	-0.026671005
47	0xbe957b66	-0.29195708
48	0xbe19dba4	-0.15025192
49	0xbd84f5eb	-0.06492218
50	0xbe9afc64	-0.30270684
51	0xbe950e36	-0.29112405
52	0xbe852ac7	-0.260092
53	0xbebb9d0c	-0.36643255
54	0x3df42392	0.11920847
55	0xbf1439c9	-0.57900673
56	0x3decc178	0.11560339
57	0x3e2e7e1e	0.17040297
58	0xbe44ae87	-0.19207202
59	0xbd410694	-0.047125414
60	0xbddbaa2b	-0.10725816
61	0xbec23658	-0.37932086
62	0xbeac6fd8	-0.3367908
63	0xbe90f4f1	-0.28311875
64	0x3cb15810	0.021648437
65	0xbebcb7b5	-0.36858907
66	0x3bcf371a	0.0063237073
67	0x3e22d20c	0.15900439
68	0x3e013aab	0.12620036
69	0x3e0fd81a	0.1404728
70	0x3ee261c4	0.44215214
71	0xbe99b6df	-0.30022332
72	0x3c1e9515	0.009679099
73	0x3d8840db	0.06652995
74	0xbeb9735a	-0.3622082
75	0xbed3c0c7	-0.41358015
76	0x3c97be8d	0.018523479
77	0xbe596821	-0.21231128
78	0xbd553c29	-0.052059326
79	0xbcd2729b	-0.025689414
80	0x3d5d0899	0.053963277
81	0xbeb15f51	-0.34643033
82	0xbef9b6f9	-0.4877241
83	0x3d304173	0.043031167
84	0x3b9f8d35	0.004869128
85	0xbd99e84e	-0.07515012
86	0xbe82441c	-0.25442588
87	0x3cd27416	0.02569012
88	0x3e2a57fe	0.16635129
89	0x3e22d751	0.15902449
90	0x3cb79115	0.022408048
91	0x3e72b0af	0.23700212
92	0xbe5ebc74	-0.21751577
93	0xbdbec909	-0.09315688
94	0xbe9fb0cb	-0.3118957
95	0x3d90bdc3	0.07067444
96	0x3d5d9239	0.054094527
97	0x3edd0b16	0.4317252
98	0x3e036c46	0.12834272
99	0xbe48907f	-0.19586371
100	0xbf23be15	-0.6396192
101	0xbf0be14b	-0.54640645
102	0xbf78f894	-0.972543
103	0xbee920f1	-0.45532945
104	0xbf6fcd3e	-0.9367255
105	0xbedf8175	-0.43653455
106	0xbec263db	-0.3796681
107	0xbde66b42	-0.112509266
108	0xbf16febb	-0.5898244
109	0xbe7d685b	-0.2474684
110	0xbe9d1992	-0.3068357
111	0xbf1c6e92	-0.61106217
112	0x3e02d3b2	0.12776068
113	0xbe23fb66	-0.1601387
114	0xbf518263	-0.8183958
115	0xbee087a1	-0.43853477
116	0xbe98d40d	-0.29849282
117	0x3cf58216	0.029969256
118	0xbedfd4a6	-0.43716925
119	0xbe87013e	-0.26368135
120	0xbf272484	-0.65290093
121	0xbf3535ed	-0.7078541
122	0xbf33c7ab	-0.70226544
123	0xbef07181	-0.46961597
124	0xbe5e4a68	-0.21708071
125	0xbf1346a8	-0.5752969
126	0xbece6777	-0.40313312
127	0xbf45af34	-0.77220464
128	0xbe3adc12	-0.18248013
129	0xbec68666	-0.38774413
130	0xbf6bbf12	-0.92088425
131	0xbe2ac9ee	-0.16678593
132	0xbeb8bc57	-0.36081192
133	0xbf6a4654	-0.9151356
134	0xbe3d4dc2	-0.18486694
135	0xbef40a32	-0.47664028
136	0xbe135055	-0.14386113
137	0xbde23384	-0.11044982
138	0x3e250eb8	0.16118896
139	0xbeeeeceb	-0.4666513
140	0xbeab95ba	-0.3351267
141	0xbe6e7883	-0.23288159
142	0xbf4f2f98	-0.80932
143	0xbee0a5f7	-0.4387662
144	0xbea28736	-0.31743783
145	0xbe8df9db	-0.27729687
146	0xbe3dc1e7	-0.18530999
147	0xbf6460bc	-0.89210105
148	0xbf2c3ad7	-0.6727728
149	0xbef87115	-0.48523775
150	0xbf618810	-0.8809824
151	0xbf59d152	-0.8508502
152	0xbf04e863	-0.51917094
153	0xbf43b860	-0.7645321
154	0xbf4b97f5	-0.79528743
155	0xbf539fdb	-0.82665795
156	0xbf1375cc	-0.5760162
157	0xbf22f5b9	-0.63656193
158	0xbe8acdd8	-0.2711017
159	0xbe71105a	-0.23541394
160	0xbf02c74d	-0.5108536
161	0xbee92481	-0.45535663
162	0xbecdf835	-0.4022843
163	0xbf0ed96a	-0.558005
164	0xbf057c13	-0.5214245
165	0xbf1ed467	-0.6204285
166	0xbe8589ab	-0.26081595
167	0xbf64057b	-0.8907086
168	0xbf01c9e7	-0.50698704
169	0xbf6964e8	-0.91169596
170	0xbef13db9	-0.47117403
171	0xbea80146	-0.32813472
172	0xbec2191d	-0.37909785
173	0xbeb6524b	-0.3560966
174	0xbe46e982	-0.19425014
175	0xbe9544d5	-0.29154077
176	0xbe404ca5	-0.18779238
177	0xbf0dea87	-0.55435985
178	0xbe039123	-0.12848334
179	0xbf661ffd	-0.8989256
180	0xbe79c3d6	-0.24391112
181	0xbe8e5b9c	-0.27804267
182	0xbef58004	-0.4794923
183	0xbead9074	-0.3389927
184	0xbee50dec	-0.44737184
185	0xbebb5b94	-0.36593306
186	0xbe2c2c4b	-0.16813771
187	0xbf0073b8	-0.5017657
188	0xbf2cc597	-0.67489
189	0xbf4a90e2	-0.79127324
190	0xbea15e11	-0.3151708
191	0xbf124465	-0.5713561
192	0xbe80fd36	-0.25193185
193	0xbe99bd64	-0.30027306
194	0xbf0415e2	-0.5159589
195	0xbec9b9ef	-0.3939967
196	0xbeab0466	-0.33401793
197	0xbf5ec756	-0.8702291
198	0xbe9d6115	-0.3073813
199	0xbf530f7b	-0.82445496
200	0x3eb2fd5e	0.3495893
201	0xbf0a89ff	-0.54116815
202	0x3e912dbc	0.28355205
203	0xbde4642e	-0.1115192
204	0x3d71b549	0.059010778
205	0xbdc34029	-0.09533722
206	0xbd293426	-0.0413095
207	0x3e1a4134	0.15063936
208	0xbe75d5cc	-0.24007338
209	0x3d0f5ee1	0.035002593
210	0xbf028f7d	-0.51000196
211	0x3ec57e86	0.38573092
212	0x3da086c2	0.07838203
213	0x3e6b3be2	0.22972062
214	0xbf3247ef	-0.6964101
215	0xbf301eb2	-0.6879684
216	0x3d8ab9c0	0.0677371
217	0xbea73084	-0.32654202
218	0x3ed860cf	0.4226136
219	0x3e8307db	0.2559193
220	0xbf03d6b4	-0.51499486
221	0x3e5a1651	0.21297576
222	0xbf16ee21	-0.58957106
223	0xbe0d1d8b	-0.13780801
224	0x3e208da4	0.15679032
225	0x3f116039	0.5678745
226	0x3e93e79f	0.2888765
227	0x3e86a200	0.2629547
228	0xbde87b15	-0.11351601
229	0xbf15a77d	-0.5845869
230	0x3f11549b	0.5676972
231	0x3f19bb6c	0.6005161
232	0x3f5cc6c7	0.8624081
233	0xbf7bf621	-0.9842244
234	0x3e2e6277	0.17029749
235	0xbe80eb2d	-0.25179425
236	0xbec60335	-0.38674322
237	0xbcf34497	-0.029695792
238	0xbe6a5914	-0.22885543
239	0xbd7c5f4a	-0.061614312
240	0xbdf07ab0	-0.11742151
241	0x3e2506e7	0.16115914
242	0x3ee5f2e4	0.44911873
243	0x3f48e6c4	0.7847712
244	0xbeedd5c2	-0.46452147
245	0xbec44ce3	-0.3833991
246	0x3ef6b529	0.4818509
247	0xbd965c99	-0.0734188
248	0xbe3ea205	-0.18616493
249	0xbd1908c1	-0.037361864
250	0xbe745b2a	-0.23862901
251	0x3eb0fef2	0.34569508
252	0x3e57052f	0.20998071
253	0xbe6a0157	-0.22852074
254	0xbf0bc191	-0.54592234
255	0xbe8b344b	-0.27188334

weight_ih_l1 f4 [300, 100]
0	0x3ecfe622	0.40605265
1	0x3e39653a	0.18105021
2	0x3e2f7c13	0.17137174
3	0xbe1b1128	-0.15143263
4	0x3f8754b8	1.0572729
5	0x3d906b4a	0.07051714
6	0xbe46695b	-0.19376127
7	0xbd37096a	-0.044686712
8	0x3ef5ea3d	0.48030272
9	0xbe7e15fb	-0.24813072
10	0xbd9628ae	-0.07331978
11	0xbf01a6cb	-0.5064513
12	0xbda074dc	-0.07834789
13	0x3d941499	0.07230491
14	0x3aa516fc	0.0012595351
15	0xbda1f8a4	-0.079087526
16	0x3daefce1	0.085443266
17	0xbe90377a	-0.28167325
18	0xbe781fdb	-0.24230902
19	0x3eb1a965	0.3469955
20	0x3e17dab5	0.14829524
21	0x3e8f0e0c	0.27940404
22	0xbe463fb2	-0.19360235
23	0x3f10636a	0.56401694
24	0xbe41ff66	-0.18945083
25	0x3e8838e0	0.26605892
26	0xbc524a5a	-0.01283511
27	0x3ec5980d	0.38592568
28	0x3dbd394b	0.092394434
29	0xbe3a6b1c	-0.18204921
30	0x3ef1f282	0.4725533
31	0x3d9f51d1	0.07779277
32	0x3e17425b	0.14771406
33	0xbd0137e6	-0.03154745
34	0xbe29a579	-0.16567029
35	0xbe1248a5	-0.14285524
36	0x3c867b7c	0.016416304
37	0xbd956f56	-0.07296626
38	0x3eafb33c	0.34316432
39	0x3e017646	0.12642774
40	0xbe2f9d22	-0.17149785
41	0xbee2e9a9	-0.44318894
42	0x3e1a11c1	0.15045835
43	0x3e1fa0b4	0.15588647
44	0xbe00d54f	-0.12581371
45	0x3d3bd235	0.045854766
46	0x3d27d602	0.040975578
47	0x3e851e9f	0.25999925
48	0x3be30858	0.006928485
49	0xbf103a3c	-0.5633886
50	0xbc603fe8	-0.013687111
51	0x3df1ef64	0.11813238
52	0x3e42cd71	0.19023682
53	0xbddd7b2f	-0.10814511
54	0xbd4a7cec	-0.04943554
55	0xbe0800bf	-0.13281535
56	0x3da724d0	0.08161318
57	0x3e736c9d	0.23771901
58	0x3c13b040	0.009014189
59	0xbe4f3191	-0.20233752
60	0xbde8d3a2	-0.11368491
61	0xbdd2dc66	-0.10295944
62	0xbedfce05	-0.43711868
63	0x3e96b6a4	0.2943622
64	0x3e842888	0.25812173
65	0x3e158721	0.14602329
66	0xbe05ef7d	-0.13079639
67	0xbeb0af34	-0.3450867
68	0xbe1689e2	-0.14701036
69	0x3e81776e	0.2528643
70	0xbef03ced	-0.46921483
71	0xbdb29af6	-0.08720963
72	0xbd466dae	-0.048444442
73	0x3d6b27d0	0.057411015
74	0x3eb10c55	0.3457972
75	0x3e097e69	0.13427128
76	0xbd00e19e	-0.031465165
77	0x3dcc48f3	0.099748515
78	0x3e8f9145	0.2804052
79	0xbd8c34d2	-0.06846012
80	0x3e5ff09a	0.21869126
81	0xbb310de1	-0.002701633
82	0x3e1c3dcc	0.15257949
83	0xbc4d7a14	-0.012541313
84	0xbdc4677f	-0.09590053
85	0xbbdf05f8	-0.0068061315
86	0x3cdbe9e6	0.02684493
87	0x3d639c0e	0.055568747
88	0xbee22bfc	-0.44174182
89	0x3d0d7037	0.034530845
90	0xbe232e56	-0.15935645
91	0xbe4100f9	-0.18848027
92	0x3bb0c157	0.0053941417
93	0x3ee1a8bc	0.44074047
94	0xbe3263eb	-0.17420928
95	0x3f2378f6	0.63856447
96	0x3e6cb62b	0.23116367
97	0x3db034f2	0.086038485
98	0x3c8fe037	0.017562969
99	0x3dbbda95	0.091725506
100	0x3eef9a3f	0.46797368
101	0xbe657e97	-0.22411571
102	0x3eed5e2e	0.46360916
103	0x3f3038f1	0.68836886
104	0xbc11135c	-0.008854713
105	0x3c6816aa	0.01416556
106	0x3eb5ac6d	0.35483113
107	0xbe829682	-0.25505453
108	0x3f19803c	0.59961295
109	0xbe8b2684	-0.27177823
110	0x3e9919b3	0.2990242
111	0x3f200502	0.6250764
112	0xbf00a2b9	-0.50248295
113	0xbf4b6381	-0.79448706
114	0x3ddd7921	0.10814119
115	0xbe836260	-0.25660992
116	0xbf0bc103	-0.5459139
117	0xbdd46c77	-0.103722505
118	0xbf1e01f7	-0.6172175
119	0x3d6bf5cb	0.057607453
120	0xbf42d5c5	-0.76107436
121	0xbeed19e2	-0.4630881
122	0xbc79a25b	-0.0152364625
123	0xbeff132b	-0.49819311
124	0x3db883fd	0.0900955
125	0x3f07faac	0.5311687
126	0x3ea09e51	0.31370786
127	0xbe8004ee	-0.2500376
128	0x3f58b6ec	0.84654117
129	0x3f06fee1	0.52732664
130	0x3e41ef9a	0.18939057
131	0xbde19a18	-0.11015719
132	0x3da606c8	0.08106762
133	0x3d9760cf	0.07391512
134	0x3f257935	0.6463807
135	0x3e84c6f8	0.2593305
136	0xbe2cfcb3	-0.16893272
137	0x3e2d63e6	0.1693264
138	0x3e5192aa	0.20466104
139	0x3eb74012	0.3579107
140	0x3d83c71c	0.064344615
141	0xbef79b3a	-0.48360616
142	0xbe9abce5	-0.3022224
143	0x3f61a5d1	0.8814364
144	0xbec26ef1	-0.37975267
145	0xbd754d89	-0.059888396
146	0xbe82bc6f	-0.25534388
147	0x3d87ee2e	0.06637226
148	0xbea88ff6	-0.32922333
149	0xbf32e3fa	-0.69879115
150	0x3e9e02df	0.30861565
151	0x3e9566f9	0.29180124
152	0xbc9675dc	-0.018366747
153	0xbf20d172	-0.6281959
154	0xbe0f95e4	-0.14022022
155	0xbea96cdb	-0.33090863
156	0x3fe51d0e	1.7899492
157	0xbf065fa3	-0.5248968
158	0x3d80e789	0.06294162
159	0x3d3b7f7c	0.045775875
160	0x3f77b099	0.9675384
161	0x3f3563ea	0.7085558
162	0x3e1898e0	0.14902067
163	0xbeb2a208	-0.34889245
164	0x3d8dc334	0.06921998
165	0x3cac42eb	0.021028003
166	0xbdb6ec2b	-0.08931764
167	0xbeaec385	-0.34133545
168	0x3e9dd24a	0.308245
169	0x3ef02ec1	0.4691067
170	0xbc86a961	-0.016438188
171	0xbe78b7f0	-0.24288917
172	0xbe3d8190	-0.18506455
173	0x3f2780b3	0.65430754
174	0x3ea6326c	0.32460344
175	0xbeb89c9b	-0.3605698
176	0x3ea8dcc1	0.32980922
177	0x3e7175f4	0.23580152
178	0x3f2a70be	0.6657828
179	0x3d9e5580	0.077311516
180	0x3e918327	0.28420374
181	0xbf1d1a6a	-0.6136843
182	0x3f481de9	0.7817064
183	0x3e8cba1b	0.27485737
184	0x3ed9f70f	0.42571303
185	0xbe1a265e	-0.15053698
186	0x3ea24694	0.31694472
187	0x3ef1bc55	0.47213998
188	0x3eca7cbf	0.395483
189	0x3f6b355e	0.91878307
190	0xbed0ac02	-0.40756232
191	0xbf6e9995	-0.932031
192	0x3efafe66	0.49022216
193	0xbe4d70dc	-0.20062584
194	0x3ead9570	0.33903074
195	0xbd8de1ee	-0.06927858
196	0x3f3bf9b7	0.7342791
197	0x3f08bb92	0.5341121
198	0x3e00abc9	0.12565531
199	0x3e8dc5b5	0.276899
200	0xbedb1f6a	-0.42797405
201	0x3c369dac	0.01114599
202	0xbecc2f23	-0.39879712
203	0xbe3662fd	-0.17811199
204	0xbecf6647	-0.4050772
205	0x3e092681	0.13393594
206	0x3dadd9c7	0.08488803
207	0x3e7a04de	0.24415919
208	0x3f75a2c0	0.9595146
209	0x3dc09884	0.0940409
210	0x3c886194	0.016648091
211	0x3ead2290	0.33815432
212	0xbc86cb2f	-0.016454307
213	0xbe85d783	-0.26140985
214	0xbf41fccc	-0.7577636
215	0xbcd19bac	-0.025586925
216	0x3e7b7de0	0.24559736
217	0xbd808943	-0.062761806
218	0xbdb1e5af	-0.08686387
219	0x3dd968b9	0.106156774
220	0x3f189836	0.59607255
221	0x3f2dca01	0.6788636
222	0xbe8bdc28	-0.27316403
223	0xbf940a66	-1.1565673
224	0xbe168e2b	-0.1470267
225	0xbf4a46db	-0.79014367
226	0xbe2c1b5c	-0.16807312
227	0xbeec24b3	-0.4612175
228	0x3e8eaa9a	0.27864534
229	0xbe7aaa42	-0.2447901
230	0x3f096a99	0.5367828
231	0x3df25c46	0.11834006
232	0x3eb25604	0.3483125
233	0xbe7cde9d	-0.24694295
234	0xbe22fa82	-0.15915874
235	0x3f1d21ea	0.61379874
236	0x3ed321ae	0.41236633
237	0x3dde5b8e	0.108573064
238	0xbf1bcac6	-0.6085628
239	0xbf14ae84	-0.5807879
240	0x3cf02fb0	0.029319614
241	0x3defc5fe	0.11707686
242	0xbca9fc6f	-0.020750253
243	0xbe02b017	-0.12762485
244	0x3eb4bc67	0.3529999
245	0xbd30b97a	-0.043145634
246	0x3ea6bc62	0.325656
247	0xbe2ea8fd	-0.17056651
248	0xbea15907	-0.31513235
249	0x3e9d60ee	0.30738014
250	0x3eebd4ce	0.46060795
251	0xbeead48c	-0.45865285
252	0x3c18fb2c	0.009337228
253	0x3d05aec2	0.032637365
254	0x3da65518	0.08121699
255	0xbd755ad2	-0.059901066

weight_hh_l1 f4 [300, 100]
0	0xbe8be045	-0.27319542
1	0xbe9a22dc	-0.3010472
2	0x3e4a9343	0.19782738
3	0x3e167120	0.14691591
4	0x3e63dcc8	0.2225219
5	0x3e931098	0.28723598
6	0xbdd416de	-0.10355924
7	0x3e8514c4	0.25992405
8	0x3e63e804	0.22256476
9	0xbd9164ff	-0.070993416
10	0x3e7fd701	0.24984361
11	0xbda6a232	-0.08136405
12	0x3bdb3f9b	0.006690932
13	0x3e929bb0	0.28634405
14	0x3e53a63d	0.20668884
15	0x3d5baf9e	0.05363428
16	0xbe53c307	-0.20679866
17	0x3e9a2c72	0.30112034
18	0x3cfa00db	0.030517986
19	0xbdb534d9	-0.088479705
20	0x3b9fcdf9	0.004876849
21	0x3dfa8cae	0.12233864
22	0x3ea05cfd	0.31320944
23	0x3e2b5a18	0.16733587
24	0xbd21e201	-0.039522175
25	0x3e5d8c1b	0.21635477
26	0xbddd3d6c	-0.10802731
27	0x3dfcc513	0.123422764
28	0xbe8f2bae	-0.27963012
29	0xbe8292ab	-0.25502524
30	0x3c3e393d	0.011610326
31	0x3c44453f	0.0119794
32	0xbaaef130	-0.0013347026
33	0xbd39fccb	-0.045407098
34	0xbe17b9be	-0.14816949
35	0xbe0b9e99	-0.13634719
36	0x3e8a5fed	0.2702631
37	0x3c54195d	0.0129455
38	0xbdf24e9e	-0.11831401
39	0x3e18da89	0.14927115
40	0xbe7146bd	-0.23562141
41	0xbdba94c4	-0.09110406
42	0xbe96c1a3	-0.29444608
43	0x3e72093d	0.23636337
44	0x3e6bb83e	0.23019502
45	0xbe33abd7	-0.1754602
46	0xbd16b7a8	-0.036796242
47	0xbe45fe76	-0.1933535
48	0x3e4a1868	0.19735873
49	0xbe082aa5	-0.13297518
50	0x3db3b170	0.08774078
51	0xbd57a893	-0.052651
52	0xbe45ddb5	-0.19322856
53	0x3ca38db2	0.019965027
54	0x3e389826	0.1802679
55	0xbc212421	-0.009835274
56	0xbea579d1	-0.323195
57	0xbbb408b4	-0.0054942016
58	0x3d14f0ab	0.03636233
59	0xbd94861a	-0.0725214
60	0xbe5902bf	-0.21192454
61	0xbde6deb6	-0.112729475
62	0x3d5598bb	0.05214761
63	0xbe90157f	-0.281414
64	0xbe8486e1	-0.25884154
65	0x3d875b70	0.06609237
66	0xbe6fb5db	-0.23409216
67	0x3e83cc88	0.25741982
68	0x3e931ea2	0.28734308
69	0xbe293c87	-0.16526996
70	0xbdc056ec	-0.09391579
71	0x3ddf056e	0.108897075
72	0xbd867539	-0.06565327
73	0xbe411371	-0.18855073
74	0xbd524998	-0.051339716
75	0x3e8dabdc	0.2767018
76	0xbe4ea7d4	-0.20181209
77	0x3d4f5e2b	0.050626915
78	0x3e5cce71	0.21563126
79	0xbdba96d7	-0.09110802
80	0xbe1b71d8	-0.15180147
81	0x3ded3080	0.11581516
82	0xbe8c01e3	-0.2734519
83	0x3e53c952	0.20682266
84	0x3e6b1a71	0.22959305
85	0x3e6620ad	0.22473402
86	0xbc9be4dd	-0.019030029
87	0x3dd46e3c	0.10372588
88	0x3e7e8039	0.248536
89	0xbe029ca4	-0.12755066
90	0xbed7487c	-0.4204749
91	0xbe735498	-0.23762739
92	0x3ddeccd9	0.10878915
93	0x3d69c2fb	0.057070713
94	0xbe610d38	-0.21977699
95	0x3ddf8c30	0.109154105
96	0x3e40a98c	0.18814677
97	0xbde1dd7c	-0.11028573
98	0x3e1b6b1b	0.15177576
99	0x3d72eca9	0.059307728
100	0x3cd3fdd9	0.02587788
101	0x3d9cb4df	0.07651686
102	0xbe88a180	-0.26685715
103	0xbecc3899	-0.3988693
104	0x3ed65475	0.4186131
105	0xbbb661dd	-0.0055658654
106	0x3c9bdc76	0.019026022
107	0x3e25903e	0.16168305
108	0x3c99ce72	0.018775199
109	0x3e992067	0.29907534
110	0xbd9af4aa	-0.07566197
111	0x3eaaa87b	0.33331665
112	0xbe83e863	-0.25763234
113	0xbd419de0	-0.047269702
114	0xbf14bac9	-0.5809751
115	0x3ddc7a39	0.107654996
116	0x3e3c95e4	0.18416554
117	0x3e5a590f	0.21323036
118	0xbe9cf30f	-0.3065419
119	0x3f0be45a	0.5464531
120	0x3eb31b1b	0.34981617
121	0xbd995c26	-0.07488279
122	0xbd4a8221	-0.049440507
123	0xbd985eb4	-0.07439938
124	0x3ef26186	0.4734003
125	0xbe82d5df	-0.25553796
126	0xbea36c3c	-0.31918514
127	0x3d432898	0.047646135
128	0xbe5b6a49	-0.21427263
129	0x3ea4b91f	0.32172486
130	0xbf331907	-0.69960064
131	0xc008c995	-2.1373036
132	0xbd4d299a	-0.050088502
133	0xbfd9686e	-1.6984994
134	0xbdc2ff40	-0.09521341
135	0xbf845fb8	-1.0341711
136	0xba189f94	-0.0005822119
137	0x3f8b733b	1.089454
138	0x3d88d006	0.06680302
139	0x3f0f3cb4	0.55952
140	0x3d9cce52	0.0765654
141	0xbf22f70a	-0.636582
142	0x3e558769	0.20852436
143	0x3ec5ff9b	0.38671574
144	0xbe33d009	-0.17559828
145	0x3eba8756	0.36431378
146	0x3e758ee4	0.2398029
147	0x3ed43324	0.41445267
148	0x3cc062fd	0.023484701
149	0x3e455d63	0.19273905
150	0x3f38f905	0.72254974
151	0x3e9afb43	0.30269822
152	0xbf46d392	-0.7766658
153	0x3d232ec2	0.039839514
154	0xbdd39908	-0.10331923
155	0xbf6f135e	-0.93388927
156	0x3cb73be9	0.022367435
157	0xbf0dd584	-0.55403924
158	0xbf5e1212	-0.86746323
159	0x3efa0fea	0.48840266
160	0xbddda6c2	-0.10822822
161	0x3e6c06fe	0.23049542
162	0xbe14f88c	-0.14547938
163	0x3d546937	0.051858153
164	0xbf0461f7	-0.5171198
165	0x3d7cb429	0.06169525
166	0x3ea2e59a	0.31815797
167	0xbe11e7f0	-0.14248633
168	0xbd8660ec	-0.06561455
169	0xbf287162	-0.6579801
170	0x3d4f4f40	0.050612688
171	0xbd6b1faa	-0.057403244
172	0xbfac9640	-1.3483353
173	0xbdf97f28	-0.12182456
174	0xbf282e4a	-0.6569563
175	0x3d0bfec5	0.034178514
176	0x3e8c28c4	0.27374852
177	0x3ee9eacb	0.45686945
178	0x3e8aecb8	0.27133727
179	0x3efe5c50	0.49679804
180	0x3fc7f5c6	1.5621879
181	0x3d705b6d	0.05868094
182	0xbdcfda42	-0.10149051
183	0x3eeb1993	0.4591795
184	0xbd5c6607	-0.05380824
185	0xbe17cdff	-0.14824675
186	0xbef2b500	-0.47403717
187	0x3ee4bb1e	0.4467401
188	0x3d9245ea	0.07142241
189	0x3ef4da1b	0.4782265
190	0xbe0e0907	-0.13870631
191	0x3ebddec5	0.37084022
192	0x3edfe62f	0.43730304
193	0x3e99bb24	0.3002559
194	0xbf0272e6	-0.5095657
195	0xbf3db3b1	-0.7410231
196	0x3ea8c3d3	0.32961902
197	0xbc86f53a	-0.016474355
198	0x3e83eabc	0.25765026
199	0xbdbc9d19	-0.092096515
200	0xbdb2c32f	-0.087286346
201	0x3e204020	0.15649462
202	0xbee95b94	-0.4557768
203	0xbdbe79f5	-0.09300605
204	0x3f9f4664	1.2443357
205	0x3e77c1df	0.2419505
206	0xbe61d6a0	-0.22054529
207	0x3febd7cd	1.8425232
208	0x3efdb3b2	0.4955116
209	0xbe472c70	-0.19450545
210	0x3e0b0a59	0.13578166
211	0xbf3acc25	-0.7296775
212	0xbea05173	-0.3131214
213	0x3e6bd5f4	0.23030835
214	0xbe23f1f8	-0.16010273
215	0x3eea71c2	0.45789915
216	0xbe360b16	-0.17777666
217	0x3d175413	0.036945414
218	0x3e9653ec	0.29360902
219	0x3f818c41	1.0120927
220	0x3e0124d3	0.12611704
221	0x3e908b5c	0.28231323
222	0xbe985e55	-0.2975947
223	0x3e140cb4	0.14457971
224	0x3dd9bda3	0.106318735
225	0x3ad171e4	0.0015979377
226	0xbebc0017	-0.3671882
227	0x3ee86be5	0.45394817
228	0xbf243a3d	-0.64151365
229	0xbeb6d468	-0.35708928
230	0xbdebe3bf	-0.115180485
231	0xbe95c463	-0.29251394
232	0xbe8c0270	-0.2734561
233	0xbefb5e1d	-0.4909524
234	0xbcc425a9	-0.023943739
235	0x3e0640b3	0.13110618
236	0x3e23db44	0.16001612
237	0x3eb7f1bd	0.3592662
238	0xbe2a67a7	-0.16641103
239	0xbee8509a	-0.45373994
240	0xbd4b49c7	-0.049630906
241	0x3d10e1a6	0.035371445
242	0xbe9b8195	-0.303723
243	0x3e99583d	0.29950133
244	0x3e9db32b	0.30800757
245	0xbc9dec4f	-0.01927772
246	0x3e60b6bc	0.21944708
247	0xbd87bf2a	-0.066282585
248	0xbf78c66f	-0.97177786
249	0xbe6ede61	-0.23327018
250	0x3f04078f	0.51574033
251	0xbeb881bb	-0.36036476
252	0x3ebcf4ad	0.36905423
253	0xbf4d85d4	-0.8028233
254	0x3e1d6131	0.15369107
255	0x3e50bc7a	0.20384398
